models/v7-epoch=1-val_loss=0.002388.ckpt (torch, 82693 bytes, 18 tensors)

layers.0.weight f4 [36, 36]
0	0x3c114aa1	0.008867891
1	0xbc9067fd	-0.01762771
2	0xbd567224	-0.052354947
3	0xbe072afa	-0.13199988
4	0xbdfcae01	-0.12337876
5	0xbee30eb4	-0.44347155
6	0xbe2dc649	-0.16970171
7	0x3e2c5bdb	0.16831915
8	0xbd8a98f0	-0.06767452
9	0x3d96e099	0.07367057
10	0xbe4d97c0	-0.2007742
11	0xbf3d93e3	-0.7405378
12	0x3ea377b7	0.31927273
13	0x3db92533	0.09040298
14	0x3d9fbdb6	0.07799856
15	0xbd9c2788	-0.076247275
16	0xbe6151a9	-0.22003807
17	0x3f95cc8b	1.1703047
18	0x3d4a6ff0	0.04942316
19	0xbd65a35c	-0.056063995
20	0x3d9889fe	0.07448195
21	0xbd3408e6	-0.0439538
22	0x3e457ed1	0.19286658
23	0x3fa39d43	1.2782367
24	0xbe12b5f4	-0.14327222
25	0x3e1407ae	0.14456055
26	0xbdb76cf6	-0.089563295
27	0x3da988f4	0.08278075
28	0xbd4e8303	-0.05041791
29	0x3d0b0e9b	0.033949476
30	0xbce40467	-0.02783413
31	0x3cbbae9d	0.02291041
32	0xbdb0306f	-0.08602988
33	0x3dbf3180	0.09335613
34	0x3dffce26	0.124904916
35	0xbe01592d	-0.12631674
36	0xbc9d258d	-0.019182945
37	0x3e16d2db	0.14728872
38	0x3d43a500	0.047764778
39	0xbdcdd146	-0.10049681
40	0xbe5fa20b	-0.21839158
41	0x3ee9573b	0.45574364
42	0x3d23b735	0.03996964
43	0x3d88733b	0.066626035
44	0x3ee15e91	0.4401746
45	0xbd4b42ef	-0.04962438
46	0xbd0368bd	-0.032082308
47	0x3e17086b	0.14749305
48	0x3e46bf00	0.19408798
49	0xbc92542f	-0.017862407
50	0x3aad8a3f	0.0013240053
51	0x3d56e755	0.05246671
52	0xbde96342	-0.11395885
53	0x3ddc31af	0.10751664
54	0x3ca628dc	0.020283155
55	0x3e14b6fa	0.14522925
56	0xbcff08c5	-0.031132111
57	0x3dc194d0	0.09452212
58	0x3e80fb49	0.25191715
59	0x3d4d6557	0.050145473
60	0xbc4ddb19	-0.012564444
61	0x3e4c52a1	0.19953395
62	0x3e09e445	0.13465984
63	0xbc01cbd3	-0.007922131
64	0xbd604f72	-0.054763265
65	0x3e2b595f	0.16733311
66	0x3ef3df55	0.47631326
67	0xbd0ee933	-0.034890365
68	0xbbbbb654	-0.0057285223
69	0x3dcde60a	0.10053642
70	0x3e8e0c34	0.27743685
71	0xbcebccef	-0.028784243
72	0x3bfbfdb9	0.007690158
73	0xbd26f159	-0.04075751
74	0xbb2624ec	-0.0025351597
75	0xbc4e4728	-0.012590207
76	0xbf1bebc9	-0.60906655
77	0x3f613b28	0.8798089
78	0xbd1d14da	-0.038349964
79	0x3d476008	0.048675567
80	0xbdd11b98	-0.10210341
81	0x3dbcee03	0.09225085
82	0x3f08f96f	0.53505605
83	0xbf2f2363	-0.6841337
84	0x3e220c7b	0.15825073
85	0xbe0ae2c7	-0.13563071
86	0x3e09b177	0.13446604
87	0xbe18af81	-0.149107
88	0x3d226d34	0.039654925
89	0x3ce95a44	0.028485425
90	0xbe2b550d	-0.16731663
91	0x3d8e9794	0.06962505
92	0xbcb035d5	-0.021510044
93	0x3e42a352	0.19007614
94	0x3f34592e	0.7044858
95	0x3c9769b6	0.018483024
96	0x3f6c5425	0.92315894
97	0x3d12bee2	0.03582657
98	0x3f352764	0.7076323
99	0x3e34628c	0.17615718
100	0x3d89d183	0.06729414
101	0xbd9e3ad5	-0.07726065
102	0x3d83057b	0.0639753
103	0xbd848f2f	-0.064726226
104	0x3c358c46	0.011080807
105	0xbc62b25c	-0.0138364695
106	0xbcb43a72	-0.022000525
107	0x3c681d26	0.014167106
108	0xbd43a460	-0.047764182
109	0x3d48d208	0.049028426
110	0xbe132f17	-0.14373432
111	0x3d620d0c	0.055188224
112	0x3ed5353a	0.4164217
113	0x3f6f3265	0.9343627
114	0x3eff8320	0.49904728
115	0xbe768138	-0.2407273
116	0x3f236d02	0.6383821
117	0x3ba0d94d	0.004908717
118	0xbe61b4ec	-0.22041672
119	0xbedd6abd	-0.43245497
120	0xbced9998	-0.029003903
121	0x3c5de3e5	0.013543104
122	0x3da88537	0.08228534
123	0xbde4e3d8	-0.1117627
124	0x3d9e8252	0.077397004
125	0x3e2a7c88	0.16649067
126	0x3c8a26e6	0.016864251
127	0x3e379334	0.17927247
128	0xbcd769fa	-0.02629565
129	0xbc2cf78d	-0.010557068
130	0xbd9a084b	-0.07521113
131	0xbdaef953	-0.085436486
132	0xbc089d1b	-0.008338238
133	0x3c0e9454	0.008702356
134	0xbb2136ca	-0.0024599307
135	0xbd102be1	-0.035198096
136	0x3da2a9e5	0.07942561
137	0xbdc2752c	-0.09495005
138	0x3d910558	0.07081097
139	0xbde61c23	-0.112358354
140	0x3e2cc195	0.1687072
141	0xbe0ac1cb	-0.13550489
142	0x3d4cf262	0.05003584
143	0x3d1edecd	0.038786698
144	0x3dd55bc0	0.104178905
145	0x3d3211f9	0.04347417
146	0x3de549fe	0.111957535
147	0xbd86765f	-0.06565546
148	0x3e3aa453	0.18226747
149	0x3f0998d2	0.5374881
150	0xbc2b2f18	-0.01044824
151	0xbd4df40e	-0.050281577
152	0x3cebd6be	0.02878892
153	0x3d8cd30a	0.0687619
154	0xbd3ffaf7	-0.046870198
155	0xbe89d6f5	-0.26921812
156	0xbedbcd7d	-0.42930213
157	0x3fa18969	1.2620059
158	0xbe210dec	-0.15727967
159	0x3dfbc374	0.12293139
160	0x3d6d076a	0.0578684
161	0xbb56a361	-0.003275119
162	0x3db1cf3e	0.086821064
163	0x3c4563d2	0.012047725
164	0x3dde2908	0.1084767
165	0xbc768b90	-0.015047923
166	0xbdedabac	-0.116050094
167	0xbda269b6	-0.07930319
168	0xbcb085da	-0.0215482
169	0x3dcabb38	0.098989904
170	0x3e3b5088	0.18292439
171	0x3d9e5210	0.07730496
172	0x3db25a34	0.08708611
173	0xbdd05b40	-0.101736546
174	0xbcbcc3fb	-0.02304267
175	0x3d997ec5	0.074948825
176	0x3e7e7d26	0.24852428
177	0x3c2736bc	0.010205921
178	0xbae19d13	-0.001721295
179	0x3ce540b8	0.027984962
180	0x3de8a726	0.11360006
181	0x3de2b0e5	0.11068896
182	0x3e0512a1	0.12995388
183	0xbde13352	-0.10996117
184	0x3ca8e8a5	0.020618746
185	0xbeba969e	-0.36443037
186	0x3df69a2b	0.12041124
187	0x3d818473	0.06324091
188	0x3d0045b5	0.031316478
189	0x3e166a99	0.14689101
190	0xbdc12912	-0.09431662
191	0xbc7b5239	-0.015339428
192	0x3cf5a195	0.029984275
193	0x3b4fabb2	0.0031688032
194	0x3dc60a27	0.09669905
195	0xbc771d0f	-0.015082612
196	0xbd893c94	-0.067010075
197	0x3e48ccda	0.19609395
198	0x3ca607ae	0.020267334
199	0x3c45862a	0.012055913
200	0x3ea48779	0.32134607
201	0x3e0e1c79	0.13878049
202	0x3d19a658	0.037512153
203	0xbd6be55d	-0.057591785
204	0x3e40340f	0.18769859
205	0xbda5f361	-0.081030615
206	0xbcf9fa33	-0.030514812
207	0xbd3a15ad	-0.045430828
208	0x3e3b6e75	0.18303855
209	0xbe171501	-0.14754106
210	0xbdcda896	-0.10041921
211	0x3de39141	0.11111689
212	0x3da3af9e	0.07992481
213	0x3d4349bc	0.04767774
214	0xbda6c134	-0.08142319
215	0x3e1806f3	0.14846401
216	0x3e2f4771	0.17117096
217	0x3f339ed8	0.7016425
218	0xbd1a4184	-0.037660137
219	0x3d075978	0.03304431
220	0xbf28b1a8	-0.6589608
221	0xbef6cdd4	-0.4820391
222	0xbedb9c4d	-0.42892686
223	0x3f08bab9	0.53409916
224	0xbd6fc573	-0.05853791
225	0x3d205d24	0.039151326
226	0x3f0a772c	0.5408809
227	0xbf48764c	-0.78305507
228	0x3f6f9bfa	0.93597376
229	0xbf562357	-0.83647674
230	0x3e2f4afa	0.17118445
231	0xbe37ec22	-0.17961171
232	0xbd8eaddc	-0.06966755
233	0x3dd2bb62	0.10289647
234	0xbd6f6d2a	-0.058453716
235	0xbd8b29ef	-0.067951076
236	0x3da6335e	0.08115266
237	0xbdfe8334	-0.12427369
238	0xbda8b8b7	-0.082383566
239	0x3c5ab6d9	0.013349258
240	0x3dd865d3	0.105662964
241	0x3d4c2a7c	0.049845204
242	0x3e07fd0d	0.13280125
243	0xbe1870db	-0.14886801
244	0x3e5fdd9a	0.21861878
245	0x3f2e91d5	0.6819127
246	0x3e2716b8	0.1631726
247	0x3ec5fea3	0.38670835
248	0xbe3b6baa	-0.1830279
249	0x3f124d4c	0.57149196
250	0x3ed5e3fd	0.41775504
251	0x3e5f314f	0.21796153
252	0xbcbb4910	-0.022861987
253	0x3e2e359c	0.17012638
254	0xbe07052f	-0.13185571
255	0xbde8c2c6	-0.11365275

layers.0.bias f4 [36]
0	0xbe62eb1f	-0.22160004
1	0xbe60e8a0	-0.2196374
2	0xbe85a85f	-0.2610502
3	0xbd6991b2	-0.05702371
4	0xbee13e57	-0.43992874
5	0xbe32d4e9	-0.17464031
6	0xbd1d6da2	-0.038434632
7	0xbdaa246e	-0.0830773
8	0x3e860d08	0.26181817
9	0xbe8499e3	-0.25898656
10	0xbe1de6a7	-0.15420018
11	0xbdd87584	-0.10569289
12	0xbda0fcfc	-0.07860753
13	0xbec43a9b	-0.38325962
14	0xbe1fe46d	-0.15614481
15	0x3da8c839	0.082413144
16	0xbeb7599e	-0.3581056
17	0x3e3a3d78	0.18187511
18	0xbe8f4bfa	-0.27987653
19	0xbdb56eb4	-0.088590056
20	0xbed15124	-0.40882218
21	0xbeeb80a3	-0.4599658
22	0xbdcd1840	-0.10014391
23	0xbea603ac	-0.32424676
24	0x3e25e290	0.16199708
25	0xbdd00223	-0.101566575
26	0xbe633ef2	-0.2219198
27	0xbdc8bcf3	-0.09801664
28	0xbe3ce61e	-0.18447158
29	0xbe445aeb	-0.19175307
30	0x3d9ff212	0.07809843
31	0x3cee2044	0.02906812
32	0xbd41e628	-0.047338635
33	0xbea3fd48	-0.32029176
34	0xbdc19322	-0.094518915
35	0xbea09b45	-0.3136846

layers.2.weight f4 [64, 36]
0	0xbdb76862	-0.08955456
1	0x3d321d44	0.04348494
2	0xbe3d3af1	-0.18479516
3	0x3ccd291a	0.025044013
4	0xbdcc522d	-0.09976611
5	0x3cd8ecd7	0.026480122
6	0xbca0b133	-0.019615745
7	0xbe30c2bf	-0.1726179
8	0xbe56acf5	-0.20964415
9	0x3dd8b899	0.10582084
10	0xbd8b2d40	-0.0679574
11	0x3da31a23	0.079639696
12	0xbe00be73	-0.1257265
13	0x3dab918b	0.083773695
14	0xbdc4fe4b	-0.09618815
15	0x3d890011	0.06689466
16	0xbe2e8ddc	-0.17046303
17	0xbdb1a954	-0.08674875
18	0xbdf35ea8	-0.118832886
19	0xbb40d078	-0.0029421132
20	0xbe28dd69	-0.16490711
21	0x3cc8f1d0	0.024529368
22	0xbde4fddd	-0.11181233
23	0xbe3f8ad3	-0.18705301
24	0xbde8c104	-0.1136494
25	0xbe0d44fc	-0.13795847
26	0xbd83744a	-0.06418665
27	0xbe0ec28d	-0.13941403
28	0x3dbffd59	0.09374494
29	0xbcbe4dca	-0.023230452
30	0x3da22067	0.079163365
31	0x3de9db00	0.11418724
32	0xbce4567c	-0.02787327
33	0xbe38ddc0	-0.18053341
34	0xbd8dc1e6	-0.06921749
35	0x3d838e3b	0.06423613
36	0x3e14e95e	0.14542148
37	0xbd7ed56c	-0.062215254
38	0x3e18a1ba	0.14905444
39	0x3c26f59f	0.010190397
40	0xbe51d5a8	-0.2049166
41	0x3e533e92	0.20629337
42	0x3e1c7c42	0.15281776
43	0xbda2b4d0	-0.079446435
44	0xbdbc50a5	-0.09195069
45	0xbe1fd9df	-0.15610455
46	0xbda23951	-0.079210885
47	0x3d88bbd7	0.066764526
48	0xbe1cd795	-0.15316613
49	0xbde91ff0	-0.11383045
50	0x3d2a665b	0.04160152
51	0xbd03acff	-0.032147404
52	0x3d8b28f1	0.06794918
53	0xbe0ce9bb	-0.13761036
54	0x3d1e69a2	0.038674958
55	0xbeabb64c	-0.3353752
56	0x3d8ff66f	0.07029425
57	0xbd2c461a	-0.04205904
58	0x3cc0e72f	0.023547737
59	0x3cc764e0	0.024340093
60	0xbd6ba935	-0.057534415
61	0x3d4a1cae	0.049343757
62	0x3deb618a	0.114932135
63	0xbdc7d70c	-0.09757814
64	0xbda3c75b	-0.079970084
65	0xbbf3c6cc	-0.00743947
66	0x3a44f36e	0.00075130805
67	0xbe4c1b81	-0.19932367
68	0xbe966878	-0.29376578
69	0xbcb54069	-0.02212544
70	0xbcb40719	-0.02197604
71	0xbe797690	-0.24361634
72	0x3dd28ba9	0.10280544
73	0xbd0acf3a	-0.033889033
74	0xbd18685a	-0.037208892
75	0x3cc13e8d	0.023589397
76	0x3dcd0f0a	0.10012634
77	0xbcea5ca2	-0.028608624
78	0xbdf75b08	-0.1207791
79	0xbc3301a6	-0.010925686
80	0xbe5a657c	-0.21327776
81	0x3dfa91ff	0.12234878
82	0x3b561fa4	0.0032672668
83	0x3ca3901f	0.019966183
84	0xbc7a224a	-0.015266964
85	0x3dbc42d0	0.09192431
86	0x3df4decb	0.11956557
87	0x3d8a8c1c	0.06765005
88	0x3caaf5e0	0.020869195
89	0xbe16faf9	-0.14744176
90	0x3df71dff	0.12066268
91	0x3d72a583	0.059239876
92	0xbd8ca2e1	-0.06867004
93	0x3d9cfb77	0.076651506
94	0xbd20200d	-0.039093066
95	0x3e001203	0.12506871
96	0x3c22bfa3	0.009933385
97	0xbda5ff1b	-0.08105298
98	0x3dcdb18a	0.100436285
99	0x3cfc73b2	0.030816887
100	0x3d35acb5	0.04435416
101	0x3d9afc0b	0.07567605
102	0xbd8a90f0	-0.06765926
103	0xbdc645f9	-0.09681315
104	0x3d6b78b1	0.057488147
105	0x3d243ab8	0.04009506
106	0xbcbf494c	-0.02335038
107	0xbcf5b7fb	-0.029994955
108	0xbe67b77f	-0.22628592
109	0x3b61607a	0.003438978
110	0xbd756de3	-0.05991925
111	0xbc8af2cb	-0.016961476
112	0xbe07891e	-0.132359
113	0xbe7c9c6b	-0.24669044
114	0xbb7aa956	-0.0038247905
115	0xbc32038c	-0.010865103
116	0x3e71087d	0.23538394
117	0xbdf8b86c	-0.12144551
118	0xbdbf9119	-0.09353847
119	0xbd8fc077	-0.07019132
120	0xbd6bb9a9	-0.057550106
121	0x3d148821	0.036262635
122	0xbea61479	-0.32437494
123	0xbe034eba	-0.12823
124	0xbda48a42	-0.08034183
125	0x3e874990	0.2642331
126	0x3d07fac3	0.03319813
127	0xbc5df357	-0.013546786
128	0xbbe9db4c	-0.007136738
129	0xbdc939ae	-0.09825455
130	0x3bf2c90b	0.00740922
131	0xbc4e6e2d	-0.01259951
132	0x3cf88220	0.030335486
133	0xbc03b65f	-0.008039086
134	0xbe3b742c	-0.18306035
135	0x3d57a5ae	0.05264824
136	0xbcec4d75	-0.028845528
137	0xbe0686da	-0.1313738
138	0xbd97dc81	-0.07415105
139	0xbe2bf101	-0.16791154
140	0xbdc11ee1	-0.09429718
141	0xbd109528	-0.035298496
142	0x3d9eb17e	0.07748698
143	0x3c124b2d	0.008929056
144	0x3dbde62a	0.09272416
145	0xbe54fb0f	-0.20798896
146	0x3e09c287	0.13453113
147	0xbe1cdbbe	-0.153182
148	0xbe34423e	-0.17603394
149	0x3d805094	0.06265369
150	0x3e6345ca	0.22194591
151	0xbe4c2e48	-0.1993953
152	0x3dfab1e9	0.12240965
153	0xbdd0ef13	-0.1020185
154	0xbce9f247	-0.02855791
155	0xbdf8eb67	-0.121542744
156	0xbd21767b	-0.039419632
157	0xbdf0468a	-0.11732204
158	0xbdbe33c5	-0.09287218
159	0xbe078cd3	-0.13237314
160	0x3c043aaa	0.008070627
161	0xbde6bdbd	-0.112666585
162	0xbe714b14	-0.23563796
163	0xbd00d0a9	-0.031448994
164	0x3e0c9376	0.13728127
165	0x3d12fe46	0.035887025
166	0x3d703995	0.058648665
167	0xbe09c751	-0.1345494
168	0xbc120b1a	-0.00891378
169	0x3e4c5e39	0.19957818
170	0x3d70e8cb	0.05881576
171	0xbe28de52	-0.16491058
172	0xbe64e751	-0.22353865
173	0xbdb733f0	-0.08945453
174	0xbe41b6bb	-0.18917362
175	0xbc0b3571	-0.008496628
176	0x3d4b2b0e	0.049601607
177	0x3ddfa0f4	0.10919371
178	0xbe47fcd7	-0.19530044
179	0x3d2abfba	0.04168675
180	0x3de0dfd4	0.10980192
181	0x3e3cf6db	0.18453543
182	0xbc92ab0c	-0.017903827
183	0xbd6dc67c	-0.058050618
184	0xbc446d91	-0.011989013
185	0xbd24cb78	-0.040233105
186	0x3d24f835	0.04027577
187	0x3d6f17ca	0.058372296
188	0xbe39355e	-0.18086764
189	0x3ddca86c	0.107743114
190	0x3bbe6dec	0.0058114436
191	0xbdff4d0e	-0.12465869
192	0x3d14ce89	0.03632978
193	0x3cdbb237	0.026818378
194	0x3dfb7b1d	0.12279341
195	0xbeda8ead	-0.42686978
196	0x3d311d73	0.043240976
197	0xbe1d3d58	-0.15355432
198	0xbe81a0a2	-0.25317866
199	0xbc9d605c	-0.019210987
200	0x3c4e340a	0.012585649
201	0xbde67589	-0.11252887
202	0x3cecaa47	0.028889788
203	0xbeb3d3ac	-0.3512243
204	0x3d8530b9	0.06503434
205	0xbd05ac2f	-0.03263491
206	0x3d3640b8	0.044495314
207	0xbcad3fae	-0.021148529
208	0x3ddaaedd	0.10677884
209	0x3e0ce8ed	0.13760729
210	0xbdb62c7e	-0.08895205
211	0x3e0a3716	0.13497576
212	0x3d092770	0.033484876
213	0x3d690b81	0.056895737
214	0x3d5cab6b	0.053874414
215	0x3da7207c	0.08160493
216	0xbdd5c0eb	-0.10437187
217	0x3db14144	0.086550266
218	0x3e21bf8b	0.15795724
219	0x3d571528	0.05251041
220	0xbe776686	-0.24160203
221	0xbe413ffb	-0.18872063
222	0xbdd1f2e4	-0.10251406
223	0x3d685400	0.056720734
224	0xbde43116	-0.11142175
225	0xbd241a3c	-0.04006408
226	0xbed1076b	-0.40825972
227	0x3e17d321	0.14826633
228	0x3de88f29	0.11355431
229	0xbdc4c319	-0.096075244
230	0x3e0e7f29	0.13915695
231	0x3e1cd09a	0.1531395
232	0xbe533813	-0.2062686
233	0xbe01a977	-0.12662302
234	0x3d1e3de5	0.038633246
235	0xbea27363	-0.31728658
236	0x3d31c4e2	0.043400653
237	0xbd9ce1cd	-0.076602556
238	0x3d598062	0.05310095
239	0xbb4df43a	-0.0031426088
240	0xbdb08016	-0.086181805
241	0x3d6d9030	0.057998836
242	0x3d0ad5be	0.033895247
243	0xbcd90704	-0.026492603
244	0xbe14273b	-0.1446809
245	0x3d8b3cba	0.06798692
246	0xbd9d92f3	-0.07694044
247	0xbd8badc0	-0.068202496
248	0xbe96082c	-0.2930311
249	0xbe33e0e4	-0.17566258
250	0xbd5c8ab8	-0.05384323
251	0x3d8dbc95	0.06920735
252	0xbe40be44	-0.1882258
253	0x3d157044	0.036484018
254	0x3c314ce2	0.010821553
255	0xbbde8f4e	-0.0067919856

layers.2.bias f4 [64]
0	0xbd8338b0	-0.06407297
1	0x3cdd127e	0.026986357
2	0xbe1613e5	-0.14656027
3	0x3e9cfcc1	0.30661586
4	0xbb045be4	-0.0020196373
5	0x3b53ef95	0.0032338847
6	0xbbfd0229	-0.007721205
7	0x3ea1c607	0.31596395
8	0x3d70c456	0.05878099
9	0x3d506038	0.05087301
10	0xbdb6536b	-0.089026295
11	0xbdced7b2	-0.10099734
12	0xbe12b0e4	-0.14325291
13	0xbd95dc9f	-0.07317471
14	0xbc2bd6b9	-0.010488206
15	0xbe253c24	-0.16136223
16	0xbe12c7f7	-0.14334093
17	0x3c803867	0.015651895
18	0xbe32130e	-0.17390081
19	0xbd8c7dd8	-0.0685994
20	0xbdef1f28	-0.116758645
21	0x3bb41bda	0.005496484
22	0x3cc0507d	0.02347588
23	0xbe019cff	-0.12657546
24	0x3c8489c9	0.016178982
25	0xbd9bb823	-0.07603481
26	0xbe292325	-0.16517313
27	0xbdf228be	-0.11824177
28	0xbdfc89dd	-0.12330983
29	0xbddb668e	-0.1071292
30	0xbde8e1ba	-0.11371179
31	0xbda7f5d2	-0.082011834
32	0xbe077fb0	-0.13232303
33	0xba61e499	-0.00086171326
34	0xbdeeda24	-0.11662701
35	0xbdba686b	-0.091019474
36	0x3ccb3e31	0.024809929
37	0x3cb8f6f7	0.0225787
38	0xbe5457ce	-0.2073662
39	0x3d28d9f0	0.041223466
40	0xbdde48b7	-0.10853713
41	0xbddcc279	-0.1077928
42	0xbe060849	-0.13089098
43	0xbdbcccbb	-0.09218737
44	0xbd4894f7	-0.04897019
45	0xbdc3a4d9	-0.095529266
46	0xbdf4214f	-0.119204156
47	0xbd852dd4	-0.06502882
48	0xbdef842e	-0.11695133
49	0xbb469868	-0.0030303244
50	0xbd9e37fa	-0.077255204
51	0xbe505005	-0.20343025
52	0xbc2532fc	-0.010082956
53	0xbdcb3e3e	-0.09923981
54	0x3d00ebe7	0.031474974
55	0xbcfec909	-0.03110172
56	0xbdc446e0	-0.09583831
57	0x3bc8b36e	0.0061249053
58	0xbe0c0020	-0.13671923
59	0x3e7cafc1	0.2467642
60	0x3d0d7b58	0.034541458
61	0x3e9be003	0.30444345
62	0xbe02d136	-0.1277512
63	0xbd6a06fb	-0.057135563

layers.5.weight f4 [36, 64]
0	0xbdc84765	-0.097792424
1	0xbb35630b	-0.0027677442
2	0xba842a07	-0.0010083326
3	0xb95f3704	-0.00021287432
4	0xb8a393a8	-7.799949e-05
5	0x3a990cc8	0.0011676783
6	0xbb273e12	-0.0025519175
7	0x3a96cda4	0.0011505377
8	0xbc37248e	-0.011178149
9	0x3b2e3b5f	0.002658568
10	0xbac8a196	-0.0015306945
11	0x3b87d2a0	0.0041449815
12	0xbb14a512	-0.0022681397
13	0x3ae6e59d	0.0017616038
14	0x3aa9b11c	0.001294646
15	0x3d94b5ad	0.072612144
16	0x3bba9a26	0.0056946455
17	0xbc12c03a	-0.008956963
18	0xbb6587a0	-0.0035023466
19	0xbbce8ed6	-0.0063036485
20	0x3ab58b7a	0.0013850771
21	0xbb37c015	-0.0028038074
22	0x3ae747a7	0.0017645255
23	0xbab5fdc4	-0.0013884832
24	0x3b865e96	0.004100631
25	0xbda1632d	-0.078802444
26	0x3ba0ae2c	0.0049035754
27	0x3bf0f764	0.00735371
28	0x3b817b6a	0.0039514797
29	0xbb35501e	-0.0027666162
30	0x3b1bba63	0.0023762218
31	0xbafebcb4	-0.00194349
32	0x3b63d8ea	0.0034766742
33	0xbbecb3c9	-0.0072235805
34	0xba79ada6	-0.0009524472
35	0x3cbe2c5c	0.023214512
36	0xba7de359	-0.00096850615
37	0x3a277772	0.0006388343
38	0xba9ae0a3	-0.0011816215
39	0xbb1b23b3	-0.0023672401
40	0xb9a39a8f	-0.00031204938
41	0x3ac9551e	0.001536045
42	0x3ac7ae39	0.0015234418
43	0xbb0f50f9	-0.0021868332
44	0x3b075f7e	0.0020656283
45	0xbb6d8fda	-0.0036249072
46	0xbb888bbc	-0.0041670483
47	0xbb2520f2	-0.002519664
48	0xbdae1318	-0.084997356
49	0xbc224250	-0.009903505
50	0xba870f75	-0.0010304289
51	0x3cd34e42	0.025794152
52	0xbb8699da	-0.004107696
53	0xbbe8a567	-0.0070997956
54	0x3994dd41	0.00028393607
55	0x3bcba794	0.006215045
56	0xbb69e441	-0.0035689028
57	0xbbcc96fe	-0.0062435856
58	0xbad80cae	-0.0016483271
59	0x3a894c91	0.0010475089
60	0xbb907e4f	-0.0044095884
61	0x3998a63c	0.00029115553
62	0xbac3dedd	-0.0014943738
63	0x3b39354f	0.0028260534
64	0x3dac8939	0.08424611
65	0xbbc36703	-0.0059632077
66	0xbc6f2b96	-0.014597794
67	0x3c974760	0.018466651
68	0xbbb8852e	-0.0056311106
69	0xbc1ff943	-0.0097640185
70	0xbc29aad5	-0.010355671
71	0x3cc4de30	0.024031729
72	0xbc38b3f3	-0.011273372
73	0xbc8e09ed	-0.017338717
74	0xbc3a2b83	-0.011362913
75	0xbc3b56c9	-0.011434265
76	0xbc444520	-0.011979371
77	0xbc5b1b09	-0.013373145
78	0xbba9acd0	-0.0051780716
79	0xbd235b79	-0.039882157
80	0xbc3115bb	-0.010808404
81	0xbaa05b24	-0.0012234193
82	0xbd84de74	-0.06487742
83	0xbc8ae2b5	-0.016953805
84	0xbc5467ac	-0.01296417
85	0xbc139826	-0.009008443
86	0xbc280ba1	-0.010256679
87	0xbca07975	-0.019589165
88	0xbc37e378	-0.011223666
89	0xbdb1fa54	-0.086903244
90	0xbc87b980	-0.016567945
91	0xbc48a9bc	-0.012247499
92	0xbc89971f	-0.016795693
93	0xbc2053f7	-0.009785644
94	0xbc80282e	-0.01564416
95	0xbc0951d9	-0.00838133
96	0xbc6a207a	-0.01428997
97	0xbb2fce59	-0.0026825874
98	0xbc38e795	-0.011285682
99	0x3c86812a	0.016419012
100	0xbbc81004	-0.006105425
101	0xbc8ced52	-0.017203007
102	0xbc36b161	-0.011150689
103	0xbb8efdf0	-0.004363768
104	0xbc666d65	-0.014064168
105	0xbc2b6353	-0.010460692
106	0xbc2628f5	-0.010141601
107	0xbc5338e0	-0.012891978
108	0xbba1cb79	-0.004937586
109	0x3da624bc	0.08112475
110	0xbc716191	-0.014732734
111	0xbc2b97e2	-0.010473223
112	0xbd1f6a5c	-0.03891979
113	0xbc4221f0	-0.011848912
114	0xbc74ea19	-0.014948391
115	0xbd43eae5	-0.047831435
116	0xbc1671d9	-0.009182417
117	0xbc46f8c6	-0.012144273
118	0xbb98af60	-0.004659578
119	0xbc2c3f65	-0.010513161
120	0xbc603eec	-0.013686877
121	0xbc480965	-0.012209271
122	0xbc83f00a	-0.01610567
123	0x3d1b6f97	0.037948217
124	0xbc205bfd	-0.009787557
125	0x3cc89bbf	0.024488328
126	0xbc66e511	-0.0140927
127	0xbc059424	-0.008152995
128	0x3daccb35	0.08437196
129	0x3943852e	0.00018646262
130	0xba1fe551	-0.00060995395
131	0xb994da1d	-0.00028391267
132	0xba98494b	-0.0011618523
133	0x3a687ed1	0.0008868995
134	0x3969b7af	0.00022289039
135	0x39b7b352	0.00035038084
136	0x3a895842	0.0010478573
137	0xb96ddec6	-0.00022685071
138	0xb94c5e2c	-0.00019490038
139	0x3a0dc285	0.0005407709
140	0xb93f0f29	-0.00018220827
141	0xbaeebcd2	-0.0018214232
142	0x3ac9d681	0.001539901
143	0x3d953e28	0.07287246
144	0x38d383f9	0.00010085846
145	0xba28cdda	-0.00064393657
146	0xbd5d9817	-0.054100122
147	0xb99f3492	-0.0003036601
148	0x39ba74eb	0.00035563795
149	0xba50fa09	-0.00079718285
150	0xba76aafc	-0.0009409634
151	0x3a1d5212	0.0006001304
152	0xba6d7e9a	-0.00090596976
153	0xbd37c007	-0.044860866
154	0xba3a46cc	-0.00071058865
155	0xba0b28b3	-0.0005308494
156	0x3a238b4f	0.0006238715
157	0xb9643406	-0.00021763155
158	0x3a3d5dfe	0.0007223784
159	0xba15b8f5	-0.00057114597
160	0xb8fb3135	-0.00011977778
161	0x38c234df	9.260489e-05
162	0x38b405f3	8.584177e-05
163	0x3b39a135	0.0028324847
164	0x3a13dcb8	0.00056404946
165	0xba89858a	-0.0010492068
166	0x3b804394	0.003914306
167	0x3a54ab8d	0.0008112721
168	0x3ac84add	0.00152811
169	0xb9ba3603	-0.00035516926
170	0x3971dc01	0.00023065509
171	0xba6f22ce	-0.0009122313
172	0xb9bde99b	-0.0003622294
173	0x3cc982da	0.024598528
174	0xb98a6b46	-0.00026401336
175	0x388fa6de	6.849853e-05
176	0xbce806d6	-0.028323572
177	0x394a1d86	0.0001927522
178	0xb9bf1faf	-0.00036453965
179	0x3cf728c0	0.030170798
180	0x37462280	1.1809752e-05
181	0x3a00f2a9	0.00049189717
182	0x3aad4d23	0.0013221841
183	0x3861c5b6	5.3828313e-05
184	0x3980ecce	0.00024590496
185	0x39d5ce20	0.000407801
186	0x37a835b8	2.0052175e-05
187	0x3983c916	0.00025136088
188	0xb89c9ad1	-7.4674965e-05
189	0xb826e9c0	-3.979518e-05
190	0x37a019ce	1.9085503e-05
191	0xba209de5	-0.0006127044
192	0x3c224cdb	0.009906019
193	0xb99c38d1	-0.0002979697
194	0xb9a5e796	-0.00031643797
195	0xb8e3e78e	-0.00010867334
196	0xb8e94dce	-0.00011124798
197	0x39b7dce7	0.00035069065
198	0x39c3ea8a	0.00037368044
199	0xb86ec9f4	-5.6931705e-05
200	0xb96d32d9	-0.00022621024
201	0x381f0be8	3.7919643e-05
202	0xb8e3953d	-0.00010852001
203	0xb9ea44ec	-0.0004468331
204	0x38145174	3.536181e-05
205	0x39c24339	0.00037052648
206	0x38afb1a0	8.3777355e-05
207	0x3d95b3bd	0.07309673
208	0xb9b7562b	-0.0003496868
209	0xba044b76	-0.0005046645
210	0xbc643349	-0.013928243
211	0xb8d56d2d	-0.00010176967
212	0xb9a3f808	-0.0003127458
213	0xb8367ece	-4.3510277e-05
214	0x398ec05a	0.00027227664
215	0xb8c805b7	-9.537808e-05
216	0xba003520	-0.0004890729
217	0x3d47f325	0.048815865
218	0xb9c60927	-0.00037772322
219	0x38761c58	5.8677368e-05
220	0x371b8e28	9.271818e-06
221	0x37807a18	1.5315643e-05
222	0xb9a8b892	-0.00032180973
223	0xb9059e33	-0.00012742802
224	0xb92cf9d9	-0.00016496274
225	0xb89e98fd	-7.5625234e-05
226	0xb9e1583d	-0.00042981087
227	0xba845b0e	-0.0010097937
228	0x38892af3	6.540669e-05
229	0x37bb9f46	2.2366305e-05
230	0xb9eb38e0	-0.00044865068
231	0x391858c9	0.00014528925
232	0xb914e376	-0.00014199116
233	0xb8ff669c	-0.0001217846
234	0xb8f3195e	-0.00011591868
235	0x39f4e1f9	0.0004670767
236	0x386f7f7c	5.710077e-05
237	0x3d251ae9	0.040308867
238	0xb901f42e	-0.00012393363
239	0xb98c8098	-0.0002679869
240	0x3d0f31ad	0.034959484
241	0xb8b850fc	-8.788888e-05
242	0xb9754bb3	-0.00023393221
243	0x3cb1c1fb	0.021698942
244	0x39a10685	0.0003071317
245	0xb922a2b7	-0.0001551014
246	0xb951e980	-0.00020018779
247	0xb82f2074	-4.1753476e-05
248	0x397efd1d	0.0002431762
249	0x3981841e	0.00024703232
250	0xb8b884b3	-8.798521e-05
251	0xb948c310	-0.00019146153
252	0xb92b4766	-0.00016334429
253	0xb8c160f3	-9.221015e-05
254	0x37d98fdc	2.5935406e-05
255	0xb829805e	-4.041229e-05

layers.5.bias f4 [36]
0	0x39dd3074	0.00042188505
1	0xbd640105	-0.055665035
2	0xb9d5a6fb	-0.00040750936
3	0xb84fb6b4	-4.95228e-05
4	0xbd3df935	-0.04638024
5	0x3ad6576b	0.0016352957
6	0xbd860188	-0.06543261
7	0x3d79b858	0.06096682
8	0xbd6075c2	-0.054799803
9	0x3dc9415a	0.09826918
10	0x3d464d22	0.048413403
11	0xbb2e910c	-0.0026636748
12	0x3d8e55c3	0.069499515
13	0x3d3e1bc2	0.04641319
14	0x3d94ecab	0.07271703
15	0x3da62229	0.08111984
16	0xbcb44d92	-0.022009645
17	0x3e140a97	0.14457165
18	0xbcc101bb	-0.023560395
19	0x3e883484	0.26602566
20	0xbccaa258	-0.024735615
21	0x3ebaf924	0.36518204
22	0x3d0f8ffd	0.035049427
23	0x3e124450	0.14283872
24	0x3d241107	0.0400553
25	0x3e876ca3	0.2645007
26	0x3d55df3b	0.052214842
27	0x3eba28cc	0.3635925
28	0xbc22e686	-0.009942656
29	0xbd822344	-0.06354383
30	0x3bd6ac60	0.0065513104
31	0xbd83c118	-0.06433314
32	0xbcccaf7c	-0.024986021
33	0xbd622552	-0.055211373
34	0x3ca27f62	0.019836131
35	0xbd6dbf56	-0.0580438

exp_avg f4 [36, 36]
0	0xb928f0ba	-0.00016111406
1	0xb8c42976	-9.353731e-05
2	0x00000000	0.0
3	0x00000000	0.0
4	0x38866ca2	6.409852e-05
5	0x36039934	1.9609697e-06
6	0x3a0c49b6	0.000535156
7	0x39e37b9b	0.00043388907
8	0x3ae32dc0	0.001733236
9	0x3ad635f6	0.0016342986
10	0xb8baf2df	-8.9144094e-05
11	0x3453c008	1.9720767e-07
12	0xb94841e4	-0.00019098032
13	0x38e50051	0.0001091963
14	0x3b2d7f02	0.0026473408
15	0x3b3bddd2	0.002866615
16	0x361fdd30	2.3821594e-06
17	0xb926c7c9	-0.0001590542
18	0x3aa47bf5	0.0012549149
19	0x3a83b9f3	0.0010049924
20	0x3a4b32c6	0.0007751401
21	0x39d934e4	0.00041428872
22	0xb8ba5ca2	-8.886425e-05
23	0xb91cc964	-0.00014952343
24	0x3a95e39f	0.0011435634
25	0x3a847f3e	0.0010108722
26	0x3b42db78	0.0029732864
27	0x3b426f3a	0.0029668347
28	0x396ff4a4	0.00022883952
29	0x39999879	0.00029296035
30	0x3996449e	0.00028661353
31	0x39b9d84a	0.00035447098
32	0xb8b4d546	-8.622794e-05
33	0xb861701d	-5.3748594e-05
34	0x39550350	0.00020314497
35	0x399a59dc	0.0002944012
36	0xb54ee89a	-7.707946e-07
37	0xb697649d	-4.5118636e-06
38	0x00000000	0.0
39	0x00000000	0.0
40	0xb69a1209	-4.591657e-06
41	0x34290418	1.5740841e-07
42	0xb712c2cc	-8.747633e-06
43	0xb65c8043	-3.2857213e-06
44	0xb711c7ad	-8.689164e-06
45	0xb738697e	-1.0991816e-05
46	0x367d1a38	3.77152e-06
47	0xb2932b1c	-1.7132656e-08
48	0x36b07728	5.2590804e-06
49	0x37089e5e	8.143104e-06
50	0xb7af0030	-2.0861713e-05
51	0xb73d24df	-1.1273863e-05
52	0xb6564b2f	-3.1932248e-06
53	0x375446e2	1.2652688e-05
54	0xb67b82cd	-3.747805e-06
55	0x37c2c27d	2.3217168e-05
56	0xb69e14d7	-4.711193e-06
57	0x3802611b	3.108485e-05
58	0x36354588	2.7011574e-06
59	0x37424145	1.1578498e-05
60	0x35f68223	1.8366303e-06
61	0x37c0c46e	2.2979653e-05
62	0x361c03e6	2.324808e-06
63	0x37fcfe4b	3.0159155e-05
64	0xb5a505ff	-1.2295203e-06
65	0xb6c3edcd	-5.8391365e-06
66	0x33691d3a	5.427612e-08
67	0xb6c52456	-5.8752876e-06
68	0xb64e61a9	-3.0753238e-06
69	0xb6993b08	-4.5666275e-06
70	0x35a0f528	1.1992279e-06
71	0xb6b31992	-5.3375925e-06
72	0xb92ce08b	-0.00016486847
73	0xb9154bd0	-0.0001423799
74	0x00000000	0.0
75	0x00000000	0.0
76	0x37e3be4a	2.7149119e-05
77	0xb640d7df	-2.8735883e-06
78	0x39aa06a6	0.0003242988
79	0x39966d61	0.00028691723
80	0x3a0f473d	0.00054656324
81	0x3a017172	0.0004937864
82	0xb7f2db98	-2.8950904e-05
83	0xb4af770c	-3.2682908e-07
84	0x3988a36f	0.0002606171
85	0x39bfc751	0.0003657886
86	0x39b3d9b0	0.0003430373
87	0x39eff7cc	0.00045770255
88	0x36b67cf6	5.43857e-06
89	0xb8618d12	-5.3775562e-05
90	0x36b3d5cd	5.3595054e-06
91	0xb8d6d87c	-0.000102446385
92	0xb7aa6d85	-2.0316578e-05
93	0xb9314437	-0.00016905447
94	0xb7c86b4c	-2.3891822e-05
95	0xb8651c08	-5.462396e-05
96	0xb82df337	-4.1472926e-05
97	0xb8db66aa	-0.000104618564
98	0xb84f3268	-4.939959e-05
99	0xb9068e81	-0.00012832323
100	0xb923fefa	-0.00015639878
101	0xb9159e4b	-0.00014268716
102	0x3981f1fe	0.00024785096
103	0x3988dc29	0.00026103974
104	0xb946c7cb	-0.0001895718
105	0xb943c80d	-0.00018671174
106	0x3a084aea	0.00051991513
107	0x3a0df10b	0.00054146413
108	0xb6142bc8	-2.2079203e-06
109	0xb602a4fe	-1.9467548e-06
110	0x00000000	0.0
111	0x00000000	0.0
112	0x34dccf15	4.1128865e-07
113	0x34738be2	2.2682028e-07
114	0xb48a53b7	-2.5765414e-07
115	0xb478b16e	-2.3161348e-07
116	0xb63fb7f2	-2.8568288e-06
117	0x351e7b25	5.9038786e-07
118	0xb4eff23a	-4.4693462e-07
119	0xb455cab0	-1.9910908e-07
120	0xb84f9206	-4.948864e-05
121	0xb853ec4d	-5.0526392e-05
122	0x384f3a95	4.9407205e-05
123	0x382f162b	4.1743897e-05
124	0x350e2c36	5.296346e-07
125	0xb5b82a0e	-1.3721308e-06
126	0x3544a416	7.3254466e-07
127	0xb5b08be4	-1.3153735e-06
128	0xb88c77b9	-6.69802e-05
129	0xb896eca3	-7.1966344e-05
130	0xb566bb56	-8.5954287e-07
131	0xb5aaa66e	-1.2714424e-06
132	0x3407bb28	1.2640942e-07
133	0xb5bd1905	-1.4088879e-06
134	0xb8b76d77	-8.7465094e-05
135	0xb8c79bd2	-9.518083e-05
136	0x3596e22a	1.1241693e-06
137	0x338b5650	6.488392e-08
138	0x34e78882	4.3126425e-07
139	0x34a09567	2.9911027e-07
140	0x34ea64a2	4.3659116e-07
141	0xb3451344	-4.588516e-08
142	0xb2ce641a	-2.4027077e-08
143	0xb40428e1	-1.230833e-07
144	0x30f29af4	1.7651858e-09
145	0xb4719f7d	-2.2502896e-07
146	0x00000000	0.0
147	0x00000000	0.0
148	0xb533a2b7	-6.691948e-07
149	0x33fc8d8c	1.1760412e-07
150	0xb58c5ae4	-1.0457265e-06
151	0x345f84a2	2.0816745e-07
152	0xb572119d	-9.0177656e-07
153	0x3508340e	5.07397e-07
154	0x35629e99	8.442235e-07
155	0xb2b51f61	-2.1085443e-08
156	0x3594246e	1.1037462e-06
157	0x34c87836	3.7340368e-07
158	0x36cd71c4	6.12272e-06
159	0x36cd7702	6.1233304e-06
160	0xb4df8043	-4.163031e-07
161	0x351535f5	5.5585343e-07
162	0x342f8110	1.6345098e-07
163	0x357e5e9b	9.476004e-07
164	0x347ad7c2	2.3361557e-07
165	0x35c09cfc	1.4350803e-06
166	0x355c7e6f	8.214037e-07
167	0x351db68a	5.8752687e-07
168	0x359bbf90	1.1604152e-06
169	0x35834e19	9.78299e-07
170	0x35ddcc29	1.6525202e-06
171	0x35bff8f8	1.4303068e-06
172	0x33868bdf	6.265304e-08
173	0xb4a69122	-3.1025507e-07
174	0x347cc6e6	2.3541688e-07
175	0xb4a3a904	-3.048409e-07
176	0xb4f531ec	-4.567113e-07
177	0xb47fc93e	-2.3821937e-07
178	0x350df699	5.288544e-07
179	0xb4818fec	-2.413284e-07
180	0xb536c0c4	-6.8080794e-07
181	0x36229c6a	2.4230926e-06
182	0x00000000	0.0
183	0x00000000	0.0
184	0x36d253e1	6.2682525e-06
185	0xb47855a2	-2.3127953e-07
186	0x373a5110	1.1105338e-05
187	0x3590479c	1.0749677e-06
188	0x37419b2a	1.1539823e-05
189	0x3696a2a6	4.489283e-06
190	0xb6ee667a	-7.1048826e-06
191	0x3574e157	9.1224996e-07
192	0xb7621a32	-1.3476749e-05
193	0x372929eb	1.0082945e-05
194	0xb75dc932	-1.3219471e-05
195	0x37940363	1.7644552e-05
196	0x35e27a81	1.6873965e-06
197	0xb7061201	-7.991214e-06
198	0x35b14b76	1.320949e-06
199	0xb7719cb1	-1.4401202e-05
200	0x35442082	7.3062995e-07
201	0xb79a36be	-1.8383722e-05
202	0xb7116c29	-8.6678565e-06
203	0xb6d4ea5e	-6.3453763e-06
204	0xb716a95e	-8.980131e-06
205	0xb7664bd7	-1.3726726e-05
206	0x39373b6f	0.00017474381
207	0x39373b6f	0.00017474381
208	0xb4c2f610	-3.631435e-07
209	0x362549ac	2.4629799e-06
210	0xb622ca16	-2.425751e-06
211	0x361ecabe	2.3661846e-06
212	0x35fdaf41	1.8900975e-06
213	0x361b1cc7	2.311355e-06
214	0xb68a6d53	-4.1254475e-06
215	0x3637961b	2.7356498e-06
216	0x35cd049b	1.5275031e-06
217	0x37957b71	1.7819666e-05
218	0x00000000	0.0
219	0x00000000	0.0
220	0x382b77a7	4.0881012e-05
221	0x363fd789	2.8586676e-06
222	0x387f902e	6.0931015e-05
223	0x369962d4	4.5712604e-06
224	0xb6d9cd00	-6.490969e-06
225	0xb8786a20	-5.9226644e-05
226	0xb802b99f	-3.116729e-05
227	0x361dea80	2.353132e-06
228	0xb8972502	-7.207134e-05
229	0x36315f16	2.6430403e-06
230	0x38df77e8	0.00010655803
231	0x38e00d60	0.000106836436
232	0x397efcf9	0.00024317567
233	0x39503655	0.00019856666
234	0x39ddad20	0.00042281393
235	0x39c8eeb0	0.0003832481
236	0x3a3ba5b8	0.0007158178
237	0x3a322eaf	0.00067971175
238	0x3951ac9f	0.000199961
239	0x3950f897	0.00019929033
240	0x39d8d70e	0.0004135896
241	0x39c93298	0.00038375403
242	0x3a504aaf	0.0007945699
243	0x3a4cb157	0.0007808408
244	0x37245820	9.79568e-06
245	0x37c224a0	2.3143657e-05
246	0xb672c842	-3.6177375e-06
247	0x37b8abf0	2.2014574e-05
248	0x37cf05aa	2.467896e-05
249	0x37935761	1.7564455e-05
250	0xb77fe7de	-1.525317e-05
251	0x379cce1e	1.869263e-05
252	0xb30f9745	-3.343236e-08
253	0xb52f68b0	-6.534492e-07
254	0x00000000	0.0
255	0x00000000	0.0

exp_avg_sq f4 [36, 36]
0	0x375729b1	1.2824706e-05
1	0x375912f0	1.2938617e-05
2	0x00000000	0.0
3	0x00000000	0.0
4	0x3348007f	4.656658e-08
5	0x303b7d67	6.820841e-10
6	0x36acbb91	5.147835e-06
7	0x36a97807	5.0505655e-06
8	0x3837a1a6	4.3781147e-05
9	0x38355ea7	4.3241915e-05
10	0x334b383f	4.7315776e-08
11	0x303b781e	6.82009e-10
12	0x341e242e	1.4728059e-07
13	0x333ade6a	4.3508784e-08
14	0x381351fe	3.5123892e-05
15	0x381507d8	3.5531673e-05
16	0x324f324b	1.2060421e-08
17	0x34a2cd74	3.0324338e-07
18	0x385342b2	5.0368435e-05
19	0x3851a9b3	4.9987528e-05
20	0x38885a3d	6.5017935e-05
21	0x38877216	6.458552e-05
22	0x3314780b	3.4568114e-08
23	0x349e55a3	2.9492102e-07
24	0x385271bd	5.017383e-05
25	0x3851951c	4.9968352e-05
26	0x388af688	6.626273e-05
27	0x388ac2d0	6.6166394e-05
28	0x37a277e9	1.9367742e-05
29	0x37a46482	1.9597126e-05
30	0x379b201a	1.8492388e-05
31	0x379d5590	1.8755702e-05
32	0x378fee76	1.715797e-05
33	0x3790b159	1.7248722e-05
34	0x37850eb1	1.5861677e-05
35	0x3786d4d4	1.607315e-05
36	0x3170b6af	3.502844e-09
37	0x318b5c6d	4.05594e-09
38	0x00000000	0.0
39	0x00000000	0.0
40	0x306d6d62	8.637554e-10
41	0x2d5ac821	1.2436303e-11
42	0x3113005b	2.1391517e-09
43	0x3083f1f8	9.600276e-10
44	0x3130f6ec	2.575173e-09
45	0x31520fcf	3.0568008e-09
46	0x3067748e	8.4202945e-10
47	0x2d33e982	1.0226821e-11
48	0x3143e4ad	2.8506222e-09
49	0x30343132	6.555353e-10
50	0x34a0796b	2.9890666e-07
51	0x349f188f	2.9633927e-07
52	0x2f4ab673	1.8436612e-10
53	0x31862b27	3.904819e-09
54	0x2f47e1e1	1.8179193e-10
55	0x326486cc	1.3301996e-08
56	0x31c17a29	5.6309273e-09
57	0x3302d1c2	3.0458757e-08
58	0x3047166d	7.2427647e-10
59	0x318138a8	3.760835e-09
60	0x30853d20	9.694396e-10
61	0x325e2cca	1.2932285e-08
62	0x30c43938	1.427714e-09
63	0x32cf7bb2	2.4154222e-08
64	0x2e80d204	5.8580724e-11
65	0x305fa782	8.136497e-10
66	0x2e815dde	5.882915e-11
67	0x3066f83d	8.402628e-10
68	0x2fec7678	4.3012327e-10
69	0x303f34bc	6.9560335e-10
70	0x2f814817	2.3516186e-10
71	0x303868fb	6.7087996e-10
72	0x3688e8ef	4.080233e-06
73	0x368981e1	4.098038e-06
74	0x00000000	0.0
75	0x00000000	0.0
76	0x32804c21	1.493578e-08
77	0x2f236354	1.4860052e-10
78	0x36b84618	5.4917873e-06
79	0x36b6a226	5.4428992e-06
80	0x3721fd3d	9.655309e-06
81	0x3720c150	9.581752e-06
82	0x328db724	1.6497843e-08
83	0x2f2fb6f9	1.5981162e-10
84	0x36c4ff4f	5.870977e-06
85	0x36c34db4	5.8204987e-06
86	0x372939e2	1.0086662e-05
87	0x3728eb90	1.00684265e-05
88	0x31694e99	3.395064e-09
89	0x33754bcc	5.7112445e-08
90	0x31681da8	3.37773e-09
91	0x34526ee1	1.9598112e-07
92	0x340ca600	1.3098906e-07
93	0x350324d2	4.8854884e-07
94	0x325aefaf	1.2743768e-08
95	0x336c1108	5.496352e-08
96	0x329e09de	1.8398108e-08
97	0x344bffd3	1.8998917e-07
98	0x32ea0f6e	2.7248202e-08
99	0x34bdc474	3.5346932e-07
100	0x36cf42b7	6.1768474e-06
101	0x36cfcd08	6.1929495e-06
102	0x36c59692	5.888586e-06
103	0x36c673b3	5.914329e-06
104	0x36ae679e	5.1976667e-06
105	0x36ae85b3	5.2011687e-06
106	0x369fd366	4.7631793e-06
107	0x36a0e3ce	4.7948915e-06
108	0x32b5e831	2.1176762e-08
109	0x32b9601a	2.1580536e-08
110	0x00000000	0.0
111	0x00000000	0.0
112	0x2fda3013	3.9688128e-10
113	0x2cf11f97	6.853139e-12
114	0x3099a751	1.1179769e-09
115	0x301a7fe4	5.6206617e-10
116	0x30a8a04c	1.2269168e-09
117	0x3102b5ae	1.9020763e-09
118	0x30077004	4.92719e-10
119	0x2d162eb3	8.536882e-12
120	0x34cca405	3.81173e-07
121	0x34cc93a9	3.8105398e-07
122	0x3520d115	5.99089e-07
123	0x3520b6c5	5.987061e-07
124	0x2efb8a09	1.14386785e-10
125	0x3143d8a8	2.849939e-09
126	0x2f15fc7a	1.3641169e-10
127	0x32285950	9.799194e-09
128	0x3522d11c	6.0653997e-07
129	0x3522c2e5	6.063331e-07
130	0x2fcb6e37	3.7003797e-10
131	0x314061d9	2.7995297e-09
132	0x30067aef	4.8923615e-10
133	0x32237cd2	9.51623e-09
134	0x352cc09f	6.4355294e-07
135	0x352d8d19	6.4652846e-07
136	0x2f9b8a81	2.829275e-10
137	0x3060afaa	8.174036e-10
138	0x2e218573	3.672569e-11
139	0x302075fa	5.8375316e-10
140	0x2fedd44b	4.3260892e-10
141	0x3041ae19	7.04604e-10
142	0x2f1aabc4	1.4067242e-10
143	0x300276bc	4.7462456e-10
144	0x2df195df	2.7465084e-11
145	0x2fb0d956	3.216864e-10
146	0x00000000	0.0
147	0x00000000	0.0
148	0x2fc76dd7	3.6275935e-10
149	0x2cc6ca19	5.649936e-12
150	0x31b023ae	5.1263305e-09
151	0x319fc7bd	4.6502167e-09
152	0x31b2fd54	5.209282e-09
153	0x31c0c4bb	5.610301e-09
154	0x2fcb6cd0	3.70028e-10
155	0x2cb0d28c	5.0255963e-12
156	0x3070927b	8.751965e-10
157	0x3005f566	4.873385e-10
158	0x357daff8	9.450591e-07
159	0x357db046	9.4506356e-07
160	0x2ef4088a	1.1097352e-10
161	0x3109889c	2.0013777e-09
162	0x2f06eddd	1.2271735e-10
163	0x31e8753a	6.765416e-09
164	0x2f5b1436	1.9925114e-10
165	0x325b5a7b	1.2768051e-08
166	0x2f87e1b6	2.4716734e-10
167	0x3105a796	1.9449309e-09
168	0x2fb1c501	3.2336092e-10
169	0x31e3f8a5	6.634837e-09
170	0x2ff95ef3	4.5360302e-10
171	0x3253a264	1.231874e-08
172	0x2e25d3a1	3.770462e-11
173	0x2fe315f8	4.130667e-10
174	0x2e1d3d79	3.5752266e-11
175	0x2ff12f08	4.3871062e-10
176	0x2f152cb7	1.3567357e-10
177	0x2fa6496c	3.0247393e-10
178	0x306550fd	8.3424806e-10
179	0x30931fe3	1.070472e-09
180	0x2cb81cc5	5.2327886e-12
181	0x2f82bdd9	2.3781757e-10
182	0x00000000	0.0
183	0x00000000	0.0
184	0x2fa299f6	2.9577024e-10
185	0x2cdffa86	6.365855e-12
186	0x3068e973	8.473286e-10
187	0x2ff572fa	4.4646936e-10
188	0x309fe991	1.1635156e-09
189	0x30c2ba4e	1.4168309e-09
190	0x2faf0c35	3.1840988e-10
191	0x2ca0dfc3	4.572316e-12
192	0x309aafbc	1.1254921e-09
193	0x2f872afe	2.4586905e-10
194	0x30e2059b	1.6445257e-09
195	0x308456dd	9.628952e-10
196	0x2e8f41a0	6.5145445e-11
197	0x30e57cee	1.669745e-09
198	0x2e9b79b5	7.0702035e-11
199	0x31c56d2e	5.745867e-09
200	0x2f0754b7	1.2308275e-10
201	0x323918bb	1.077404e-08
202	0x2f8bd7a2	2.543717e-10
203	0x30dd07fd	1.6082137e-09
204	0x2fc9775e	3.6646502e-10
205	0x31be79fa	5.543595e-09
206	0x3585ae77	9.960048e-07
207	0x3585baab	9.9636e-07
208	0x2fed22ae	4.313469e-10
209	0x3057e0a8	7.85358e-10
210	0x31aba203	4.9951736e-09
211	0x31b8c222	5.377175e-09
212	0x3014099d	5.385575e-10
213	0x30407e6d	7.0028855e-10
214	0x31b1c876	5.1741678e-09
215	0x31bb4ee5	5.4513856e-09
216	0x2f0254d9	1.1853575e-10
217	0x31d4813c	6.1847043e-09
218	0x00000000	0.0
219	0x00000000	0.0
220	0x32251d72	9.610959e-09
221	0x2ef3c51e	1.1085376e-10
222	0x34b35d9c	3.3409458e-07
223	0x34a69fe4	3.1036245e-07
224	0x370a0f38	8.228984e-06
225	0x3708032d	8.106971e-06
226	0x32309652	1.0278727e-08
227	0x2ef66f1c	1.1206522e-10
228	0x3379db7c	5.817445e-08
229	0x330074ed	2.9908666e-08
230	0x3701ebbf	7.743888e-06
231	0x370250ae	7.7673885e-06
232	0x369e11ed	4.710854e-06
233	0x369c13eb	4.651481e-06
234	0x377a907a	1.49348e-05
235	0x377a76c8	1.4928817e-05
236	0x379a23e0	1.8374936e-05
237	0x379a076a	1.8361683e-05
238	0x369cd781	4.6742502e-06
239	0x369c219a	4.653074e-06
240	0x377a4db7	1.4919256e-05
241	0x377a72e2	1.4927909e-05
242	0x37969349	1.7949978e-05
243	0x37969898	1.795245e-05
244	0x3032b428	6.501204e-10
245	0x3213a188	8.593254e-09
246	0x304ab36a	7.3742135e-10
247	0x3215ce47	8.7198435e-09
248	0x31725a7f	3.5267076e-09
249	0x31d50556	6.1997225e-09
250	0x3150c440	3.0379539e-09
251	0x31eeaf7b	6.9466615e-09
252	0x2bd2515b	1.4943978e-12
253	0x2ec2a6fc	8.851761e-11
254	0x00000000	0.0
255	0x00000000	0.0

exp_avg f4 [36]
0	0xb9ae5606	-0.0003325196
1	0x37ca3f82	2.410985e-05
2	0xb8fea830	-0.00012142991
3	0x369b0aaf	4.6206037e-06
4	0xb523eb18	-6.106434e-07
5	0xb79295f2	-1.747438e-05
6	0xb8ce1599	-9.826868e-05
7	0x37039eb9	7.845164e-06
8	0x398b0558	0.00026516127
9	0x35f86db4	1.8509368e-06
10	0xb65149a7	-3.1186298e-06
11	0x383c7d0e	4.493916e-05
12	0x3788f4ec	1.6326514e-05
13	0x298c7706	6.237896e-14
14	0xb90709d0	-0.00012878259
15	0xb7eb1d34	-2.8027782e-05
16	0xb84882d9	-4.7805577e-05
17	0x3901427c	0.00012327166
18	0xb7a8c314	-2.0118001e-05
19	0x36bb0c4a	5.574465e-06
20	0x37ba2f02	2.2194818e-05
21	0xb84463e2	-4.6823065e-05
22	0x021a6265	1.1342371e-37
23	0x3835973d	4.3294614e-05
24	0x36a5662a	4.9292767e-06
25	0xb880b3bd	-6.1369945e-05
26	0xb99c1327	-0.00029768908
27	0xb7a283f6	-1.9373354e-05
28	0xb894154c	-7.061157e-05
29	0xb5021bae	-4.8469053e-07
30	0x37137339	8.78871e-06
31	0xb7567c5d	-1.278435e-05
32	0x38c9e517	9.627098e-05
33	0x37fe226e	3.0295192e-05
34	0x37f749da	2.9479084e-05
35	0xb6ffbf68	-7.621875e-06

exp_avg_sq f4 [36]
0	0x35cfc117	1.5478898e-06
1	0x32818e63	1.5082326e-08
2	0x348fbc78	2.6772955e-07
3	0x3287206d	1.5730814e-08
4	0x322cc145	1.0055662e-08
5	0x3238cbc1	1.0756538e-08
6	0x34746e3e	2.2764377e-07
7	0x3198591e	4.4339137e-09
8	0x360e8d82	2.1242017e-06
9	0x30784f10	9.033423e-10
10	0x310649a3	1.9541424e-09
11	0x3286e660	1.5704416e-08
12	0x31a6a868	4.8503814e-09
13	0x2d1414a9	8.4174135e-12
14	0x35b09919	1.3157579e-06
15	0x3509fb1e	5.14019e-07
16	0x33847498	6.167937e-08
17	0x351d735d	5.8654933e-07
18	0x3395c384	6.973917e-08
19	0x3266ada9	1.3427248e-08
20	0x32701f38	1.3976937e-08
21	0x3421a8ed	1.5055748e-07
22	0x2bd652fb	1.5228646e-12
23	0x332a29f4	3.9619366e-08
24	0x320ab93b	8.074774e-09
25	0x339b5bd8	7.234456e-08
26	0x35678745	8.625105e-07
27	0x33155a2d	3.477378e-08
28	0x346e276a	2.2179816e-07
29	0x316d7f57	3.4560423e-09
30	0x30250a24	6.004106e-10
31	0x31a04b87	4.6651993e-09
32	0x351200d6	5.4390455e-07
33	0x33a7c879	7.813009e-08
34	0x3313c56e	3.4405666e-08
35	0x3266fb44	1.3444893e-08

exp_avg f4 [64, 36]
0	0x8219655a	-1.1269751e-37
1	0x021f9e1a	1.1726848e-37
2	0x0213fde6	1.087272e-37
3	0x0219878a	1.1279563e-37
4	0x02140754	1.0875426e-37
5	0x8214ad51	-1.0923062e-37
6	0x02159cfd	1.0991845e-37
7	0x021f96e2	1.1724776e-37
8	0x0210a3a2	1.062641e-37
9	0x02135941	1.0825469e-37
10	0x02146367	1.090185e-37
11	0x021c5881	1.1486469e-37
12	0x02167719	1.1054439e-37
13	0x0218dc2c	1.1230383e-37
14	0x0217828b	1.1131192e-37
15	0x0213d0e2	1.0859801e-37
16	0x02192b0a	1.1253016e-37
17	0x02136a9f	1.0830453e-37
18	0x02155b48	1.0972988e-37
19	0x021bf343	1.1457414e-37
20	0x021afc10	1.1386472e-37
21	0x021e1516	1.1614058e-37
22	0x021f6dfa	1.1713037e-37
23	0x0218bda4	1.122162e-37
24	0x021fb0bd	1.1732197e-37
25	0x021b0ca8	1.1391234e-37
26	0x02177625	1.1127634e-37
27	0x821a0246	-1.1314786e-37
28	0x021a34c9	1.1329282e-37
29	0x021abfc8	1.1369172e-37
30	0x021d7d30	1.1570465e-37
31	0x0215eecd	1.1015324e-37
32	0x0215b526	1.0998778e-37
33	0x021da1ba	1.1580952e-37
34	0x021cf026	1.1529989e-37
35	0x821d937d	-1.1576865e-37
36	0xb9024d71	-0.00012426615
37	0x3402f39f	1.2195822e-07
38	0xb9079017	-0.00012928281
39	0xb6a22487	-4.8322286e-06
40	0xaa63892e	-2.0209244e-13
41	0xb688d42a	-4.077815e-06
42	0xb8b67167	-8.699559e-05
43	0xb6de208c	-6.6199045e-06
44	0xb7b87eee	-2.1993616e-05
45	0x315338df	3.0736869e-09
46	0xb23b7ff9	-1.091393e-08
47	0xb7657647	-1.3677002e-05
48	0x3351378f	4.8712135e-08
49	0xa65b29f4	-7.6037745e-16
50	0xb98a5694	-0.00026385917
51	0xb8cc9786	-9.7557015e-05
52	0xb5c43c74	-1.4620732e-06
53	0xb65aa958	-3.2583102e-06
54	0xb64fe568	-3.0978936e-06
55	0xb479c100	-2.3260145e-07
56	0xb6053f9c	-1.985557e-06
57	0xb7da92d2	-2.6055994e-05
58	0x021f65ed	1.1710726e-37
59	0x36b54845	5.4026336e-06
60	0xb5484fe9	-7.462209e-07
61	0x37018dfc	7.7220575e-06
62	0xb8c27b12	-9.2735645e-05
63	0xb7786cae	-1.4807256e-05
64	0x37b2d0fb	2.1316568e-05
65	0xb2508de6	-1.2139457e-08
66	0xad0aa546	-7.88109e-12
67	0x2b1ecd8a	5.641812e-13
68	0xb88c9b0c	-6.7046e-05
69	0xb7849827	-1.5806478e-05
70	0xb78f8664	-1.7109509e-05
71	0x36803f0a	3.822036e-06
72	0x38a6318a	7.924724e-05
73	0x33cd9f9f	9.575091e-08
74	0x37efcc59	2.8586177e-05
75	0x36bb21e9	5.576982e-06
76	0xb5c29b42	-1.4499312e-06
77	0x36d51963	6.35085e-06
78	0xb8637d5b	-5.4237764e-05
79	0x360ba36c	2.0807738e-06
80	0xb8975d88	-7.217663e-05
81	0xb3000e83	-2.981552e-08
82	0x36c61191	5.902905e-06
83	0xb6e4c1ca	-6.8174895e-06
84	0x331ed7dc	3.6983565e-08
85	0x8215210b	-1.0956274e-37
86	0x38e4e556	0.00010914604
87	0x3847c824	4.7631693e-05
88	0x362bb0b6	2.5583845e-06
89	0xb71acb23	-9.226412e-06
90	0xb68ba97a	-4.1622525e-06
91	0x3782726c	1.555049e-05
92	0x35e1f8e6	1.6836245e-06
93	0x37090fb6	8.169494e-06
94	0x021352d5	1.0823626e-37
95	0x37d9748e	2.592269e-05
96	0x36e62184	6.858436e-06
97	0x3649642a	3.0009637e-06
98	0xb8b39abe	-8.564208e-05
99	0x37e45f97	2.722423e-05
100	0xb8b77c59	-8.7492816e-05
101	0x35180482	5.663097e-07
102	0x02132d2f	1.0812821e-37
103	0xb1b74aec	-5.3345186e-09
104	0x3923d670	0.00015624776
105	0x37b23b88	2.1246975e-05
106	0x36930211	4.381182e-06
107	0x378c7dfc	1.6747967e-05
108	0xb46da319	-2.213168e-07
109	0x9e438b76	-1.0352054e-20
110	0xb65159fe	-3.119581e-06
111	0x370140e6	7.7041095e-06
112	0x2f89a41d	2.5036764e-10
113	0x35106b1e	5.3800056e-07
114	0x37000afb	7.631951e-06
115	0x374e801f	1.2308387e-05
116	0xb85bad26	-5.2374926e-05
117	0x3558c520	8.0753125e-07
118	0x356ae9cf	8.751203e-07
119	0xb76c5d4e	-1.408842e-05
120	0xab00b6b4	-4.5728287e-13
121	0x8217c069	-1.1148947e-37
122	0xb78afeb8	-1.6569495e-05
123	0xb72de073	-1.0363862e-05
124	0x339c08d1	7.26592e-08
125	0xb81fa7c4	-3.8064798e-05
126	0x3537f871	6.853434e-07
127	0xb6dca6f0	-6.575945e-06
128	0x35bba414	1.3980339e-06
129	0xb8608557	-5.3529944e-05
130	0x821c9846	-1.150477e-37
131	0x3476b2c9	2.2975577e-07
132	0x37927d23	1.7462828e-05
133	0xb699c2fc	-4.5824545e-06
134	0xb8357635	-4.326385e-05
135	0x350a71e1	5.157472e-07
136	0xb87e0703	-6.056485e-05
137	0x13afcd6b	4.437877e-27
138	0x359d8d5d	1.1738554e-06
139	0x351c46f9	5.821781e-07
140	0xb55ac0e0	-8.1492e-07
141	0xb841489e	-4.6082416e-05
142	0xb8822204	-6.205219e-05
143	0x35ba4a99	1.3879791e-06
144	0xb94c336e	-0.00019474115
145	0x332c6c65	4.0145455e-08
146	0xb91ee355	-0.00015152742
147	0xb6bf424d	-5.699962e-06
148	0xb42913e6	-1.574659e-07
149	0xb7b4b9f6	-2.1544267e-05
150	0xb8b1df97	-8.4816646e-05
151	0x35308afa	6.5767347e-07
152	0xb74f1536	-1.23431e-05
153	0x31d7ff85	6.2863728e-09
154	0xb62ed233	-2.6050373e-06
155	0xb6eefbc0	-7.1222603e-06
156	0x3392994f	6.8265415e-08
157	0x8217eb09	-1.116118e-37
158	0xb951d13b	-0.00020009738
159	0xb6697708	-3.478899e-06
160	0xb7517a72	-1.248588e-05
161	0x3705cd14	7.975166e-06
162	0xb7169742	-8.975914e-06
163	0x36cc1764	6.082397e-06
164	0x365b9317	3.271916e-06
165	0x3814371e	3.533728e-05
166	0x02180354	1.1168151e-37
167	0x3636facc	2.7266096e-06
168	0xb549a7d8	-7.512258e-07
169	0xb8ef0174	-0.00011396679
170	0x37b46994	2.1506836e-05
171	0x371ccf82	9.346639e-06
172	0x37cec70b	2.46498e-05
173	0x2fe42b45	4.1503703e-10
174	0xa9937ada	-6.549423e-14
175	0x313fc297	2.790477e-09
176	0xb6ccd248	-6.1041537e-06
177	0x38612d25	5.3686224e-05
178	0x36bc0677	5.603589e-06
179	0x346799a5	2.1569447e-07
180	0xb91dc25b	-0.0001504509
181	0x36e94cb4	6.9528705e-06
182	0xb9324218	-0.00017000025
183	0xb72decfd	-1.0366782e-05
184	0xb54b2dae	-7.5689866e-07
185	0xb687e895	-4.0503896e-06
186	0xb8cc87f5	-9.752802e-05
187	0x35c5c45c	1.4734792e-06
188	0xb8e5a19c	-0.00010949673
189	0x3490554c	2.6884152e-07
190	0xb5c1f6d8	-1.4451462e-06
191	0xb82a000e	-4.053121e-05
192	0x356cb42f	8.817905e-07
193	0x021000fd	1.0579733e-37
194	0xb988d95e	-0.00026101893
195	0xb7295774	-1.0093547e-05
196	0xb540ba10	-7.179633e-07
197	0xb804c704	-3.16566e-05
198	0xb73809de	-1.0969552e-05
199	0x36f047bd	7.160909e-06
200	0xb5f9b81b	-1.8605527e-06
201	0xb86fb53c	-5.7150828e-05
202	0x02132899	1.0811505e-37
203	0xb6ba87b0	-5.559028e-06
204	0xb73048ba	-1.050735e-05
205	0xb83aba61	-4.4519435e-05
206	0xb9dea42d	-0.0004246546
207	0x36b7e5e7	5.480589e-06
208	0xb9823a6e	-0.00024839066
209	0xb4d0970c	-3.885292e-07
210	0xb2f71714	-2.876508e-08
211	0xb18d6b66	-4.11585e-09
212	0xb849732e	-4.8029404e-05
213	0xb7a7376e	-1.9933763e-05
214	0xb7867efe	-1.603318e-05
215	0xb79a3c3e	-1.8386283e-05
216	0xb8d1ca2e	-0.000100035555
217	0xb40a8fd9	-1.2904583e-07
218	0xb8e1bae9	-0.00010763651
219	0xb585597c	-9.935316e-07
220	0x3302dc59	3.046839e-08
221	0xb18b93fd	-4.0622568e-09
222	0xb7a49586	-1.961995e-05
223	0xb6dd6844	-6.5984514e-06
224	0xb63ef5e7	-2.845534e-06
225	0x318af99d	4.0447063e-09
226	0x2eb26ac6	8.1134696e-11
227	0x345982ce	2.0257286e-07
228	0x336117e2	5.2408616e-08
229	0x021da103	1.1580746e-37
230	0xb907c2a9	-0.0001294712
231	0xb7232b96	-9.725705e-06
232	0xb71836fa	-9.072706e-06
233	0xb1d57b23	-6.213115e-09
234	0xb637d70a	-2.7394294e-06
235	0x359314c7	1.09584e-06
236	0xb6860e07	-3.995144e-06
237	0x3698275e	4.534536e-06
238	0x021a0035	1.1314193e-37
239	0xb707afbb	-8.0875425e-06
240	0x35098990	5.1236657e-07
241	0xb6d9d9c8	-6.492457e-06
242	0xb7c86ffd	-2.3894007e-05
243	0x359f274d	1.1857861e-06
244	0x357adc83	9.3453144e-07
245	0xb20c2afc	-8.158846e-09
246	0xb2107ad5	-8.409832e-09
247	0xb1869971	-3.9173575e-09
248	0xb6faaf07	-7.4709565e-06
249	0x358d042e	1.0506535e-06
250	0x36463bb2	2.9539046e-06
251	0xb7d9f689	-2.5983218e-05
252	0x37122226	8.710229e-06
253	0xa9518a4d	-4.652728e-14
254	0x3701153c	7.693943e-06
255	0xb78957cd	-1.6372558e-05
