models/v7-epoch=3-val_loss=0.001993.ckpt (torch, 82821 bytes, 18 tensors)

layers.0.weight f4 [36, 36]
-0.1094839 -0.11865249 -0.109537005 0.034153767 1.2438529 0.047603186 0.13327476 -0.052766595
-0.012200759 -0.09499817 -1.1169791 0.033907745 -0.07327937 -0.013900601 -0.04505798 -0.032300707
0.10972072 -0.16845456 0.387001 -0.20540367 0.15895432 -0.105279975 0.17012538 -0.16029392
0.20654073 -0.16391797 0.18445975 -0.14699437 0.022530751 0.19721463 -0.09059215 0.09246081
1.5222694 1.6457772 -0.1365708 -0.04377202 0.14193703 -0.15211399 0.12935533 -0.014314905
0.28109995 0.749201 0.18805787 -0.012604875 0.69270873 -0.17881954 -0.40257785 -0.33094025
-0.20172723 0.27083308 -0.17993006 0.22822432 0.7385431 0.11928175 0.49911752 0.11568726
0.117170915 0.046706483 -0.3619347 -0.1274732 -0.5832473 0.15885244 -0.096936524 0.070771664
0.42552575 -0.2274357 0.24156523 -0.24482487 0.32376823 -0.21106298 0.2009337 -0.14513719
3.6387777 -0.6318492 -0.14194992 -0.085599065 -0.75938785 3.672997 -0.07441346 -0.07785542
0.07610321 -0.040049773 0.119151525 -1.4472357 -0.15481582 0.13604969 -0.15998416 0.21291445
-0.16159599 0.23847626 0.008700173 -0.09144587 0.9063171 -0.20260176 -0.094958894 0.2768434
0.0017925318 -0.008595058 0.7895674 -0.11660607 1.2258474 -0.33355317 -0.019689528 -0.16676432
0.70078295 -0.678644 -0.15786807 0.4016738 0.62286043 -0.26661804 0.13723625 -0.15431292
0.26121974 1.4567881 0.29924172 1.1480325 -0.028011795 0.0025151663 -0.35368663 -0.27958602
0.4298222 -0.4519442 0.13249664 -0.04952244 0.36728013 0.3058929 0.10580137 -0.1160033
0.0647251 -0.07127397 0.3045694 0.08185666 -0.07212655 -0.03330177 0.076704 0.1521847
0.60442007 -0.41849428 0.095494404 -0.13959795 0.4788466 -0.17532717 0.1628705 -0.018947266
-0.0035345736 0.074281506 -0.110107526 0.09424354 0.20164418 -0.18379794 0.07474404 -0.01280609
0.32325777 0.22537668 -0.17250967 0.2122369 -0.030245619 0.029010829 0.019044999 0.036857534
0.3262688 -0.028636156 0.44875696 0.18043377 0.5067986 0.15207848 -0.28684193 0.19244996
-0.08315273 0.036862157 0.11598899 -0.08623336 -0.004377821 0.057884585 0.104784496 -0.029636737
0.13118444 -0.08652146 -0.08868493 0.14751604 -0.29389036 0.36672992 0.139621 0.00800731
0.2446856 -0.73346084 0.09859513 -0.0266636 0.027401818 -0.027159147 -0.34484598 0.77536225
0.11456204 -0.069771096 -0.021444537 0.04267027 0.33886486 -0.15836889 0.1806059 0.046581626
0.10514827 -0.014226374 -0.29065362 0.1090487 -0.20727104 0.03969768 -0.1269487 0.12198845
0.070248455 -0.007833071 0.0837469 0.2834563 0.14160274 0.11087514 0.041767854 0.02476023
-0.42026255 0.47536254 -0.03025936 0.13696833 0.9110846 -2.2822855 0.011663708 -0.105756395
0.11160872 -0.1423897 -0.72267056 0.6709676 0.25062028 -0.27731833 0.5868938 -0.4500245
0.23042215 -0.15771347 0.18434781 -0.13536839 0.10609001 -0.034538172 0.07593745 -0.12177706
0.17506835 -0.11032558 -0.0045679435 0.08697642 -0.5922447 0.46105796 -0.0017074471 0.36141416
-0.2103505 0.5344098 -0.052544508 0.10920481 0.03000799 0.10460373 -0.007735822 -0.15189973
00000000: 1839 e0bd 1400 f3bd f054 e0bd d2e4 0b3d
00000010: 9236 9f3f 8ffb 423d 2e79 083e c921 58bd
00000020: b1e5 47bc 678e c2bd 2cf9 8ebf d9e2 0a3d
00000030: 7f13 96bd 59bf 63bc b78e 38bd bf4d 04bd
00000040: 42b5 e03d 5a7f 2cbe ff24 c63e 5755 52be
00000050: ecc4 223e 079d d7bd 5935 2e3e 1724 24be
00000060: 6a7f 533e 1dda 27be 04e3 3c3e b185 16be
00000070: 6992 b83c a2f2 493e 6188 b9bd 185c bd3d
00000080: b9d9 c23f d4a8 d23f 37d9 0bbe 4a4a 33bd
00000090: f157 113e c5c3 1bbe b975 043e 1089 6abc
000000a0: 55ec 8f3e a3cb 3f3f 3e92 403e ad84 4ebc
000000b0: 5c55 313f 781c 37be af1e cebe 0071 a9be
000000c0: 9591 4ebe a2aa 8a3e 963f 38be a3b3 693e
000000d0: 2911 3d3f fd49 f43d 558c ff3e 71ed ec3d
000000e0: 4ef7 ef3d 4c4f 3f3d 814f b9be 5688 02be
000000f0: b24f 15bf 37aa 223e a886 c6bd bcf0 903d
00000100: 83de d93e e7e4 68be e05c 773e 5fb3 7abe
00000110: f3c4 a53e e520 58be 90c1 4d3e d89e 14be
00000120: bce1 6840 dfc0 21bf 525b 11be 904e afbd
00000130: 3e67 42bf 6212 6b40 1666 98bd aa72 9fbd
00000140: 00dc 9b3d 3b0b 24bd b705 f43d 053f b9bf
00000150: 0a88 1ebe 9c50 0b3e e3d2 23be 3f06 5a3e
00000160: 6b79 25be 1f33 743e 2c8b 0e3c f947 bbbd
00000170: 6604 683f d676 4fbe cf79 c2bd 6bbe 8d3e
00000180: 63f3 ea3a 49d2 0cbc 1721 4a3f 2acf eebd
00000190: 91e8 9c3f 7bc7 aabe ef4b a1bc 44c4 2abe
000001a0: 8366 333f 9dbb 2dbf 2ba8 21be 30a8 cd3e
000001b0: c873 1f3f 2982 88be a987 0c3e 3504 1ebe
000001c0: 98be 853e 0878 ba3f 3636 993e bbf2 923f
000001d0: fe78 e5bc 7dd5 243b 6a16 b5be e625 8fbe
000001e0: a811 dc3e 3b65 e7be 33ad 073e 0bd8 4abd
000001f0: 240c bc3e ff9d 9c3e 64ae d83d 2393 edbd
00000200: 988e 843d 16f8 91bd 85f0 9b3e 77a4 a73d
00000210: 16b7 93bd 7067 08bd fd16 9d3d 4ed6 1b3e
00000220: 46bb 1a3f e244 d6be 9292 c33d c4f2 0ebe
00000230: 622b f53e f788 33be 86c7 263e 4c37 9bbc
00000240: 4ea4 67bb e720 983d 0e80 e1bd c202 c13d
00000250: d07b 4e3e 8735 3cbe 6713 993d a2d0 51bc
00000260: 0b82 a53e 25c9 663e 60a6 30be a154 593e
00000270: a9c5 f7bc 1ea8 ed3c 4204 9c3c edf7 163d
00000280: b40c a73e 5f96 eabc 79c3 e53e a1c3 383e
00000290: 8ebd 013f 76ba 1b3e f2dc 92be 9a11 453e
000002a0: fa4b aabd c6fc 163d a38b ed3d 1e9b b0bd
000002b0: d373 8fbb 6318 6d3d 4199 d63d bec8 f2bc
000002c0: 3755 063e 2a32 b1bd 72a0 b5bd 720e 173e
000002d0: cc78 96be 06c4 bb3e cff8 0e3e 1831 033c
000002e0: dd8e 7a3e 17c4 3bbf 3eec c93d 9f6d dabc
000002f0: c779 e03c dc7c debc a78f b0be 247e 463f
00000300: 819f ea3d 26e4 8ebd 74ac afbc 05c7 2e3d
00000310: b27f ad3e 742b 22be c1f0 383e 60cc 3e3d
00000320: fa57 d73d bd15 69bc 8dd0 94be ed54 df3d
00000330: dc3e 54be 099a 223d d7fe 01be 15d5 f93d
00000340: 6cde 8f3d 4856 00bc 7f83 ab3d 2f21 913e
00000350: 4f00 113e 8112 e33d c514 2b3d f7d5 ca3c
00000360: a72c d7be b862 f33e 7ae2 f7bc 6d41 0c3e
00000370: d73c 693f f710 12c0 2319 3f3c cf96 d8bd
00000380: 1d93 e43d 9bce 11be f000 39bf 88c4 2b3f
00000390: 4d51 803e abfc 8dbe ac3e 163f 9c69 e6be
000003a0: c9f3 6b3e a47f 21be acc5 3c3e 039e 0abe
000003b0: b845 d93d e677 0dbd 1885 9b3d 4066 f9bd
000003c0: 1e45 333e 61f2 e1bd b0ae 95bb b120 b23d
000003d0: 599d 17bf ca0f ec3e 6bcc dfba 470b b93e
000003e0: 1f66 57be 15cf 083f e938 57bd c5a6 df3d
000003f0: 51d3 f53c 7b3a d63d c77c fdbb 9a8b 1bbe

layers.0.bias f4 [36]
0.04989239 -0.12637351 -0.2880757 -0.42727697 -0.4824642 -0.23112263 -0.25751027 0.044083547
-0.20514973 0.010609982 -0.7708725 0.37969145 -0.03621099 -0.16120096 -0.5436676 -0.1814818
-0.35914698 -0.2375798 -0.10734734 -0.3767368 -0.6366205 -0.5003505 -0.38952893 -0.22822538
-0.035535 -0.18575703 0.22266203 -0.33387086 -0.16985661 0.1261129 -0.5821229 -0.011911527
-0.18917951 -0.21084198 -0.4141561 -0.0032800923
00000000: f65b 4c3d 0f68 01be a87e 93be 0cc4 dabe
00000010: 8c05 f7be 69ab 6cbe 63d8 83be f390 343d
00000020: c512 52be 7dd5 2d3c e657 45bf eb66 c23e
00000030: fa51 14bd dd11 25be cd2d 0bbf 5dd6 39be
00000040: 1de2 b7be 1e48 73be ecd8 dbbd a5e3 c0be
00000050: 90f9 22bf f816 00bf 5670 c7be eab3 69be
00000060: 268d 11bd 1737 3ebe 8401 643e 1ff1 aabe
00000070: e4ee 2dbe bd23 013e 0206 15bf 9128 43bc
00000080: 46b8 41be f6e6 57be 450c d4be d1f6 56bb

layers.2.weight f4 [64, 36]
0.0002204772 0.07384723 0.11211145 -0.005724799 -0.0051701707 -0.04512029 -0.034951348 0.15632445
-0.11176351 -0.032394245 -0.08828231 -0.15269436 0.10747928 0.052939877 -0.049896292 -0.06938373
0.026563931 0.1142505 -0.022838023 0.1539998 -0.047521226 0.11165709 0.06974046 -0.17108345
-0.08468274 0.013290034 -0.13974102 0.018553922 0.046298634 -0.22055249 0.051054396 0.003786774
-0.14007679 0.16455846 0.1854003 0.060563162 -0.010009586 -0.087434754 0.023018915 -0.07973209
0.01822397 -0.010171323 -0.029457677 -0.024147768 0.12819767 0.0006098388 -0.03213587 -0.09522909
-0.040699862 -0.0993928 0.020636141 0.13247146 -0.22320716 0.12500049 -0.012459253 -0.094458684
0.13953897 0.040333953 -0.01819929 0.08825494 0.048169576 -0.012392737 0.14617099 0.09513047
-0.00065099326 -0.11123419 0.019704139 0.0104407 0.1620285 -0.2015516 0.0006247647 0.020729233
-0.12349624 0.019543556 -0.08967767 -0.0460589 -0.00862627 0.013876604 -0.009372184 -0.20335983
-0.2257706 0.020615643 -0.15120818 0.06722578 -0.061727118 0.019084733 0.04392497 0.12409934
0.0843698 -0.0043967096 -0.07648974 -0.018714344 -0.15621768 -0.011740423 0.095199965 -0.069963895
-0.15066904 0.019261926 -0.14545606 0.056842722 -0.124156184 0.096142896 0.106130056 0.030998258
-0.11338369 -0.09025671 0.09712719 -0.17543453 -0.04683894 -0.115868576 -0.057430256 -0.0947388
0.044466056 -0.029372398 0.009775198 -0.04523031 0.16337153 0.044743128 0.06480134 -0.06263825
-0.050264508 -0.10051704 0.07656419 0.073061235 -0.15612552 0.027548792 -0.024223788 -0.11355188
0.08838529 0.024978187 0.011350474 0.059044737 0.100608185 0.070042856 0.04415746 0.047076
-0.08276155 -0.03610955 -0.047879692 -0.046353582 0.22904783 -0.10482584 -0.16707107 -0.023491384
-0.05285271 -0.12491128 0.085012056 0.050476372 -0.032606166 0.024440916 -0.025657073 0.09795653
-0.011236045 -0.0063729435 -0.037593894 -0.16201971 0.1001729 0.0075780773 -0.0037629772 -0.036501337
-0.017917233 0.06715917 -0.059666466 0.08635455 -0.019222906 0.09980087 0.114287 -0.11313755
-0.053480186 -0.03541803 -0.21783768 0.02214545 -0.038798127 -0.08053398 0.028437328 -0.054913633
0.002062747 0.15599108 0.08087288 0.019022217 -0.030165361 -0.035842184 0.08867633 0.014630112
-0.0008034713 0.014175556 -0.093823776 0.111609906 -0.05508124 0.06860286 0.015502026 -0.11289494
0.095284484 -0.03916327 -0.031168358 0.02681392 0.018137675 0.043184884 -0.0674475 0.09235066
-0.018645333 0.08042791 -0.05588677 -0.099945545 -0.011095052 -0.00023853338 -0.23920672 0.012314632
-0.035301503 -0.15121736 0.09486291 -0.019987132 -0.013950429 0.14169711 0.055190083 -0.058868147
-0.09704155 -0.023241866 0.0497389 0.014345142 -0.21706411 -0.027198868 -0.11559289 0.07280129
-0.09118148 0.16699308 0.009990924 -0.049366243 0.04692872 -0.062063217 -0.09128911 0.060143866
0.04277397 0.025908042 -0.035839062 0.09769697 -0.021922871 0.05349462 -0.047126204 -0.15513663
-0.020244516 0.040601004 -0.11609739 -0.013534835 -0.0429794 -0.17988643 0.09648744 -0.0006819401
-0.007885741 0.16245979 0.043831732 -0.029465966 -0.0074977945 0.0453076 0.030848224 -0.058431428
00000000: e62f 6739 373d 973d b09a e53d 1897 bbbb
00000010: 896a a9bb 0ed0 38bd 2529 0fbd 8413 203e
00000020: 44e4 e4bd d4af 04bd 5bcd b4bd e95b 1cbe
00000030: 191e dc3d 7cd7 583d 0e60 4cbd 0f19 8ebd
00000040: 9a9c d93c 2bfc e93d ce16 bbbc 20b2 1d3e
00000050: 9ea5 42bd 79ac e43d 16d4 8e3d 8030 2fbe
00000060: 256e adbd 71be 593c 4518 0fbe 65fe 973c
00000070: a3a3 3d3d 83d8 61be 6a1e 513d 862b 783b
00000080: 4a70 0fbe 0382 283e 94d9 3d3e 1411 783d
00000090: 3fff 23bc fe10 b3bd 2a92 bc3c 944a a3bd
000000a0: 6f4a 953c 9fa5 26bc 3a51 f1bc 8ad1 c5bc
000000b0: 4046 033e 97dd 1f3a e7a0 03bd 7807 c3bd
000000c0: e6b4 26bd 748e cbbd 200d a93c 99a6 073e
000000d0: 6b90 64be 2100 003e e521 4cbc 8e73 c1bd
000000e0: 4ee3 0e3e 3735 253d ad16 95bc 02bf b43d
000000f0: 764d 453d e80a 4bbc d9ad 153e c4d3 c23d
00000100: 6ba7 2aba c0ce e3bd 936a a13c 780f 2b3c
00000110: cdea 253e 8b63 4ebe 40c7 233a 5ad0 a93c
00000120: 99eb fcbd cf19 a03c eda8 b7bd 42a8 3cbd
00000130: 3355 0dbc b25a 633c ca8d 19bc 8f3d 50be
00000140: 6830 67be 23e2 a83c 51d6 1abe abad 893d
00000150: 93d5 7cbd 9657 9c3c abea 333d cb27 fe3d
00000160: 13ca ac3d 4612 90bb a7a6 9cbd d34e 99bc
00000170: 87f7 1fbe e75a 40bc 33f8 c23d 3b49 8fbd
00000180: fc48 1abe 30cb 9d3c 6ff2 14be ead3 683d
00000190: 9945 febd 91e6 c43d b75a d93d 0ff0 fd3c
000001a0: b535 e8bd 83d8 b8bd 9fea c63d 1ca5 33be
000001b0: 30da 3fbd 814c edbd fd3b 6bbd 6a06 c2bd
000001c0: 0a22 363d 629e f0bc 2728 203c 6b43 39bd
000001d0: de4a 273e 9244 373d 91b6 843d 7c48 80bd
000001e0: 28e2 4dbd e1db cdbd b0cd 9c3d 21a1 953d
000001f0: 5edf 1fbe 01ae e13c f770 c6bc e38d e8bd
00000200: 5903 b53d 0e9f cc3c 57f7 393c e5d8 713d
00000210: aa0b ce3d a172 8f3d 74de 343d c4d2 403d
00000220: e37e a9bd 9ce7 13bd 7f1d 44bd 41dd 3dbd
00000230: 848b 6a3e eeae d6bd ae14 2bbe 0171 c0bc
00000240: 157c 58bd 7cd1 ffbd cd1a ae3d 50c0 4e3d
00000250: 0b8e 05bd 5138 c83c c82e d2bc 6f9d c83d
00000260: 6317 38bc 20d4 d0bb 0efc 19bd 7fe8 25be
00000270: 7327 cd3d 8551 f83b 489c 76bb 6d82 15bd
00000280: 29c7 92bc bf8a 893d d364 74bd a8da b03d
00000290: 5b79 9dbc 6664 cc3d 4d0f ea3d a9b4 e7bd
000002a0: 0a0e 5bbd 7f12 11bd d710 5fbe 606a b53c
000002b0: c9ea 1ebd 00ef a4bd 66f5 e83c 1eed 60bd
000002c0: 272f 073b 20bc 1f3e aea0 a53d 7bd4 9b3c
000002d0: 591d f7bc 41cf 12bd f09b b53d 23b3 6f3c
000002e0: 0ca0 52ba 9740 683c ae26 c0bd bc93 e43d
000002f0: de9c 61bd a87f 8c3d 36fc 7d3c 7635 e7bd
00000300: 8324 c33d aa69 20bd c954 ffbc dea8 db3c
00000310: 7695 943c a2e2 303d ea21 8abd 5822 bd3d
00000320: 19be 98bc 63b7 a43d 87e9 64bd 40b0 ccbd
00000330: 05c8 35bc d11e 7ab9 9bf2 74be 4fc3 493c
00000340: 4f98 10bd b9d8 1abe 7c47 c23d 0ebc a3bc
00000350: 5790 64bc 0c19 113e ff0e 623d ba1f 71bd
00000360: b8bd c6bd ba65 bebc 04bb 4b3d e307 6b3c
00000370: 0e46 5ebe 29d0 debc f7bb ecbd d818 953d
00000380: 5bbd babd 3c00 2b3e f9b0 233c 4234 4abd
00000390: 5438 403d 0036 7ebd c9f5 babd 6a59 763d
000003a0: c233 2f3d 1a3d d43c fbcb 12bd 5915 c83d
000003b0: 9897 b3bc 2d1d 5b3d 6807 41bd 23dc 1ebe
000003c0: d4d7 a5bc 3d4d 263d 78c4 edbd 36c1 5dbc
000003d0: 2b0b 30bd 2634 38be 359b c53d 3ac4 32ba
000003e0: 3233 01bc dc5b 263e e788 333d 9c62 f1bc
000003f0: 0fb0 f5bb 7694 393d 6ab5 fc3c cb55 6fbd

layers.2.bias f4 [64]
-0.19437447 -0.04854199 -0.19117858 0.0073155384 -0.20958489 -0.18261026 -0.14461687 -0.18442428
0.01055808 -0.030478647 -0.22778903 -0.18942338 -0.008882748 -0.085198894 -0.17486241 0.028557573
-0.23156163 0.078672186 0.04677593 -0.15346386 -0.20460632 0.034865186 -0.022369461 -0.12035659
-0.18615179 0.04105806 -0.20214884 0.29364213 -0.08779084 0.3380465 -0.09531485 -0.079653114
0.31317782 0.026510134 -0.25238067 0.338161 0.28638905 -0.08931875 -0.04760428 -0.15890434
0.03243791 -0.15763667 0.085354194 -0.21977206 -0.018960612 -0.19707549 -0.07373911 0.006048351
-0.27221754 0.34052736 -0.020388972 0.113881804 -0.15868248 0.330217 0.05260796 -0.16190358
0.0656892 0.057823244 -0.17318755 -0.16940044 0.33576408 -0.03435016 0.29404545 -0.007154492
00000000: 1a0a 47be f7d3 46bd 51c4 43be 2fb7 ef3b
00000010: 6c9d 56be 2ffe 3abe 7216 14be b8d9 3cbe
00000020: ccfb 2c3c 5bae f9bc 8741 69be 34f8 41be
00000030: f288 11bc c27c aebd 220f 33be 92f1 e93c
00000040: 7e1e 6dbe e21e a13d 1e98 3f3d a125 1dbe
00000050: 5284 51be ccce 0e3d 2940 b7bc 847d f6bd
00000060: 939e 3ebe 7f2c 283d 1b00 4fbe 4358 963e
00000070: afcb b3bd 6e14 ad3e 6f34 c3bd 2c21 a3bd
00000080: d858 a03e c82b d93c 0a38 81be 7023 ad3e
00000090: 96a1 923e c0ec b6bd b5fc 42bd d2b7 22be
000000a0: 9ddd 043d 826b 21be 2ece ae3d ed0b 61be
000000b0: 4953 9bbc 28ce 49be 8804 97bd 3f31 c63b
000000c0: 1960 8bbe 9a59 ae3e c606 a7bc dd3a e93d
000000d0: a97d 22be 3412 a93e 727b 573d 0dca 25be
000000e0: 0f88 863d 11d8 6c3d 1458 31be 4f77 2dbe
000000f0: 45e9 ab3e c1b2 0cbd 208d 963e 3b70 eabb

layers.5.weight f4 [36, 64]
0.0037066592 0.006147138 -0.040713705 -0.0041468977 -0.0005293778 0.0022878116 -0.0017267866 0.0039979382
-0.003709483 0.002353056 -0.012505332 0.0060626483 0.006180187 0.018971177 0.005620408 -0.0030726865
0.0018690596 0.004815106 -0.0022047963 0.0018509042 -0.0033245455 -0.0015504597 0.0043825107 -0.0036342912
0.003757992 0.0023807236 -0.07623445 0.0015303951 -0.024085432 0.00040502104 0.0055864714 0.021070885
-0.0012569585 -4.62303e-05 0.027542539 0.0013938849 -0.0035483406 -0.00530471 -0.0014036006 -0.0015555236
0.0042474293 -0.0033344317 -0.000538065 -0.003628681 0.003843551 0.029036893 0.000384494 0.0056777974
-0.014001474 0.0016773092 -0.00039160455 -0.027045505 -0.0023274033 0.00047620467 -0.008103537 0.0011700982
0.00042554623 -0.0089557925 -0.0008499308 0.0053463136 -0.0008048079 -0.0050937473 0.00016355232 -0.007517296
-0.014690733 -0.007815825 -0.03761643 -0.0048233876 -0.015914539 -0.013399492 -0.013832121 -0.0067376182
-0.007883416 -0.0055471305 -0.0074327057 -0.011704023 -0.0091397315 0.0430578 -0.008129248 -0.007550858
-0.0119231045 -0.0027910585 -0.004080137 -0.009067113 -0.01495056 -0.0039314623 -0.008397293 -0.007456847
-0.012059911 -0.006814385 -0.014944092 0.015221575 -0.041426893 0.014834609 -0.012930325 0.015375464
0.014322185 -0.0082863085 -0.06005582 0.015312347 0.013842295 -0.008716257 -0.0057920148 -0.017038489
-0.008756534 -0.017187554 -0.013562392 -0.011744743 -0.0066129034 0.050669212 -0.12147165 -0.0027977477
-0.039445546 0.011383923 -0.011853631 -0.008771394 -0.014263502 0.01310741 -0.00521698 -0.009764109
-0.0068278788 -0.0070823645 -0.01974471 -0.014404867 0.016053136 -0.007655295 0.017145144 -0.010097309
0.00025033782 -8.672638e-05 0.025560234 0.00023497727 -0.00033880628 5.1187664e-05 8.2771396e-05 -0.00017820779
0.0002187076 0.00023491331 -0.0056970143 1.8784336e-05 -2.228358e-05 -0.07081497 -2.6763799e-05 -2.9846027e-05
-0.00016535036 2.808163e-05 6.860642e-05 -0.00014122132 1.43957295e-05 -1.6525639e-05 -0.0002443864 -0.00032265656
0.00036163037 -0.00058102503 0.018131228 -2.4272347e-05 -0.025638167 -1.2941544e-05 -8.38711e-05 -0.0081435265
-4.643255e-05 1.12790585e-05 -0.07846342 1.11384e-06 1.3441029e-05 0.0004106746 -1.0033564e-05 0.00026801194
0.00023206655 -4.6201716e-05 0.00030555401 0.00013318658 -0.00027608074 0.011063048 0.018858133 0.00012331887
-0.054342337 -0.00021350672 6.4480904e-05 -0.0004441336 0.0005217277 -0.0001233584 -0.0002959793 0.00011682176
0.0002582505 -6.262105e-05 -0.00020855511 -0.00042967923 -6.4535256e-05 -0.0001640672 -2.5563284e-05 0.0001651172
0.0010840426 -0.0016385871 0.00081282534 0.00028429014 0.0014224555 -0.00013819773 0.0012998949 -0.00069029373
0.0026089335 -0.0020786698 0.00084375736 0.0011500302 0.0002867724 0.101532266 -0.002151725 0.0028356584
0.000331998 0.0035309747 0.0002151909 -0.0016663743 0.00028863468 0.00018335815 0.0017052133 -0.0005630417
0.00070576946 -0.0032717725 0.051557913 0.00087775395 -0.08656647 0.00058839796 0.00047857506 0.06908087
-0.00046943204 -0.0010726722 0.078340806 0.0011473738 0.00032360997 -0.003732232 0.0015601371 0.002033042
-0.0020270392 -0.00077473925 -0.000129302 4.8121117e-05 -0.00031905802 0.06411303 0.009415188 0.0009157804
-0.028164407 -0.00017745496 0.0010816248 0.0007358629 -0.00020715332 0.00012773025 0.0004425018 6.801635e-05
-0.0029636875 0.0017175699 0.0004998721 -0.0008262436 0.00036825417 -0.0013368075 0.00058994547 0.0019671086
00000000: 6ceb 723b ee6d c93b 6ac3 26bd b3e2 87bb
00000010: f1c5 0aba 1cef 153b 5855 e2ba 2301 833b
00000020: cc1a 73bb bb35 1a3b 2ae3 4cbc 2ea9 c63b
00000030: 2b83 ca3b 7169 9b3c 662b b83b 205f 49bb
00000040: 3cfb f43a 09c8 9d3b 587e 10bb 0a9a f23a
00000050: 9ee0 59bb cb38 cbba 2a9b 8f3b 4a2d 6ebb
00000060: a548 763b ea05 1c3b cf20 9cbd 8a97 c83a
00000070: d04e c5bc 0159 d439 b80e b73b d99c ac3c
00000080: 87c0 a4ba 68e7 41b8 e4a0 e13c 04b3 b63a
00000090: 478b 68bb 22d3 adbb 05f9 b7ba b6e2 cbba
000000a0: 052e 8b3b 7b86 5abb ee0c 0dba 2acf 6dbb
000000b0: 16e4 7b3b c7de ed3c e995 c939 d10c ba3b
000000c0: 7066 65bc 28d9 db3a 4650 cdb9 898e ddbc
000000d0: 5987 18bb 1cab f939 b3c4 04bc fb5d 993a
000000e0: d91b df39 51bb 12bc e4cd 5eba 2130 af3b
000000f0: bef9 52ba 73e9 a6bb 3e7f 2b39 a653 f6bb
00000100: 66b1 70bc f20d 00bc b013 1abd 820d 9ebb
00000110: 355f 82bc 8b89 5bbc 1fa0 62bc 3dc7 dcbb
00000120: 7129 01bc b4c4 b5bb 0e8e f3bb 3bc2 3fbc
00000130: d0be 15bc 605d 303d 8a30 05bc 306d f7bb
00000140: 2059 43bc 31ea 36bb abb2 85bb 3a8e 14bc
00000150: 32f3 74bc 7fd3 80bb cd94 09bc 9158 f4bb
00000160: ef96 45bc 344b dfbb 11d8 74bc ea63 793c
00000170: 3faf 29bd dc0c 733c b7d9 53bc 5fe9 7b3c
00000180: 99a7 6a3c 4cc3 07bc 17fd 75bd a3e0 7a3c
00000190: cbca 623c a2ce 0ebc f1ca bdbb 4d94 8bbc
000001a0: 9177 0fbc eacc 8cbc cc34 5ebc 066d 40bc
000001b0: 0eb1 d8bb 858a 4f3d 21c6 f8bd 6b5a 37bb
000001c0: a791 21bd a283 3a3c bb35 42bc e5b5 0fbc
000001d0: 77b1 69bc 76c0 563c 33f3 aabb a4f9 1fbc
000001e0: 66bc dfbb 2e13 e8bb a8bf a1bc 6402 6cbc
000001f0: de81 833c 45d9 fabb f973 8c3c 2f6f 25bc
00000200: c63f 8339 dfe0 b5b8 b263 d13c 3b64 7639
00000210: cfa1 b1b9 56b2 5638 8e95 ad38 4add 3ab9
00000220: e054 6539 1053 7639 05ae babb 0e93 9d37
00000230: a0ed bab7 7007 91bd d282 e0b7 db5d fab7
00000240: e661 2db9 d790 eb37 cbe0 8f38 cf14 14b9
00000250: 3085 7137 8aa0 8ab7 fd20 80b9 3b2a a9b9
00000260: 3599 bd39 ee4f 18ba f187 943c 789c cbb7
00000270: 2207 d2bc 821f 59b7 f4e3 afb8 6d6c 05bc
00000280: 92c0 42b8 303b 3d37 6eb1 a0bd 407f 9535
00000290: c880 6137 d04f d739 d455 28b7 f483 8c39
000002a0: e456 7339 b7c8 41b8 c432 a039 00a8 0b39
000002b0: eebe 90b9 c941 353c 5f7c 9a3c 284f 0139
000002c0: 1296 5ebd c6e0 5fb9 ec39 8738 9ada e8b9
000002d0: 8ec4 083a c559 01b9 ab2d 9bb9 34fe f438
000002e0: cc65 8739 6c53 83b8 96af 5ab9 9246 e1b9
000002f0: 1a57 87b8 7409 2cb9 bc70 d6b7 5023 2d39
00000300: 6f16 8e3a dcc5 d6ba c913 553a c70c 9539
00000310: b071 ba3a 2ce9 10b9 3c61 aa3a d4f4 34ba
00000320: a4fa 2a3b 4b3a 08bb 992f 5d3a 9cbc 963a
00000330: f159 9639 26f0 cf3d f503 0dbb 74d6 393b
00000340: 0410 ae39 ed67 673b dea4 6139 3e6a daba
00000350: e453 9739 d443 4039 7781 df3a 1799 13ba
00000360: 6303 393a 3c6b 56bb 642e 533d 1219 663a
00000370: c349 b1bd b83e 1a3a 42e9 fa39 457a 8d3d
00000380: 1a1e f6b9 e898 8cba 2571 a03d 7a63 963a
00000390: 32aa a939 7698 74bb 847d cc3a c93c 053b
000003a0: 13d8 04bb df17 4bba 3e95 07b9 a8d5 4938
000003b0: 3e47 a7b9 b14d 833d 2942 1a3c fb10 703a
000003c0: 0bb9 e6bc 3413 3ab9 4ec5 8d3a ece6 403a
000003d0: 4c37 59b9 54ef 0539 96ff e739 00a4 8e38
000003e0: 6d3a 42bb 1520 e13a d909 033a 4598 58ba
000003f0: 3d12 c139 d137 afba 92a6 1a3a 9bea 003b

layers.5.bias f4 [36]
-0.0008726017 -0.07958794 0.00010408991 0.00054465554 -0.061281703 0.0029344123 -0.082808755 0.09703239
-0.059978373 0.14910722 0.064585276 -0.003969096 0.086816326 0.07266812 0.08225982 0.1266947
-0.029667174 0.20062983 -0.030550897 0.36527473 -0.029220551 0.49900502 0.047423452 0.19746965
0.057357993 0.36163107 0.07310904 0.49571785 -0.012990961 -0.08963824 0.0073339446 -0.09081756
-0.034650147 -0.07889623 0.026561134 -0.08128792
00000000: 4fbf 64ba 00ff a2bd d84a da38 37c7 0e3a
00000010: 8602 7bbd 454f 403b a397 a9bd ebb8 c63d
00000020: e2ab 75bd 90af 183e 4945 843d 310f 82bb
00000030: c2cc b13d 06d3 943d d677 a83d 41bc 013e
00000040: 9308 f3bc e871 4d3e e045 fabc 4a05 bb3e
00000050: f05f efbc 967d ff3e 183f 423d 7c35 4a3e
00000060: 37f0 6a3d b527 b93e 31ba 953d bbce fd3e
00000070: 0ad8 54bc 4194 b7bd 9651 f03b 8ffe b9bd
00000080: 50ed 0dbd 5994 a1bd bc96 d93c 487a a6bd

exp_avg f4 [36, 36]
-0.00014198918 -0.00014722721 0.0 0.0 -3.632673e-06 -1.1284691e-07 -0.00018044932 -0.00017268698
-0.0003452807 -0.00033773726 4.3195287e-06 -1.9531564e-08 -0.00029933188 -0.00030505628 -0.0002648683 -0.00027334035
-1.7121797e-06 1.3589773e-05 -1.8823581e-06 2.3900348e-05 -1.6033341e-06 3.2504922e-05 3.2654216e-06 1.3032881e-05
3.2970383e-06 2.4220355e-05 3.6838578e-06 3.259077e-05 -0.000108000015 -0.00011407451 -0.00035800168 -0.00035963897
-2.5382105e-06 -4.844408e-06 -0.00034057448 -0.00034177906 -3.093577e-05 -2.8276272e-05 0.0 0.0
1.1273889e-06 -4.91333e-08 1.9941624e-06 -6.0686483e-07 1.3722641e-06 -1.1157686e-06 -1.2415758e-06 -2.8412904e-07
-1.8135602e-06 -1.8996839e-06 -1.9932293e-06 -2.6200112e-06 6.2224535e-07 -6.733969e-06 4.241608e-07 -1.2675337e-05
5.221619e-07 -1.7137163e-05 -8.8734254e-07 -6.822154e-06 -1.1970732e-06 -1.2473005e-05 6.744068e-05 5.348491e-05
3.5129509e-07 3.0843246e-06 -2.2152298e-08 3.063262e-06 7.55025e-07 2.4897856e-06 -4.1097456e-07 2.70879e-06
-7.8389684e-07 5.089878e-06 0.0 0.0 1.3478382e-05 -1.6971788e-07 0.00035236738 0.00035989285
0.00035455832 0.0003595257 -6.55614e-06 2.5224992e-07 0.00019803563 0.0001988123 0.00019978404 0.00019791847
6.1564147e-06 -1.0532806e-05 7.4972686e-06 -1.3202498e-05 6.2587415e-06 -1.7898672e-05 -6.588583e-06 -1.0622831e-05
-4.007008e-06 -1.3364583e-05 -6.184942e-06 -2.0685371e-05 5.117783e-06 2.6162172e-06 -8.955225e-06 -5.892315e-06
6.0811763e-06 3.175869e-06 -1.1766519e-05 -6.785958e-06 2.2829639e-07 6.0838994e-07 0.0 0.0
7.3137244e-07 1.7533384e-07 4.920595e-07 -7.6010343e-07 1.2154275e-05 1.202214e-05 -4.3780398e-07 -5.726838e-08
-1.14209364e-07 -1.6745636e-06 2.2606474e-07 -3.0025851e-06 3.369389e-07 -1.3500653e-06 2.036178e-07 -2.3241514e-06
1.8355722e-05 1.6763246e-05 -1.6043656e-07 -1.4142663e-06 -1.0270265e-07 -2.484587e-06 -3.4139737e-07 -3.4331256e-06
1.0314145e-07 8.796791e-07 -9.7066646e-08 8.869206e-07 3.957575e-07 6.4454673e-07 -7.5773414e-08 5.9267813e-07
1.1398716e-37 -1.1430921e-37 0.0 0.0 -1.0926377e-37 1.1015732e-37 -1.1062943e-37 1.0747792e-37
-1.1062943e-37 1.0901543e-37 1.1241119e-37 -1.0761113e-37 1.1290861e-37 -1.1627528e-37 1.0753196e-37 -1.1434033e-37
-1.1422187e-37 1.085163e-37 -1.0985682e-37 1.0590866e-37 1.0602698e-37 1.102964e-37 1.1241119e-37 1.0768448e-37
1.1062943e-37 1.1718522e-37 1.0753186e-37 1.1721972e-37 1.0741435e-37 -1.0714059e-37 1.0746497e-37 -1.0748835e-37
-1.1241132e-37 -1.1287758e-37 1.074643e-37 -1.147864e-37 -1.0666221e-37 -1.1279904e-37 0.0 0.0
-1.0780161e-37 1.1028504e-37 -1.0781898e-37 -1.1514041e-37 -1.1112565e-37 -1.1198443e-37 1.1043332e-37 1.1260232e-37
1.1151581e-37 1.1501176e-37 1.1397673e-37 1.1349838e-37 -1.0696292e-37 1.1695487e-37 -1.1327475e-37 1.1342875e-37
-1.0582007e-37 1.1586799e-37 1.1243623e-37 1.1572613e-37 1.1293813e-37 1.1251828e-37 -1.1129495e-37 -1.16133e-37
-1.099585e-37 -1.1034382e-37 1.0877575e-37 -1.1027116e-37 -1.1026234e-37 -1.0819364e-37 -1.1397639e-37 -1.0847987e-37
2.1243899e-07 2.1905821e-07 0.0 0.0 -3.3202946e-06 7.202288e-08 1.0789353e-05 1.0412591e-05
2.496619e-05 2.496619e-05 2.0706605e-06 -2.4656006e-07 2.4106519e-06 -3.1224383e-07 1.4330608e-06 7.9904873e-07
-9.812336e-07 -4.1357416e-07 -2.061397e-06 -2.165703e-06 -2.2923969e-06 -3.1614497e-06 1.8645974e-06 -7.463586e-07
1.3132069e-06 -2.484106e-06 1.8738197e-06 -2.7934477e-06 -7.6619995e-07 6.160783e-07 4.9167943e-07 1.6956827e-07
-1.911639e-06 2.5416378e-07 1.3354643e-06 7.210497e-07 0.00019528509 0.00022080305 0.0 0.0
00000000: eee2 14b9 0161 1ab9 0000 0000 0000 0000
00000010: d9c8 73b6 3f56 f2b3 ff36 3db9 4f13 35b9
00000020: cb06 b5b9 5412 b1b9 78f0 9036 5dc6 a7b2
00000030: a5ef 9cb9 f6ef 9fb9 05de 8ab9 1f4f 8fb9
00000040: 0cce e5b5 a1ff 6337 55a5 fcb5 9b7d c837
00000050: 2432 d7b5 e555 0838 8423 5b36 cca7 5a37
00000060: b042 5d36 d12c cb37 3238 7736 13b2 0838
00000070: 117e e2b8 493b efb8 2cb2 bbb9 ed8d bcb9
00000080: 2056 2ab6 268d a2b6 228f b2b9 cf30 b3b9
00000090: 08c1 01b8 d532 edb7 0000 0000 0000 0000
000000a0: ca50 9735 a206 53b3 73d3 0536 6fe7 22b5
000000b0: a32e b835 84c1 95b5 38a4 a6b5 668a 98b4
000000c0: 7469 f3b5 a4f8 feb5 6bc3 05b6 73d3 2fb6
000000d0: 6008 2735 5af4 e1b6 37b8 e334 28a8 54b7
000000e0: b12a 0c35 c7c1 8fb7 b731 6eb5 dbe9 e4b6
000000f0: 1fab a0b5 2643 51b7 f06e 8d38 fc54 6038
00000100: a199 bc34 4bfc 4e36 6b49 beb2 7192 4d36
00000110: ecac 4a35 3116 2736 eaa3 dcb4 a8c8 3536
00000120: fb6c 52b5 b8c9 aa36 0000 0000 0000 0000
00000130: 3621 6237 b23b 36b4 f3bd b839 00b0 bc39
00000140: 03e4 b939 b97e bc39 d0fc dbb6 f76c 8734
00000150: c9a7 4f39 4578 5039 1f7d 5139 5688 4f39
00000160: 3393 ce36 0fb6 30b7 0c91 fb36 4c80 5db7
00000170: 2e02 d236 1b25 96b7 7f13 ddb6 b638 32b7
00000180: f073 86b6 7238 60b7 3f88 cfb6 7f85 adb7
00000190: 6cb9 ab36 4592 2f36 663e 16b7 9ab6 c5b6
000001a0: e80c cc36 0421 5536 d068 45b7 efb2 e3b6
000001b0: a221 7534 3d50 2335 0000 0000 0000 0000
000001c0: 8853 4435 6643 3c34 1216 0435 e909 4cb5
000001d0: 37ea 4b37 b3b2 4937 520b ebb4 40f7 75b3
000001e0: 4343 f5b3 91c1 e0b5 34bc 7234 0580 49b6
000001f0: 88e4 b434 e433 b5b5 09a2 5a34 9ef8 1bb6
00000200: 9dfa 9937 cc9e 8c37 7744 2cb4 d2d1 bdb5
00000210: 618d dcb3 e1bc 26b6 4c49 b7b4 a664 66b6
00000220: 9d7e dd33 1623 6c35 f472 d0b3 b814 6e35
00000230: 7f78 d434 ea04 2d35 e0b8 a2b3 8818 1f35
00000240: ba26 1b02 f296 1b82 0000 0000 0000 0000
00000250: deb8 1482 39f0 1502 bb94 1682 974a 1202
00000260: bb94 1682 5562 1402 9501 1902 0279 1282
00000270: e9ae 1902 0644 1e82 6b5d 1202 caa1 1b82
00000280: 8378 1b82 69b4 1302 8487 1582 c827 1002
00000290: 0351 1002 b020 1602 9501 1902 9192 1202
000002a0: bb94 1602 1781 1f02 625d 1202 1c8d 1f02
000002b0: 7034 1202 0cd5 1182 1446 1202 394e 1282
000002c0: a101 1982 19a4 1982 d845 1202 393d 1c82
000002d0: 5b2e 1182 bb88 1982 0000 0000 0000 0000
000002e0: 61bb 1282 ba1c 1602 6ec1 1282 94b8 1c82
000002f0: a341 1782 e16c 1882 6550 1602 2f44 1902
00000300: 97c9 1702 c08b 1c02 1823 1b02 6a7c 1a02
00000310: 2397 1182 d330 1f02 7d2e 1a82 2764 1a02
00000320: ea08 1082 1ab6 1d02 4f0a 1902 ac84 1d02
00000330: 32b9 1902 e626 1902 a17c 1782 7212 1e82
00000340: f2aa 1582 3631 1682 d10e 1402 e417 1682
00000350: d114 1682 fb43 1382 fa22 1b82 b8a7 1382
00000360: c91a 6434 4336 6b34 0000 0000 0000 0000
00000370: 3ad2 5eb6 ffaa 9a33 eb03 3537 bdb1 2e37
00000380: 7c6e d137 7c6e d137 adf5 0a36 f55e 84b4
00000390: afc6 2136 77a2 a7b4 9857 c035 367e 5635
000003a0: eeb2 83b5 3309 deb4 8856 0ab6 7f56 11b6
000003b0: 14d7 19b6 4b29 54b6 1443 fa35 5f59 48b5
000003c0: 7241 b035 9eb4 26b6 f47f fb35 1177 3bb6
000003d0: dcac 4db5 9460 2535 f4fb 0335 9212 3634
000003e0: b549 00b6 0174 8834 343e b335 288e 4135
000003f0: 71c5 4c39 5e87 6739 0000 0000 0000 0000

exp_avg_sq f4 [36, 36]
7.626545e-07 7.6416563e-07 0.0 0.0 4.7088294e-10 7.373713e-12 6.216679e-07 6.203174e-07
1.1991049e-06 1.1966075e-06 5.187301e-10 1.3137941e-11 9.0216e-07 9.0234323e-07 1.4732724e-06 1.4748175e-06
1.2909966e-08 1.6349402e-08 1.4082231e-08 2.6312875e-08 1.41538e-08 3.7418356e-08 1.3112779e-08 1.6266272e-08
1.4448451e-08 2.5981253e-08 1.4762632e-08 3.669246e-08 4.1540898e-07 4.1747828e-07 8.014894e-07 8.0309616e-07
1.6999523e-10 5.461105e-10 6.191939e-07 6.2213576e-07 7.413646e-08 7.450287e-08 0.0 0.0
1.027991e-10 3.9563205e-12 2.5196675e-10 3.299668e-10 2.0448047e-10 1.0389238e-09 1.15873915e-10 4.238644e-12
2.5672267e-10 3.0493638e-10 2.3139226e-09 3.014618e-09 2.807688e-11 1.3298673e-09 2.9341817e-11 4.542311e-09
4.512086e-11 8.643451e-09 7.7089404e-11 1.2979289e-09 1.1005038e-10 4.4307233e-09 3.7271647e-07 3.7362003e-07
1.3334872e-11 2.8026545e-10 9.273239e-10 1.2038527e-09 4.0372414e-11 1.993574e-10 1.2154542e-09 1.3976081e-09
1.094971e-10 7.388971e-09 0.0 0.0 7.4085356e-09 1.09335006e-10 2.0621912e-05 2.0620913e-05
2.063044e-05 2.062817e-05 7.3771385e-09 1.5450834e-10 1.05722975e-05 1.05454565e-05 1.0602709e-05 1.056449e-05
2.1466007e-09 5.075303e-08 2.1443538e-09 1.7313714e-07 2.9774114e-09 3.2810516e-07 5.4752625e-09 4.9944518e-08
7.4187887e-09 1.6815625e-07 1.0582781e-08 3.172001e-07 6.5432926e-10 1.05977875e-08 5.4786953e-09 1.574715e-08
4.1369423e-09 8.840095e-09 7.107066e-09 1.3475021e-08 1.6944545e-12 9.443161e-11 0.0 0.0
9.969729e-11 2.0684012e-12 3.2553646e-10 1.1672692e-10 1.07279796e-07 1.0677412e-07 1.2337803e-10 2.2802558e-12
4.6862275e-10 1.1983202e-10 1.313666e-09 1.0813264e-09 1.9387167e-11 6.6916966e-10 2.0406332e-09 4.307934e-09
1.0550161e-07 1.0662398e-07 1.0097849e-10 6.434849e-10 2.1581392e-09 4.2250643e-09 2.210121e-09 6.1434764e-09
4.8067943e-12 1.3723235e-10 1.3171661e-11 1.4103291e-10 3.1316987e-11 9.686009e-11 4.2046484e-11 1.1624301e-10
2.1445997e-16 2.3875916e-16 0.0 0.0 1.4120205e-17 9.709167e-19 3.0562517e-17 5.063637e-17
4.0360696e-17 1.5125908e-16 1.7290573e-17 2.714577e-19 5.3404888e-17 3.0246332e-17 6.5003664e-17 1.03464724e-16
2.6614884e-18 1.7621536e-16 1.3406088e-18 5.988992e-16 2.086325e-18 1.0967553e-15 1.3806001e-17 1.6661027e-16
2.5257523e-17 5.6016925e-16 1.6069155e-14 1.666052e-14 2.711669e-16 3.0414783e-16 1.3747234e-16 1.7112998e-16
1.2115754e-15 1.2331892e-15 3.0735586e-15 3.096635e-15 2.1607637e-18 5.133938e-15 0.0 0.0
5.5969604e-15 6.443247e-17 6.5820812e-12 6.5701103e-12 1.4713704e-11 1.4749186e-11 5.385838e-15 9.176973e-18
1.0663147e-14 6.511127e-15 1.2583589e-14 1.9636783e-14 2.0344925e-15 3.326257e-14 1.9467051e-15 1.1525346e-13
3.4012324e-15 2.1358727e-13 3.140962e-15 3.203111e-14 3.992039e-15 1.0718155e-13 3.6367694e-13 5.5630067e-13
9.052416e-16 7.121277e-15 2.3131062e-16 7.143662e-15 2.367706e-15 4.568593e-15 1.2821631e-13 1.4149544e-13
2.9388835e-11 8.758781e-10 0.0 0.0 7.405514e-10 1.9212488e-11 2.8533373e-06 2.8534428e-06
2.8547572e-06 2.8547568e-06 8.4600604e-10 1.8093868e-11 1.9812944e-08 1.7503476e-08 2.1197033e-08 1.9779094e-08
2.6989155e-10 5.8656897e-09 2.725183e-10 2.0036678e-08 4.1520695e-10 3.7514805e-08 7.631145e-10 5.7539773e-09
1.0011864e-09 1.959498e-08 1.3627688e-09 3.6293446e-08 6.8934726e-11 1.1941482e-09 6.242683e-11 1.1989133e-09
2.7907446e-10 9.1912167e-10 2.75497e-10 9.859522e-10 1.4867925e-06 1.4993843e-06 0.0 0.0
00000000: 38b9 4c35 1021 4d35 0000 0000 0000 0000
00000010: 716f 0130 40b8 012d b1e0 2635 e383 2635
00000020: eef0 a035 1f9b a035 6396 0e30 0720 672d
00000030: f72b 7235 8e38 7235 41bd c535 58f2 c535
00000040: a2ca 5d32 b770 8c32 4fee 7132 a006 e232
00000050: 1229 7332 ebb5 2033 9d46 6132 e9b9 8b32
00000060: f638 7832 612d df32 be9e 7d32 c997 1d33
00000070: 6005 df34 c721 e034 ef25 5735 5994 5735
00000080: 67e9 3a2f 1c1d 1630 ae36 2635 d800 2735
00000090: f334 9f33 63fe 9f33 0000 0000 0000 0000
000000a0: c00e e22e 5e33 8b2c 2b85 8a2f b366 b52f
000000b0: 23d4 602f e2c9 8e30 37cf fe2e 5022 952c
000000c0: 8122 8d2f fba3 a72f f502 1f31 b929 4f31
000000d0: 83f7 f62d 8cc6 b630 f30b 012e 9712 9c31
000000e0: 9271 462e 4d7e 1432 7a85 a92e d062 b230
000000f0: db00 f22e 0e3d 9831 c319 c834 f295 c834
00000100: ed96 6a2d db13 9a2f 9ee6 7e30 cd74 a530
00000110: 4c8f 312e 1f32 5b2f fe0c a730 f715 c030
00000120: 63c9 f02e 14e2 fd31 0000 0000 0000 0000
00000130: 2b8e fe31 236e f02e 38fd ac37 13fb ac37
00000140: 880f ad37 a80a ad37 ff79 fd31 3be2 292f
00000150: ac5f 3137 64ec 3037 4ae2 3137 243e 3137
00000160: 6683 1331 8cfb 5933 df5b 1331 93e7 3934
00000170: 2d9b 4c31 6e26 b034 eb20 bc31 9482 5633
00000180: 5be8 fe31 708e 3434 90cf 3532 a64b aa34
00000190: 54dc 3330 9011 3632 1d3f bc31 5944 8732
000001a0: ee24 8e31 26df 1732 6a32 f431 c57f 6732
000001b0: 2879 ee2b 45a8 cf2e 0000 0000 0000 0000
000001c0: 963c db2e 018d 112c 2ff7 b22f b557 002f
000001d0: b161 e633 b14b e533 d4a7 072f 7075 202c
000001e0: 65d0 0030 b7c1 032f 838c b430 ca9d 9430
000001f0: 0588 aa2d a1f0 3730 333b 0c31 fd04 9431
00000200: 2090 e233 27f9 e433 d60d de2e 39e1 3030
00000210: 634e 1431 0f2c 9131 dce0 1731 9716 d331
00000220: c11f a92c 79e3 162f e3b7 672d 3c11 1b2f
00000230: cbbb 092e 62ff d42e 22ec 382e ff9e ff2e
00000240: 6941 7725 a2a2 8925 0000 0000 0000 0000
00000250: 643c 8223 3248 8f21 daf1 0c24 e084 6924
00000260: 8021 3a24 cd63 2e25 367a 9f23 873d a020
00000270: 5d49 7624 917c 0b24 64e3 9524 cb92 ee24
00000280: 1862 4422 9829 4b25 c5d6 c521 f69e 2c26
00000290: 91f1 1922 210f 9e26 ffac 7e23 ac16 4025
000002a0: a4f5 e823 3275 2126 f3bc 9028 8b10 9628
000002b0: 2c51 9c25 4c54 af25 ac7e 1e25 a84c 4525
000002c0: 3e9b ae26 a7b8 b126 2679 5d27 d522 5f27
000002d0: ac6f 1f22 38f8 b827 0000 0000 0000 0000
000002e0: d9a6 c927 3892 9424 1e96 e72c 4b2a e72c
000002f0: 516c 812d 37bc 812d 960b c227 0849 2923
00000300: 1617 4028 8c96 ea27 90af 6228 57df b028
00000310: c399 1227 22cd 1529 5f46 0c27 8cc3 012a
00000320: aa15 7527 577a 702a 8654 6227 5b41 1029
00000330: 10d4 8f27 f559 f129 5fbb cc2a b095 1c2b
00000340: 8575 8226 1849 0028 6c57 8525 53b0 0028
00000350: 779c 2a27 d599 a427 d65b 102a 494f 1f2a
00000360: e340 012e 71c2 7030 0000 0000 0000 0000
00000370: ac8f 4b30 adfe a82d f67b 3f36 c67d 3f36
00000380: 5b94 3f36 5994 3f36 628c 6830 c527 9f2d
00000390: 2031 aa32 8d5a 9632 c514 b632 b0e6 a932
000003a0: dc5f 942f 278b c931 8bd1 952f 1f1d ac32
000003b0: 2f43 e42f f71f 2133 69c3 5130 85b4 c531
000003c0: 1d9a 8930 d151 a832 2a4c bb30 11e1 1b33
000003d0: cd96 972e 5b1f a430 2e47 892e 03c7 a430
000003e0: 3d6c 992f 70a5 7c30 c174 972f 1c82 8730
000003f0: cd8d c735 743e c935 0000 0000 0000 0000

exp_avg f4 [36]
6.178659e-05 -1.679542e-05 -2.0565189e-05 -2.7272777e-06 1.074034e-37 1.1003456e-37 -2.4966191e-06 -0.00016427209
-1.5806014e-05 -3.2063745e-05 3.7467958e-06 0.00029448717 0.00033021436 -6.4918677e-06 1.1324326e-37 1.0632656e-37
1.7394575e-06 -0.00040600073 5.8190135e-06 -0.00015733682 -2.8835862e-05 -0.00018415961 1.1072289e-37 3.5135672e-05
-8.787785e-05 1.1420201e-37 4.1237854e-06 4.481546e-05 1.2585236e-05 7.71236e-06 -5.9573395e-06 1.1451743e-37
-2.5680101e-05 -0.00015987463 -5.090055e-06 1.1094482e-37
00000000: 6c93 8138 e4e3 8cb7 6883 acb7 4606 37b6
00000010: 9f30 1202 73c5 1502 978b 27b6 7440 2cb9
00000020: 2897 84b7 2f7c 06b8 7671 7b36 6665 9a39
00000030: 9f20 ad39 b8d4 d9b6 8423 1a02 66b9 1002
00000040: 4e77 e935 7fdc d4b9 f240 c336 c8fa 24b9
00000050: 8be4 f1b7 f81a 41b9 4cb5 1602 a45e 1338
00000060: 104b b8b8 9871 1b02 0c5f 8a36 3cf8 3b38
00000070: 2d25 5337 5564 0137 28e5 c7b6 80df 1b02
00000080: 996b d7b7 05a4 27b9 3dcb aab6 a102 1702

exp_avg_sq f4 [36]
2.8024267e-08 6.17692e-09 2.0831314e-07 2.7810332e-09 5.383806e-16 1.5840232e-13 2.8548424e-08 1.7926517e-07
3.010504e-08 2.4645993e-07 5.228631e-10 1.3940155e-06 1.3073853e-07 3.9701433e-09 1.7100621e-14 4.732197e-19
8.421191e-09 6.105728e-07 9.47489e-09 1.362648e-07 9.8565984e-08 6.779179e-07 5.4130953e-12 2.0023053e-07
3.366179e-08 2.4156466e-19 2.068738e-08 8.703814e-08 2.2767825e-08 3.5056818e-08 4.4169308e-08 5.0588682e-17
3.6192708e-07 2.9943573e-07 1.770819e-08 9.945658e-14
00000000: 04ba f032 c33c d431 aeac 5f34 741c 3f31
00000010: 7a2d 1b26 5c58 322a a63a f532 097c 4034
00000020: d74c 0133 3251 8434 38b9 0f30 021a bb35
00000030: 2261 0c34 c069 8831 5907 9a28 78ab 0b21
00000040: caac 1032 3ee6 2335 02c7 2232 2f50 1234
00000050: 39ab d333 2afa 3535 d474 be2c f3fe 5634
00000060: 8893 1033 3898 8e20 08b4 b132 b9e9 ba33
00000070: fa92 c332 6191 1633 abb4 3d33 934c 6924
00000080: e14e c234 22c2 a034 b91c 9832 d1f4 df29

exp_avg f4 [64, 36]
3.8893406e-05 1.9520471e-06 2.9442364e-05 8.3474276e-07 -1.0993482e-37 -1.0998974e-37 1.6084765e-07 -0.00023294703
2.7320546e-06 -5.6878234e-05 -3.732177e-06 -6.861333e-05 -4.0493698e-05 -2.086964e-06 1.0757081e-37 -1.1571616e-37
5.3272777e-07 0.00016652916 -7.833129e-06 -9.6777665e-05 -3.989258e-05 -0.0005440034 -1.1704871e-37 1.2881068e-05
8.919376e-05 -1.1097011e-37 -5.6022373e-06 0.0001588766 0.000102059435 -4.2031784e-06 -9.689278e-06 1.1344379e-37
-8.552106e-06 0.00016653031 -4.5388953e-07 -1.1530036e-37 -5.6736408e-05 -2.2877096e-07 1.6418951e-05 1.9498416e-06
-1.0899025e-37 -1.1622597e-37 -9.982772e-07 -0.00011415074 -1.0910309e-05 -0.00013528326 -1.9513632e-06 -6.846686e-05
-8.835609e-05 -8.5127685e-06 1.0767659e-37 1.071681e-37 -2.5796246e-06 -0.00015115069 -8.9779803e-07 -0.00010979944
-3.8796898e-05 -0.00035051926 -1.1360415e-37 -5.381653e-07 -6.898098e-05 1.1048055e-37 -3.0152971e-06 -4.4047327e-05
-4.036961e-05 -4.021909e-06 1.2031883e-06 -1.1127703e-37 -0.00011801956 -4.981872e-05 -5.439829e-06 -1.1548648e-37
-1.1712252e-37 1.0648275e-37 1.1359224e-37 1.1412168e-37 1.1351133e-37 1.0879131e-37 1.1371762e-37 1.1209877e-37
1.1628657e-37 1.0673224e-37 1.1753297e-37 1.0758357e-37 1.1075681e-37 1.1463755e-37 1.1455151e-37 1.1751694e-37
1.1172798e-37 1.137251e-37 1.0613745e-37 1.1119948e-37 1.1228517e-37 1.1597171e-37 1.1522597e-37 1.0723425e-37
1.1708937e-37 1.1279292e-37 -1.0975968e-37 1.1548563e-37 -1.108526e-37 1.1546818e-37 1.0742542e-37 1.1280589e-37
1.059233e-37 1.0992302e-37 1.0609213e-37 1.0905525e-37 -1.8927802e-05 1.266509e-06 2.8936456e-06 8.7123294e-07
-1.0861434e-37 -1.0654438e-37 -1.0081074e-07 -0.00012654456 -1.2912211e-05 -0.00016472458 5.3493025e-08 -2.4855955e-05
-0.00023005616 -9.688447e-06 1.1233582e-37 -1.1165871e-37 1.782352e-07 -0.0002615066 1.0501729e-05 -6.361498e-05
-3.0110821e-05 -0.00022017678 -1.1101845e-37 2.6500244e-05 -6.073368e-05 1.1204279e-37 -4.796615e-06 -6.889826e-05
-2.6023868e-05 -4.868701e-06 -2.597044e-06 -1.1338507e-37 -0.00014797505 -0.00014165608 -2.0358789e-06 1.1132852e-37
4.801701e-05 1.3372119e-06 3.140895e-05 -1.0329092e-05 1.1605648e-37 -1.0947084e-37 -1.3542895e-06 -6.3146515e-05
3.550478e-06 0.000108266126 3.4791657e-07 -1.986157e-05 -8.921715e-05 1.08789585e-07 1.0793812e-37 -1.085373e-37
-4.09823e-07 0.00010587968 1.0934796e-05 5.608675e-05 -4.673333e-06 -8.170394e-05 -1.1486769e-37 1.2473243e-05
2.3123866e-05 -1.0582588e-37 1.5445535e-06 0.00014138164 0.00010851755 1.3462188e-06 -1.1052847e-06 1.1469348e-37
-6.582249e-05 0.00022054769 -1.9288719e-07 -1.0961922e-37 -1.24186445e-05 1.4798406e-06 2.5738282e-05 1.0579207e-06
-1.1285623e-37 -1.1417734e-37 6.505792e-07 -0.00011753343 -5.562712e-06 5.1051837e-05 -1.5800994e-06 -1.8605742e-05
-7.303414e-05 -1.1217338e-05 1.0916275e-37 1.0877167e-37 4.2389133e-06 3.492189e-05 1.0260609e-06 -3.0560677e-05
-2.8420533e-05 -0.0002262018 -1.1751335e-37 -4.7889716e-06 5.447704e-05 1.1717131e-37 1.3951002e-06 0.0001537902
0.0001014398 3.5785586e-06 -3.9779826e-07 1.1050678e-37 -5.1322175e-05 4.672556e-05 -4.3775644e-06 -1.1686446e-37
1.9378473e-05 -9.601677e-08 1.7054257e-05 2.535431e-06 -1.0699673e-37 -1.0730616e-37 4.008292e-06 -0.00018690829
8.245304e-06 -7.789156e-05 3.1888408e-06 -5.507979e-05 3.8804028e-05 1.2881967e-06 1.1354468e-37 1.1633007e-37
3.2084924e-06 6.6201187e-06 9.667207e-06 -0.00010349807 -7.3345494e-05 -0.0005424193 -1.1334471e-37 9.413122e-06
-2.4362627e-05 -1.1050214e-37 9.674436e-06 6.465521e-05 -2.6427559e-05 1.0205628e-05 1.3728572e-05 -1.103781e-37
-8.068287e-05 4.0666746e-05 -1.9926892e-06 -1.1564194e-37 7.4538825e-06 7.776525e-07 -7.165625e-06 3.4597876e-06
00000000: 7a21 2338 eaff 0236 fffa f637 1613 6035
00000010: b2a2 1582 d5b5 1582 77b5 2c34 3e43 74b9
00000020: 5758 3736 8a90 6eb8 5076 7ab6 80e4 8fb8
00000030: c7d7 29b8 c50d 0cb6 f56a 1202 3281 1d82
00000040: c600 0f35 559e 2e39 086b 03b7 1df5 cab8
00000050: 5552 27b8 739b 0eba 8651 1f82 c41b 5837
00000060: 890d bb38 710b 1782 dafa bbb6 1d98 2639
00000070: be08 d638 0709 8db6 228f 22b7 6469 1a02
00000080: 047b 0fb7 a49e 2e39 1aae f3b4 50f0 1c82
00000090: 41f8 6db8 15a4 75b4 6ebb 8937 06da 0236
000000a0: 8f59 1482 d732 1e82 8bfc 85b5 3664 efb8
000000b0: 6c0b 37b7 d3da 0db9 2af4 02b6 de95 8fb8
000000c0: d14b b9b8 10d2 0eb7 d18f 1202 a2de 1102
000000d0: 9d1d 2db6 347e 1eb9 3600 71b5 2044 e6b8
000000e0: dab9 22b8 e6c5 b7b9 45a1 1a82 7076 10b5
000000f0: e2a9 90b8 da60 1602 695a 4ab6 75bf 38b8
00000100: 8a52 29b8 eff3 86b6 3c7d a135 6376 1782
00000110: 4581 f7b8 71f4 50b8 c687 b6b6 2a31 1d82
00000120: 3e6b 1f82 d3ef 1002 1e9d 1a02 9a55 1b02
00000130: ed80 1a02 3d14 1402 cfc8 1a02 b894 1802
00000140: f547 1e02 c246 1102 43fa 1f02 676f 1202
00000150: 1ec1 1602 5b09 1c02 60eb 1b02 adf4 1f02
00000160: 8513 1802 6acb 1a02 8177 1002 5d5b 1702
00000170: acd5 1802 3eda 1d02 64d6 1c02 aff5 1102
00000180: b15f 1f02 9986 1902 ab65 1582 de30 1d02
00000190: 7ee2 1682 ca2a 1d02 4c38 1202 1e8b 1902
000001a0: e22c 1002 959e 1502 b667 1002 3570 1402
000001b0: 25c7 9eb7 ebfc a935 7430 4236 acde 6935
000001c0: 93d6 1382 4c05 1182 4a7d d8b3 0cb1 04b9
000001d0: 86a1 58b7 ebb9 2cb9 34c0 6533 c281 d0b7
000001e0: 3b3b 71b9 908b 22b7 52e7 1802 62fb 1782
000001f0: eb60 3f34 d21a 89b9 9530 3037 0869 85b8
00000200: 7f96 fcb7 41df 66b9 491c 1782 d74c de37
00000210: 4bbc 7eb8 3781 1802 9cf2 a0b6 797d 90b8
00000220: d54d dab7 d35d a3b6 e048 2eb6 ee54 1a82
00000230: c029 1bb9 8489 14b9 22a0 08b6 5488 1702
00000240: df65 4938 407a b335 1abd 0338 1d4b 2db7
00000250: c8f7 1d02 0501 1582 08c5 b5b5 876d 84b8
00000260: bf44 6e36 ef0c e338 4ac9 ba34 669c a6b7
00000270: 181a bbb8 b59f e933 f2ea 1202 bbbb 1382
00000280: a505 dcb4 b80b de38 9774 3737 b03e 6b38
00000290: a0cf 9cb6 7858 abb8 8c59 1c82 2c44 5137
000002a0: 20fa c137 f00a 1082 744e cf35 d83f 1439
000002b0: eb93 e338 baaf b435 4b59 94b5 d81c 1c02
000002c0: 2e0a 8ab8 d242 6739 6d1c 4fb4 b934 1582
000002d0: ac59 50b7 f09e c635 8ae8 d737 e1fd 8d35
000002e0: a89c 1982 ff68 1b82 76a3 2e35 487c f6b8
000002f0: 55a7 bab6 7e20 5638 cd13 d4b5 8713 9cb7
00000300: e829 99b8 1a32 3cb7 ab95 1402 650d 1402
00000310: fd3b 8e36 1879 1238 2fb7 8935 472e 00b8
00000320: a168 eeb7 9530 6db9 6df3 1f82 f4b0 a0b6
00000330: 477e 6438 3e7c 1f02 473f bb35 be42 2139
00000340: 14bc d438 2b27 7036 fa90 d5b4 fe69 1602
00000350: c442 57b8 30fb 4338 fee2 92b6 5211 1f82
00000360: f48e a237 c731 ceb3 bd0f 8f37 5f26 2a36
00000370: eba2 1182 bd0e 1282 f77e 8636 d0fc 43b9
00000380: 5055 0a37 b659 a3b8 deff 5536 7905 67b8
00000390: 82c1 2238 1ae6 ac35 8c8c 1a02 1d57 1e02
000003a0: 7b51 5736 6322 de36 5730 2237 1a0d d9b8
000003b0: 10d1 99b8 2531 0eba de46 1a82 0ded 1d37
000003c0: 585e ccb7 6068 1682 634f 2237 8097 8738
000003d0: c0b0 ddb7 d738 2b37 c553 6637 283d 1682
000003e0: 4934 a9b8 9691 2a38 24ba 05b6 5667 1d82
000003f0: 5d1c fa36 dfbf 5035 4070 f0b6 b32e 6836
