models/v8-epoch=1-val_loss=0.003812.ckpt (torch, 84854 bytes, 18 tensors)

layers.0.weight f4 [36, 36]
00000000: fe72 ab3c b8ef 8d3d eaf0 073e f812 0c3e
00000010: 5598 5abd 9226 e33d ceec 3e3e 9c6b 3abd
00000020: 9bf5 063e 7208 8cbc 3939 ec3d eac2 84bb
00000030: bc77 b03b f4d5 1b3d 170c 033e 84e6 95bd
00000040: 9162 18bd 714a 8c3d 4fa0 813d 792d 403c
00000050: 068c 9d3b 198d 953d d2dd 1abd 1a2f fb3d
00000060: cd21 143e c494 adbd e4dc 3dbd 0c24 f53d
00000070: 5a7b 383e 7d52 84bd fdc8 2abc b413 173e
00000080: a7ef e8bb 752c bb3d 0fba 08bd e101 923d
00000090: becf c3bd 696a 463e 6234 053e 2d36 0f3c
000000a0: 2fd5 cc39 c200 1f3e c6d4 663d 7694 b73c
000000b0: fb7f 7c3d 2f3e 263e 49c1 023e b77f 57bd
000000c0: 1358 df3c d28e 103d e54a 50bc 9d38 8b3a
000000d0: 8e83 823d 589e 2b3c 0f5f 5d3d 540e 55bd
000000e0: 0f85 3a3d 7629 34bc 1c15 b3bd 8bd8 c63d
000000f0: f87a ef3d 2ffe 16bd b36c 863d be03 45bd
00000100: b35a 79bd 551a 553e f061 f73d 957f 623d
00000110: b0a2 383b 5277 d43d c221 1a3d 0c6b d83d
00000120: 103d 6b3d 1b78 6f3e 58bf d53d b48f 87bd
00000130: 4d1a cd3d 09b5 af3c 8f21 79bd 9e17 0b3e
00000140: 4b37 48bc a937 053e bd28 313e 2fb2 e53d
00000150: 5d74 07bd f979 c33d dd99 af3d 9dc8 8ebd
00000160: 3882 cf3c 452f 263d 84be 8cbd b1e6 cd3d
00000170: 04c1 9bbc 645e e73b 4fe8 fd3d 113e b2bd
00000180: 4c16 ad3c b01b ed3c 2067 963d cfaf dabc
00000190: 85a4 80bd 6ebf b83e aa79 94bd a362 8e3e
000001a0: 24c0 313d 012c 5b3e a761 553c 7733 013e
000001b0: cfaa 863d aadf 81bd 9b62 253d 6f01 0bbd
000001c0: f58f 61bd 3c0a 4d3d f316 0bbe c624 0f3e
000001d0: d5ac 0cbf a9e4 103f c650 ba3d 7353 b7bd
000001e0: 88b2 9f3d 492b abbd eed0 1fbd 81b2 f63c
000001f0: 05f7 1bbe 4e3b 013e df46 08be 3084 093e
00000200: 21f0 5a3d 58f7 8ebd 6c39 9fba b4e1 623c
00000210: 48ec 7e40 4425 1440 9316 c7bc d21a 373d
00000220: 864b e9bc df6f 083d b5eb dd3a 0307 a8bb
00000230: fbee 6b3d 8ea1 88bd 1cf9 4fbc 4a8a 773c
00000240: d809 213d 9964 613d 916c c73d 419d 88bc
00000250: 5fd5 223d 3074 333d 94ab 4ebc 3472 803d
00000260: 414f 3ebd 5721 b83d 7f4d a53d 989b e63a
00000270: 9ddd d43d 6f57 80bd c888 2cbd c5c6 e43d
00000280: 1c71 153e d2af f7bd 4741 fd3c 7bb9 aa3c
00000290: a305 113d 5eb2 2abc e0a5 9d3d 37b5 88bd
000002a0: 803a ca3c cb00 cd3d 1aa9 06bd f735 ad3d
000002b0: 7a26 5f3d 3b06 fe3d daa7 653d 12c4 bd3d
000002c0: b86a 06bd fe47 e23d 4051 113d 8ec3 8d3d
000002d0: 3943 143e 4771 13be e8ad d53d d354 cfbd
000002e0: 630c 623e d81a 5fbe ce71 c03d e85f 06be
000002f0: 0c33 3c3d e8e7 c0bd 9b77 e7bd 7acc f63d
00000300: 6d82 b4be adb8 a93e 6039 6fbe 1a2f 583e
00000310: 858b a2bd d347 9b3d 1f29 8abe c690 813e
00000320: c571 293d c253 a3bd 8d9a 50be 939e 453e
00000330: fd7a 8abe cf86 7d3e 8785 a9be 518c 973e
00000340: 86a4 ea3d 19a9 ebbd ffba 1a3e f9a9 1dbe
00000350: 4647 353e 67c5 39be 524d cb3d e2b1 cdbd
00000360: 2722 163e 31b6 19be 21b8 af3d 32fe bcbd
00000370: a17f 9fbd da5b a33d 5717 eabc 91b1 793d
00000380: 8075 aebb 0944 2a3d 2a44 0a3d 16eb e5bc
00000390: f7b0 213e 609c 2fbe 0be8 a23d 610c b4bd
000003a0: 0ac0 bcbe a401 b23e c8c9 8abe 1397 753e
000003b0: a551 3fbe e658 9b3d d585 21be f63e 043e
000003c0: 0bd0 adbe 339a 933e 24ae 97be b1e3 803e
000003d0: 86b2 143e 5575 10be 28ba 673e 0728 6dbe
000003e0: 4c7a 443e 8a9e 4fbe cb09 273e 9227 24be
000003f0: a7e7 3cbd d446 5c3d 5d0e 843d 0309 7cbd
0.020928856 0.06930488 0.13275495 0.13679111 -0.05336793 0.11091341 0.18645021 -0.04551278
0.13179629 -0.01709387 0.11534352 -0.004051556 0.005385367 0.03804584 0.1279758 -0.07319358
-0.037203375 0.06850136 0.063294046 0.0117295915 0.004807952 0.07302303 -0.0378092 0.12264843
0.14466019 -0.084756404 -0.046353236 0.11969766 0.18015805 -0.06461046 -0.010423896 0.1475361
-0.007108647 0.09139339 -0.033380564 0.071292646 -0.09561108 0.1937653 0.13008264 0.008740944
0.00039068746 0.15527633 0.05635526 0.022409659 0.06164549 0.16234659 0.12769045 -0.052612033
0.027263677 0.035292454 -0.012713169 0.001062173 0.06372748 0.010474764 0.054045733 -0.052015617
0.04553705 -0.010996213 -0.08744261 0.09709271 0.11693376 -0.036863502 0.065637015 -0.048099272
-0.060877513 0.20810826 0.12079227 0.055297453 0.0028173141 0.10374321 0.03762985 0.105672926
0.05743128 0.2338566 0.104368865 -0.06619206 0.10014782 0.021448629 -0.06082302 0.13583228
-0.012220214 0.13009514 0.17300697 0.112156264 -0.033069957 0.09544749 0.08574269 -0.06971858
0.025330648 0.040572423 -0.068722755 0.100537665 -0.019012935 0.007060813 0.12397825 -0.087032445
0.021128796 0.028943866 0.07343888 -0.02669516 -0.062813796 0.3608355 -0.07249768 0.2780963
0.04339613 0.21403505 0.01302377 0.12617289 0.06575548 -0.06341489 0.04037724 -0.033936914
-0.05506893 0.05005859 -0.13582973 0.13978872 -0.5495122 0.5659891 0.090974376 -0.089514636
0.07797724 -0.08357865 -0.03901761 0.030114414 -0.15230949 0.12620279 -0.13308285 0.13429332
0.05345166 -0.06980771 -0.001214785 0.013847757 3.9831715 2.3147745 -0.024302756 0.044703312
-0.028478395 0.033309814 0.0016931208 -0.005127789 0.057600956 -0.06671439 -0.01269367 0.015108654
0.03931603 0.055027578 0.09737504 -0.016676547 0.039754268 0.043811977 -0.01261415 0.062717825
-0.0464623 0.08990734 0.08071422 0.0017593978 0.10393832 -0.06266677 -0.042122632 0.11170725
0.14593929 -0.12094082 0.030914916 0.020840397 0.035405766 -0.010418503 0.07697654 -0.06675189
0.024686098 0.10009917 -0.03287611 0.084575586 0.054480053 0.12403532 0.05606828 0.09265913
-0.03281662 0.11048888 0.035477877 0.06922065 0.14478768 -0.1439868 0.104335606 -0.10123601
0.22075038 -0.21787584 0.093967065 -0.13122523 0.04594712 -0.094192326 -0.1130211 0.120507196
-0.35255757 0.3314871 -0.2336173 0.21111718 -0.079367675 0.07582059 -0.26984498 0.25305766
0.041368265 -0.0797496 -0.20371456 0.19298773 -0.27046958 0.24758457 -0.33109686 0.2959924
0.114571616 -0.11506862 0.15110396 -0.1539687 0.1770297 -0.1814171 0.09926857 -0.10043694
0.14661466 -0.15010907 0.08580042 -0.092281714 -0.07788015 0.07976504 -0.028575582 0.060960356
-0.0053240657 0.04156879 0.033756413 -0.0280662 0.15790163 -0.17149496 0.07954415 -0.087914236
-0.36865264 0.34766877 -0.27107072 0.23983411 -0.18683489 0.075853154 -0.15773709 0.12914643
-0.33947787 0.28828582 -0.29625046 0.25173715 0.14521226 -0.14107259 0.22629607 -0.231598
0.19187278 -0.20275322 0.1631233 -0.1603072 -0.04611936 0.053778484 0.06448052 -0.06153203

layers.0.bias f4 [36]
00000000: 4adc 0bbe d5a9 3bbe 6784 ccbe 802a 57bd
00000010: 6eab aabe 0a22 f9be 509e 27bf 9b5f 34bf
00000020: 8b40 56be c081 92be 2a06 0abd 8533 0cbe
00000030: b8a4 babd 4150 f1bf ea62 5fbe df26 a8bf
00000040: a2cf 13bd 0d24 a9bd c46b 91bf c21e 63be
00000050: b488 aabe 905c 19bf fbd4 7cbf c98c 2abf
00000060: ddb3 263d 71e4 b9be 8ef9 1b3e 2cbb bfbe
00000070: 2624 63bd 5ec1 5ebf 484d f1bd 0a80 c43e
00000080: 87d4 a83d 0c30 e8bd 5456 c5be 1394 92be
-0.13658252 -0.18326505 -0.39944765 -0.052530766 -0.33333915 -0.48658782 -0.6547594 -0.7045838
-0.20923059 -0.28614616 -0.033697285 -0.13691528 -0.09113449 -1.8852617 -0.21815076 -1.3136863
-0.036086686 -0.08258829 -1.1361012 -0.22179702 -0.3330742 -0.59906864 -0.9876248 -0.6662107
0.040698875 -0.363071 0.15231916 -0.37447488 -0.055454396 -0.87013805 -0.11782318 0.38378936
0.082436614 -0.11337289 -0.38542426 -0.28628597

layers.2.weight f4 [64, 36]
00000000: f91e 363d 890e 753d 6da7 5d3d b07e 543d
00000010: 22f1 7abd 38eb 00be 6998 953e 9073 f63c
00000020: e7bc 143c f216 38bd e257 e1bc 5d4e ea3c
00000030: 8614 97bd ad21 613d b31d ab3c 4c01 75bd
00000040: 82ba 2bbd 9dc5 47be 786b 4cbf 7716 bfbb
00000050: bf34 9dbd 602e 23bd 74ca 083d 7a8d 2f3c
00000060: ac2e e13c d47d 1c3d 0051 4f3b 56d5 b63d
00000070: 04fa b23c 4b62 82bc efd7 c83c 9104 cfbe
00000080: 030e a0bd a146 d03d 0477 9b3d c59f 50bd
00000090: 586f 273d 76b8 ffbd df33 06bd 7fb5 263d
000000a0: 1812 553d e912 fa3c d162 c43d a616 e73d
000000b0: f46c 15bd e208 84bd 8787 51bd 9c89 a4bd
000000c0: 26aa 293d b175 0b3e 501e a3be b8bf a5bd
000000d0: 3108 f23c c66c 27be ad04 f13c 4450 39bb
000000e0: e06a 2bbd 2e63 eabd f61b 5c3d 4de4 81bd
000000f0: 8d60 b43c a125 83bd 0478 a63d 93dc 763d
00000100: 13fe 44bd be4e 9fbd 4007 31bc 0911 fc3c
00000110: de14 973e 477e 333d 2db7 9f3d 6331 1e3c
00000120: 4ed9 f93d 0c16 753d 8506 9fbd 29df 1fbe
00000130: 9761 cd3d 10dd 25bc 06bd 11be a4e5 9b3d
00000140: 353d 873d 12bf cbbc fc61 cabd 3e9a 733d
00000150: 6dfa 0bbd f5a4 0fbe e1ea cd3d 30ec 6b3d
00000160: 443d 9fbd 918d 823d 85b4 33be 204b d03d
00000170: 7c8e 42bd 2a77 673b 8623 08be d430 6a3d
00000180: 3dd6 49bc 3f75 913d 98f1 5e3c e90b 03bd
00000190: 0b3b c43d 1c93 90bd 46d7 d8bd f6d9 05bd
000001a0: bb9d 24be 0a03 88bd 0929 cb3d c506 9cbd
000001b0: 3a7b bd3d d327 8c3c 9b61 24be 2883 b3bd
000001c0: 40f5 9cbd b984 efbd 30b4 43bd 9594 8f3d
000001d0: 6379 febd e737 893d f7c5 ebbd 0912 e93c
000001e0: bbbd 62bd 0951 86bd bccd 8e3d 1789 a83d
000001f0: 7eba 043e 08a8 d8bd 3ec0 c4bd 89c3 813d
00000200: 365c cf3d 2aa4 a53d d34e 84bd ab27 acbd
00000210: 7bfb e13c 98ab f4bd aaed 0abe aa4b e33d
00000220: 2f10 17be 37fd d9bc 0332 c9bd 6b95 0cbe
00000230: 6707 f1bd 2505 1bbe 1ac5 15be d50a 1abd
00000240: 278a b33d c326 aebd 8da5 f03d 5149 03be
00000250: 3825 b0bc d53e 21be 5006 97bd 1134 3dba
00000260: 3e25 bf3d 65ea 0d3e 7547 e43d 1830 ea3c
00000270: 15cb 8d3c dcf0 29be 4184 433d d250 08bd
00000280: 9cd4 37bd fa2d 733d 855d 3abc fdc6 01be
00000290: 1949 e5bd 5e85 27be 2503 0e3c b13d 6fbd
000002a0: 438b 2ebd a4f4 73bc ec9d adbd 3d0c 403d
000002b0: 8be8 dabd e9cc f83d 5031 413d 5d0f 3dbd
000002c0: 5b33 12be dc11 e3bd 327c 7ebd 2105 2fbe
000002d0: b844 f13c 9843 f83d b0f3 01be e88e 503d
000002e0: 6217 3fbd 1973 aebd 7259 143e 6142 70be
000002f0: d100 77bd 297a 36be 4d7d d73d 86f7 0dbd
00000300: 1087 e73d 4f71 f93d 8266 7cbd 9de6 7bbd
00000310: 8251 64bd 71f2 ebbd 2a4b 41be 93cf c23d
00000320: 7747 d73d f60b 963d 0cb7 8d3d 46a3 bfbd
00000330: b292 f5bc 7e31 e63c 539e 61be 1adf a0bd
00000340: 7ea1 d03d 18a5 4dbd 5f9e 843d de74 dabd
00000350: 98ec 173e e822 523d 5a15 e93d 1f61 62bd
00000360: 225a 043e 29e5 d2bd 87c0 de3b 83ee 2f3d
00000370: a9c3 f93d 883a 15be dc1e 903d dc7f 0a3d
00000380: 8fb7 923c 88f9 053e fce1 afb7 11a3 1ebe
00000390: 1064 13be 31fb 203e 7194 213d e07c c0bd
000003a0: fcb7 f8bd b499 fdbd 7c5a da3a 96bd 823d
000003b0: c8a0 523b 9b69 803d d8dc 973d 2b60 f3bd
000003c0: 9c4d 35ba 52df 28bd e0dc 1d3d 80d3 0dbe
000003d0: 24e8 04be 4116 a8bd 973a bebd 2ed9 d4bc
000003e0: 57f6 d73e b18f 153c 8dd7 a43d b30f b9bd
000003f0: 0a27 2f3c 4fc8 093e fbd5 f63a 8790 443d
0.04446313 0.059828315 0.054114748 0.05187863 -0.06126512 -0.12589729 0.29217842 0.030084401
0.009078241 -0.044943757 -0.027507726 0.02860182 -0.073769614 0.054963756 0.020888185 -0.05981569
-0.041925915 -0.19508977 -0.79851484 -0.0058315354 -0.07676076 -0.03983915 0.0333962 0.010714883
0.027488075 0.038205937 0.0031633973 0.08927409 0.021847732 -0.01591601 0.024517028 -0.4043317
-0.078151725 0.101697214 0.0759106 -0.050933618 0.04087767 -0.12486355 -0.032764312 0.040700432
0.05201921 0.030526595 0.0958916 0.11283617 -0.03648086 -0.06447007 -0.05115464 -0.080340594
0.04142203 0.13619114 -0.31859064 -0.08093208 0.029544922 -0.16350088 0.029421175 -0.0028276602
-0.04184997 -0.11444698 0.053737603 -0.06342373 0.022018695 -0.064036615 0.0812836 0.06026895
-0.048093867 -0.07778691 -0.010804951 0.030769842 0.29508108 0.0438216 0.0779861 0.009655329
0.12199651 0.05983548 -0.077649154 -0.15612473 0.100283794 -0.010123506 -0.14232263 0.0761216
0.06603471 -0.024871383 -0.0988197 0.05947327 -0.03417437 -0.1402777 0.10054565 0.057598293
-0.07775357 0.06374658 -0.17549331 0.10170579 -0.047499165 0.003531883 -0.13294801 0.057175472
-0.012319145 0.07102441 0.013607405 -0.03199378 0.09581574 -0.07059309 -0.10587935 -0.032678567
-0.16075794 -0.06641205 0.09919936 -0.07618479 0.09252019 0.017108833 -0.16052859 -0.087652504
-0.07663965 -0.11695237 -0.047779262 0.07010762 -0.124254964 0.06700116 -0.11512368 0.028450983
-0.055356722 -0.06558425 0.069728345 0.08229273 0.12961766 -0.105789244 -0.0960698 0.063361235
0.1012501 0.080879524 -0.06460347 -0.084060036 0.027585736 -0.119467914 -0.13567224 0.11098416
-0.14752267 -0.02661 -0.09823992 -0.13728873 -0.1176899 -0.15138681 -0.1462597 -0.037607986
0.08766585 -0.08503487 0.11750326 -0.12820937 -0.021502122 -0.15746625 -0.07374251 -0.00072175363
0.09333275 0.13858946 0.11146442 0.028587386 0.017308751 -0.16595787 0.04773355 -0.0332802
-0.044880494 0.05937002 -0.011374836 -0.12673564 -0.11195583 -0.1635947 0.008667742 -0.058408443
-0.04261328 -0.01488987 -0.08477387 0.04688667 -0.10688885 0.121484585 0.04716617 -0.04615723
-0.14277403 -0.11087391 -0.06213016 -0.170918 0.029451713 0.121222675 -0.12690616 0.050917536
-0.04665316 -0.08518047 0.14487246 -0.23462822 -0.060303513 -0.17820038 0.10521946 -0.034659885
0.11305058 0.12179815 -0.061621197 -0.061499227 -0.055741794 -0.115208514 -0.18876329 0.09512248
0.10511678 0.073265 0.06919679 -0.09357314 -0.029977176 0.028099772 -0.22033052 -0.07855053
0.10187052 -0.050206274 0.064755194 -0.10666822 0.14836347 0.05130282 0.113810256 -0.055268403
0.12925008 -0.10297615 0.0067978534 0.042952072 0.12195522 -0.14573109 0.07037136 0.033813342
0.017909793 0.1308347 -2.0966858e-05 -0.15491892 -0.1439364 0.15720822 0.039448205 -0.09398818
-0.12144467 -0.12382832 0.0016659047 0.06383817 0.003213929 0.06270143 0.074151695 -0.11883577
-0.0006916167 -0.0412286 0.03854072 -0.13850212 -0.1297918 -0.082073696 -0.09288519 -0.025982466
0.4218013 0.009128497 0.080489255 -0.090361975 0.01069046 0.13455318 0.0018832082 0.047989395

layers.2.bias f4 [64]
00000000: 88d9 233d 3568 c7be 85ec eebd 87d4 16be
00000010: 43e1 27be cbf5 1a3d d39a 4abe dff5 97be
00000020: 74fe ffbc d8e4 92bd faae 98bd 4195 c63e
00000030: de00 b1be d22a 4dbe 211e 6cbd 1946 0fbe
00000040: 9952 ddbd 984c 59bd 4107 90be de5c 3fbc
00000050: 7fce 2abd 7821 05be e99e ca3e ff42 ccbd
00000060: a2c3 8ebe c711 b33e 6fae abbe 57c0 afbd
00000070: 09a4 b4be 1dd8 6ebe df56 4fbd ee40 97be
00000080: 76fe 3abe 135e 1bbe a9ff 653e dc0c 5fbe
00000090: 9a74 c1be 77e1 92be 0a21 d9be 5f75 7cbd
000000a0: 45d1 61be fb03 84be 7237 113e 5715 983c
000000b0: e23d 7bbe 2b64 a03d 219f 5cbe c8ef a33d
000000c0: a0ba 27be 5df2 c83e 0811 a4bd f0a4 d6be
000000d0: 776f f9bd 5e76 8cbe 78b1 fc3d a85c 8abc
000000e0: b225 4a3d dff8 3fbe 2c11 41be 2e39 8c3e
000000f0: 4e8b cc3e cee7 a8be d534 da3e 7fdd 66be
0.040002376 -0.3894669 -0.11666206 -0.1472951 -0.16394524 0.037832063 -0.19785623 -0.29679772
-0.031249262 -0.07172555 -0.07455249 0.38785747 -0.34570974 -0.20035866 -0.05764592 -0.13991584
-0.1080677 -0.05305156 -0.28130534 -0.011679856 -0.041700836 -0.13001049 0.39574364 -0.09973716
-0.2788363 0.349745 -0.3353152 -0.08581608 -0.352814 -0.23324628 -0.050619956 -0.29541725
-0.18261132 -0.15172605 0.22460808 -0.21782249 -0.37784272 -0.2868764 -0.4240802 -0.06163537
-0.22052486 -0.25784287 0.14181307 0.018564863 -0.24535325 0.078316055 -0.21545078 0.08004719
-0.16379786 0.39247409 -0.08011061 -0.41922712 -0.12179463 -0.27434057 0.12338537 -0.016889885
0.049352355 -0.1874728 -0.18854207 0.27387375 0.3995003 -0.32989353 0.42618433 -0.22545432

layers.5.weight f4 [36, 64]
00000000: b76f b1b9 653d 6fbb 99b0 e3bc b910 84bc
00000010: 6899 38bd 09c5 33bb 747e 3f3b 8b54 02b9
00000020: 59c7 853b c747 60bd b08c 8e3b 8af4 c0b9
00000030: 1737 3abb 9965 c53c 242c f8ba b19e c83c
00000040: 7d74 c93a 8ee1 73bd d152 4439 477a f43a
00000050: 9454 aaba e788 92bb 8f44 3cbb b3aa 78bb
00000060: ee3f 623a 36f5 b339 6648 8b39 2fbf 8f3d
00000070: 39df f1ba b6d6 a9ba 82b7 0b3c 5e1c e73a
00000080: cc5f 333a dec9 daba 707e a13b e45a 76b8
00000090: f221 383b 3734 923b e295 4dbb 9ec7 21bd
000000a0: 851d a3bc dd89 75bb be6a c13b ea3f da3b
000000b0: b528 7dbd e0c1 9cba 564d 44bd e6e0 2a3b
000000c0: 2200 04bc 575b 07bb 9f81 a0bb 5636 353a
000000d0: 737e 10bc e5dd 243a c6ac 2f3a 3401 253a
000000e0: 42ff a4bb 7f18 f2bb fab1 07bd ae72 4dbb
000000f0: e630 ddba 27a2 a93b 801f 263b 37ff 52bc
00000100: 306b b9bb 1003 4bbc e76f da3b 8aff 50bd
00000110: 649f 693d 51b6 26bc cefb 4abc 5c04 70bc
00000120: 418a f7bb baf7 a13d cf9b ccbc 2e0a c33c
00000130: 72bc 7ebc a70e 2abd 118c 79bc 8887 133d
00000140: e699 60bc 3ee4 b23d a110 4bbc 2eb1 85bc
00000150: 9ed5 00bc 00eb 8bbb 1d2e d23c 9f3e 0cbd
00000160: 95fa a6bc 3685 ea3c d95a 5fbc 7288 16bd
00000170: 8837 72bc 4569 66bc 99e8 1b3d 41cf 4dbc
00000180: 181d 98bc 1944 46bc 34b5 9fb9 874e 5abc
00000190: 7938 84bc 1689 91bc 3248 bebc a62c 37bc
000001a0: 4de9 7a3d 1b7c 40bc 49aa 1ebc 7f17 61bc
000001b0: bf9f 073d 0524 5cbc 70d5 b4bd e464 4bbc
000001c0: ace0 71bd 210e d03c 4c40 9abb 18d2 9ebc
000001d0: f1c8 ad3c edbd 3abc dc09 2cbc 4802 89bc
000001e0: c084 fcbb 0edc 59bc b85d c0bd 55a5 a53c
000001f0: ef5f e53c e064 e9bc f283 a93c 7128 a3bc
00000200: ba90 cbb8 a0a6 12b9 5804 6bbc c2cc 1f3d
00000210: b894 ee3c 3eaf cbb8 8e81 7a37 a07c 33b8
00000220: 34a7 e4b8 b539 343d e5bb b738 8e3a 3bb8
00000230: 0b3f 0239 729c 143c dba4 2fb9 a435 963c
00000240: e9a2 8239 5328 a2bc da2f 8339 1f70 fbb8
00000250: 8628 57b8 4e18 a0b8 fa8f 11b9 5159 dc38
00000260: 624b b5b7 86eb fe36 d3a4 0fb9 6a86 113d
00000270: 012d d7b8 68f1 b4b8 5a03 c3bd 1c2e 23b8
00000280: 8cf9 b3b9 06d3 3bbc f669 2eb8 d4bc 27b7
00000290: 97f8 68b8 2a33 86b8 190a 5038 2fe1 0fbd
000002a0: a529 2f3d 6eb0 c5b8 63cb 58b8 b040 bab7
000002b0: 472f 9a3c 343d 7438 21a2 bdbc 8638 abb8
000002c0: 6099 9abc 0c1a c7b8 1bd2 e8b8 f182 e1b8
000002d0: fd0b 4abd d219 7838 02c6 c6b8 b8ec b4b7
000002e0: 9dfb ec38 0c9b 0639 81c8 a93d e433 cdb7
000002f0: 7ed6 96b6 54b3 82b9 b9ab 1037 aa3b a0bc
00000300: 9a73 32ba 8b4e 58ba dad8 5a3d 170c 9d3c
00000310: 6138 8d3d 4a0d c8b8 1da1 7238 885f adb9
00000320: e8aa 4eba 4999 7d3d 6b9c 8b3a 37c7 2fb9
00000330: 5033 bf39 8ded 52bd 4a44 50ba 0d6d 4abc
00000340: 3281 243a 5e60 893c c86d 943a c0a3 efb9
00000350: 67fb 2339 406c efb9 a5a9 18ba d821 0fb7
00000360: 5c9b 1239 c407 cd38 0a07 26ba ac2b 84bd
00000370: 80d0 1339 b083 e1b9 b0b5 983d ee5d de38
00000380: 0e0b d2ba 8892 e43c 50da 1e38 7cc5 9738
00000390: bc03 26ba 0c4a c2b7 5036 2e39 32cd 283a
000003a0: 5ff5 8b3c fa32 2eba d670 19ba 7e64 0b39
000003b0: 55bd 113d 421a f539 17ef 843c 2c36 10ba
000003c0: 4659 af3c 11bd 0bba 4d43 063a 9766 02ba
000003d0: ab16 cbbc 0af1 cf39 a3e4 04ba ce94 d5b9
000003e0: 2d46 193a beea 7d3a 9454 48bd 91a4 6238
000003f0: e0cf 30b8 8cff 42ba 445b 0438 cc4e 32bd
-0.00033843305 -0.00365051 -0.02779417 -0.016121255 -0.045068175 -0.0027430675 0.002921966 -0.00012429261
0.004082602 -0.054755952 0.0043502674 -0.0003680329 -0.0028414184 0.024096297 -0.0018934053 0.024489732
0.0015369799 -0.059541278 0.00018722868 0.0018652164 -0.0012995177 -0.0044718864 -0.0028727388 -0.0037943542
0.0008630742 0.00034324237 0.00026566087 0.07018887 -0.0018453366 -0.0012957666 0.008527638 0.0017632355
0.0006842583 -0.0016692241 0.0049284026 -5.873562e-05 0.0028096405 0.004461791 -0.0031369855 -0.03949701
-0.019911537 -0.0037466206 0.0059026172 0.006660451 -0.0618064 -0.0011959635 -0.047925316 0.0026073991
-0.008056672 -0.0020653808 -0.0048982645 0.0006912699 -0.00881921 0.00062891684 0.00067014655 0.000629443
-0.005035312 -0.007388174 -0.033128716 -0.0031348872 -0.0016875535 0.005176801 0.0025348365 -0.012878231
-0.0056585297 -0.012390867 0.006666172 -0.05102495 0.057036772 -0.010175304 -0.0123891365 -0.014649477
-0.007554323 0.07908578 -0.02497664 0.023808565 -0.015547859 -0.04151788 -0.015231148 0.036017925
-0.013708567 0.0873494 -0.012394101 -0.016319837 -0.00786343 -0.0042699575 0.025656754 -0.034239408
-0.020383159 0.028627973 -0.0136325 -0.03675122 -0.0147837475 -0.014063184 0.03806362 -0.01256162
-0.01856856 -0.012101197 -0.0003046185 -0.013324386 -0.01614021 -0.017765563 -0.023227785 -0.011180079
0.06125765 -0.011748339 -0.009684154 -0.013738512 0.03311133 -0.013436322 -0.088297725 -0.012414191
-0.059052154 0.025397362 -0.004707372 -0.01938729 0.02121398 -0.011397821 -0.0105003975 -0.01672472
-0.0077062547 -0.013297094 -0.093928754 0.020220438 0.027999846 -0.028490484 0.0206928 -0.019916745
-9.706752e-05 -0.00013985718 -0.014344297 0.03901363 0.029123649 -9.712436e-05 1.49313255e-05 -4.279299e-05
-0.00010903031 0.044000346 8.761118e-05 -4.4638808e-05 0.00012421251 0.009070503 -0.00016750714 0.018336125
0.0002491691 -0.019794619 0.0002502192 -0.00011989497 -5.1297735e-05 -7.6339216e-05 -0.00013881913 0.00010507054
-2.1611984e-05 7.5972084e-06 -0.00013698945 0.035528578 -0.000102603815 -8.628034e-05 -0.09522124 -3.890517e-05
-0.00034327467 -0.011463886 -4.1583517e-05 -9.997941e-06 -5.5544628e-05 -6.399148e-05 4.960047e-05 -0.03512686
0.042764325 -9.4265546e-05 -5.168783e-05 -2.220305e-05 0.018821372 5.8231133e-05 -0.023148598 -8.164444e-05
-0.018871963 -9.493911e-05 -0.00011101757 -0.00010753226 -0.04932784 5.9151855e-05 -9.4782576e-05 -2.1567903e-05
0.000113002236 0.00012836995 0.08290196 -2.4462068e-05 -4.4953185e-06 -0.00024929142 8.623051e-06 -0.0195597
-0.0006807387 -0.000825145 0.053429462 0.019170804 0.06895519 -9.5392184e-05 5.7847345e-05 -0.00033068308
-0.00078837434 0.061913762 0.0010651475 -0.00016763514 0.0003646859 -0.051496077 -0.0007944746 -0.012355101
0.0006275355 0.016769584 0.0011324221 -0.00045707636 0.00015638546 -0.00045666285 -0.0005823619 -8.531344e-06
0.00013981521 9.776608e-05 -0.00063334464 -0.06453642 0.00014096685 -0.0004301346 0.07456529 0.00010603281
-0.0016025023 0.027901903 3.7873455e-05 7.2370254e-05 -0.0006332954 -2.3161083e-05 0.00016614166 0.0006439268
0.017084775 -0.00066451693 -0.00058533007 0.00013293509 0.03558095 0.00046749605 0.016227288 -0.00055012363
0.021404874 -0.0005330602 0.0005121723 -0.00049743935 -0.024791082 0.00039661705 -0.000506947 -0.00040737394
0.0005846944 0.00096861634 -0.048908785 5.4035863e-05 -4.215527e-05 -0.0007438592 3.155625e-05 -0.043532178

layers.5.bias f4 [36]
00000000: f550 413b 15e7 abbd 75f8 9db8 869d b2b9
00000010: 29cc f5bb d7b3 573a 29ca 1cbc 3acd bf3d
00000020: 3365 fdbb e097 143e bd3d 1f3c 3176 71bb
00000030: a025 573c 908c a23d 2062 733c 618c 0a3e
00000040: 8444 72bb 6c84 543e f912 83bb eb76 c13e
00000050: d76a c9bb f018 043f 3eb6 d63b bbfd 513e
00000060: e9e7 f13b 9b61 c03e 9197 163c 1255 033f
00000070: 9eb8 e1ba 1af6 c1bd 45b8 673a 7065 c4bd
00000080: a316 90bb 3d99 aabd 5204 a53b 3b04 adbd
0.0029497717 -0.08393685 -7.532622e-05 -0.0003406817 -0.0075011444 0.00082283973 -0.009569683 0.09365316
-0.007733011 0.1451106 0.009719309 -0.003684413 0.013131529 0.079369664 0.014854938 0.13530113
-0.0036967108 0.2075364 -0.0040000645 0.3778604 -0.0061467695 0.5160055 0.0065524867 0.20506947
0.007382382 0.37574467 0.00919141 0.5130168 -0.0017221158 -0.09470768 0.0008839409 -0.0958966
-0.0043972298 -0.08330009 0.0050359154 -0.084480725

exp_avg f4 [36, 36]
00000000: d2d5 1082 01c6 1f82 bb4c 1c02 bb4c 1c02
00000010: 5eb6 1482 d3fa 1802 e7d4 1282 b077 1c82
00000020: 0074 1782 a6b8 1d82 0a03 1002 737c 1b02
00000030: 4b2c 1b02 aa3a 1782 1771 1102 38a7 1b82
00000040: d2d5 1082 adee 1202 6b7c 1c02 37f8 1002
00000050: 0be2 1b82 b071 1f02 0a03 1002 5229 1602
00000060: 46d6 1f82 f3ce 1f82 4b2c 1b02 1959 1a02
00000070: d2d5 1082 01c6 1f82 6b7c 1c02 3a79 1c82
00000080: 977f 1882 14ff 1682 fd8b 1602 632c 1982
00000090: e83b 1782 3fd0 1582 fd3b 1882 fd3b 1882
000000a0: 5fad 1a82 0466 1802 92f6 1382 a2c5 1a02
000000b0: 92f6 1382 3cb9 1d02 92f6 1302 5d79 1c82
000000c0: 2ae6 1802 8ba5 1682 3126 1c82 3126 1c82
000000d0: 4b51 1d82 008a 1d02 a386 1102 9f33 1a02
000000e0: a386 1102 3789 1002 92f6 1302 ad69 1c02
000000f0: 359e 1102 ba82 1c02 2ae6 1802 7d56 1902
00000100: 6f20 1f02 3fd0 1582 a386 1102 abee 1582
00000110: a386 1182 c0b1 1582 5fad 1a02 3b0d 1682
00000120: 1f60 1c82 b294 1082 896a 1e82 896a 1e82
00000130: 6ef8 1e82 969a 1f02 95dc 1082 8b03 1802
00000140: 95dc 1082 34c7 1902 53f8 1e02 7f9a 1f82
00000150: 83d8 1302 03b0 1782 89f8 1902 65f6 1a82
00000160: 2cff 1a82 2cff 1a82 0a5a 1c82 4106 1502
00000170: 0a5a 1c82 db27 1b02 2cff 1a82 2cff 1a82
00000180: 2cff 1a82 2cff 1a82 95dc 1002 8a41 1a02
00000190: a42d 1082 0d92 1682 0a5a 1c02 664c 1782
000001a0: ef31 1382 25a6 1d82 0a5a 1c02 d27a 1182
000001b0: 5721 0039 0d08 1039 2f97 9f3a 2f97 9f3a
000001c0: 53b5 483a 581d 4d3a 7c9c 023a 0641 ff39
000001d0: 22d0 a139 d2be 8f39 7c21 8838 b611 ca38
000001e0: f22e 04b9 50f4 f9b8 2cb3 d2b8 4ce9 afb8
000001f0: 98bc 8038 38db 2b38 6ec7 f9b9 e7f1 15ba
00000200: 9a9e 6939 9035 ca38 404e 4a37 80da 82b7
00000210: 9a41 0db7 cae6 d0b8 7e96 dd39 55da b939
00000220: 95ff 38b9 9d19 15b9 7242 3f39 a015 5b39
00000230: ea16 b939 8aec bc39 656a 683a 9c8a 703a
00000240: eaae 1802 bc40 1082 7af5 1182 7af5 1182
00000250: 13e7 1502 60dc 1b82 33b0 1102 8df0 1102
00000260: 97e9 1502 f2bb 1902 5c94 1b82 607b 1582
00000270: 8886 1382 4619 1c02 32eb 1582 dfe7 1902
00000280: 403a 1f02 59ba 1f02 f42d 1f02 1e24 1302
00000290: e634 1f02 83cf 1002 7a9e 1382 7a9e 1382
000002a0: 83e0 1582 7abf 1302 f4df 1582 52d6 1002
000002b0: ff39 1f02 0049 1082 0cf6 1c82 c446 1082
000002c0: a634 1f02 eb7a 1482 b438 1f82 a236 1082
000002d0: 8baa 4ebb 247b 4bbb 403c 423a 403c 423a
000002e0: 45ce d8ba 9e51 d5ba 16cc 543a 2637 5a3a
000002f0: adc3 ebba e85a ebba c0bd 6ab7 98b8 3db9
00000300: 0711 933b 7f20 973b 8872 95bb 501a 9bbb
00000310: 049f d5b9 d457 d1b9 dd8e 72bb cec0 72bb
00000320: 6e57 743b 8e3f 8b3b 18d1 c43a 1423 d33a
00000330: 80e0 b63a 5e35 eb3a af29 11bb 9d12 01bb
00000340: 98e7 44bb deac 44bb f3df ae39 129c af39
00000350: a49e 1dbb 77ad 18bb 444f b7ba ef6a bcba
00000360: dabd 2e3a e551 3a3a 3a8e 663b 3a8e 663b
00000370: e844 0eba 3147 04ba 9252 fe3a fc12 fd3a
00000380: 5b9d 43ba 31e9 53ba b463 8bba f953 93ba
00000390: 6bf3 123b 9ae2 153b 10e8 9cb9 f6be abb9
000003a0: fea3 a2ba 4ca8 b5ba bdbf beba 649f d2ba
000003b0: 9c52 e73a 1adf e73a 8c41 253b c2bd 283b
000003c0: 415d 1b3a 2cec 113a 6377 edb9 b42c 00ba
000003d0: 7b94 d4ba 5278 caba 746a bb3a bfd4 bf3a
000003e0: 6e10 2cb9 50d0 0db9 c484 c93a 4778 ce3a
000003f0: 9cd0 133a 084b 133a 2014 b439 2014 b439
-1.0640813e-37 -1.17383e-37 1.148309e-37 1.148309e-37 -1.092566e-37 1.1239179e-37 -1.0787486e-37 -1.1495419e-37
-1.1127018e-37 -1.158753e-37 1.0580321e-37 1.1423317e-37 1.1400313e-37 -1.1110564e-37 1.0685373e-37 -1.1435591e-37
-1.0640813e-37 1.0794883e-37 1.1496776e-37 1.0650683e-37 -1.1452473e-37 1.1714102e-37 1.0580321e-37 1.1032118e-37
-1.1742969e-37 -1.1740867e-37 1.1400313e-37 1.1339703e-37 -1.0640813e-37 -1.17383e-37 1.1496776e-37 -1.149586e-37
-1.1203813e-37 -1.1093463e-37 1.1060434e-37 -1.1253403e-37 -1.111092e-37 -1.1006555e-37 -1.1184412e-37 -1.1184412e-37
-1.1363888e-37 1.1196473e-37 -1.0870617e-37 1.1370851e-37 -1.0870617e-37 1.1587698e-37 1.0870617e-37 -1.14959e-37
1.123325e-37 -1.1067768e-37 -1.147203e-37 -1.147203e-37 -1.1557868e-37 1.1574142e-37 1.0691556e-37 1.1328948e-37
1.0691556e-37 1.0618828e-37 1.0870617e-37 1.1491397e-37 1.0698321e-37 1.1498587e-37 1.123325e-37 1.1265486e-37
1.1690783e-37 -1.1006555e-37 1.0691556e-37 -1.1015285e-37 -1.0691556e-37 -1.0997803e-37 1.1363888e-37 -1.1024056e-37
-1.1488655e-37 -1.0622123e-37 -1.1638581e-37 -1.1638581e-37 -1.1679303e-37 1.1725839e-37 -1.0642753e-37 1.1168213e-37
-1.0642753e-37 1.1297833e-37 1.1679272e-37 -1.1725813e-37 1.086199e-37 -1.1144241e-37 1.1311991e-37 -1.1384845e-37
-1.1387364e-37 -1.1387364e-37 -1.148691e-37 1.0948586e-37 -1.148691e-37 1.139904e-37 -1.1387364e-37 -1.1387364e-37
-1.1387364e-37 -1.1387364e-37 1.0642753e-37 1.1332942e-37 -1.0592547e-37 -1.1062174e-37 1.148691e-37 -1.1115653e-37
-1.0814185e-37 -1.158222e-37 1.148691e-37 -1.0688165e-37 0.00012219451 0.0001373591 0.0012175794 0.0012175794
0.0007656414 0.0007824502 0.00049824244 0.00048685836 0.00030863384 0.00027417258 6.491222e-05 9.6354095e-05
-0.0001260599 -0.00011918752 -0.00010046954 -8.388105e-05 6.138644e-05 4.097374e-05 -0.00047641568 -0.0005719945
0.00022279695 9.6420874e-05 1.2058357e-05 -1.5598955e-05 -8.419529e-06 -9.961201e-05 0.0004226453 0.0003544862
-0.00017642819 -0.00014219289 0.00018239932 0.00020893523 0.00035303022 0.0003603439 0.00088659517 0.0009175928
1.1217394e-37 -1.0598027e-37 -1.0723366e-37 -1.0723366e-37 1.1013106e-37 -1.1450846e-37 1.0703484e-37 1.0721952e-37
1.1013828e-37 1.1294602e-37 -1.1430179e-37 -1.0982198e-37 -1.0838463e-37 1.1468323e-37 -1.1014289e-37 1.1307208e-37
1.1698192e-37 1.1734954e-37 1.1694663e-37 1.081022e-37 1.1696656e-37 1.0639002e-37 -1.0845335e-37 -1.0845335e-37
-1.1011223e-37 1.0854805e-37 -1.1011063e-37 1.0640956e-37 1.1698119e-37 -1.0600399e-37 -1.1531682e-37 -1.0599758e-37
1.1696584e-37 -1.0908598e-37 -1.1697748e-37 -1.0595128e-37 -0.0031534757 -0.003104874 0.00074094906 0.00074094906
-0.0016540965 -0.0016274934 0.00081175694 0.0008324258 -0.0017987393 -0.0017956169 -1.39916665e-05 -0.00018093211
0.004488114 0.004612028 -0.0045607723 -0.0047333613 -0.00040745002 -0.00039929023 -0.0037011423 -0.003704119
0.0037283557 0.0042495197 0.0015015928 0.0016108477 0.0013952404 0.0017944982 -0.002215009 -0.0019694932
-0.0030045267 -0.0030010263 0.0003335472 0.00033494883 -0.0024050856 -0.0023296752 -0.0013985415 -0.001437513
0.00066658633 0.000710754 0.0035179988 0.0035179988 -0.0005427138 -0.0005046009 0.001940327 0.0019308026
-0.00074621075 -0.00080837595 -0.0010634572 -0.0011240236 0.002242292 0.002287066 -0.0002992754 -0.0003275794
-0.0012408493 -0.001385936 -0.0014552992 -0.0016069231 0.0017648521 0.0017690391 0.002521607 0.002574787
0.00059266767 0.00055665034 -0.00045293113 -0.0004889474 -0.0016218567 -0.0015447235 0.0014298693 0.0014635547
-0.00016409319 -0.0001352441 0.001537465 0.0015752398 0.000563869 0.00056187855 0.0003434727 0.0003434727

exp_avg_sq f4 [36, 36]
00000000: ae18 0c18 d53d 1718 1500 0c16 1500 0c16
00000010: 1c89 5918 beb9 4d18 2857 7d17 c848 1d17
00000020: f09c 8519 6a66 8519 3444 8317 682e ed16
00000030: 9733 d719 55f2 ca19 60ef 8318 08a3 b217
00000040: e81a 0917 7cc8 da17 1f85 1517 b023 9418
00000050: ff69 a21b 02f0 a11b 06cb 0918 4b8d 2a18
00000060: 3333 2219 10bb 4919 d2bd f217 943b e318
00000070: 7ebc 4b17 6a36 8017 c29b 1d18 4467 3b18
00000080: b67a 4c17 49cb 6617 8987 d018 e477 d218
00000090: dd66 0320 dcd3 b122 4920 d815 4920 d815
000000a0: 2796 3b23 e470 3f20 e70f c023 57ca 1f23
000000b0: 08ce e923 2458 ed23 8f35 6124 e42e 2e24
000000c0: 9405 2624 a3f1 6323 586a 3228 9054 3228
000000d0: 9e22 a621 3272 1e24 7e4f 0926 647d 2326
000000e0: 96a1 5024 2f1a 9125 841e 2328 5015 2328
000000f0: e2a7 cd24 c871 5825 5d52 1d27 9466 2927
00000100: cd34 9120 8331 e822 01fe 8f23 b3ae c323
00000110: 7ca5 b622 aa94 a922 9179 d623 82ec f423
00000120: 60f5 1d19 9fc7 8b1e 4a39 1020 4a39 1020
00000130: ab87 9f1f fd96 021a c76e 6620 0657 4b1f
00000140: 536c 6020 2138 5a20 7f20 9f1f 6adf 8e19
00000150: b166 9c20 2ac8 001f da93 e920 154c 2f20
00000160: c67e 8b22 590f 9222 c0cf bd20 761f 9221
00000170: a6a5 5e1e 02ca b921 5f18 7c22 d57b 8222
00000180: ca1c 8222 349f 9222 457e 4e24 81db 4e24
00000190: 32ea 1f1a caa0 051f 1712 091e ca5d 071f
000001a0: 51a2 8d1e b935 b71e a36a 051f 5277 931e
000001b0: 24c8 5037 0dfc 5137 d14c 5437 d14c 5437
000001c0: 9f09 4237 8b95 4137 2be9 6437 922a 6337
000001d0: 3617 5e37 9f94 5c37 602f 4f37 3c3a 4f37
000001e0: fbc0 5037 230a 5037 5c68 5337 e032 5237
000001f0: b6a7 5237 f2c9 5037 b9ea 4337 73e3 4037
00000200: 2865 7637 62d4 7137 ce41 4537 8cf1 4237
00000210: a733 2832 e05d 5634 1504 4937 82d8 4437
00000220: e05f 4937 33db 4a37 4312 4637 26bb 4737
00000230: ee8e 4837 bd91 4937 94ee 4c37 953d 4e37
00000240: 1fc0 d316 7a74 d717 80bc 8016 80bc 8016
00000250: 5e2a ad17 b416 5316 2b2f 2218 83cb 2e18
00000260: 832f 2418 88d0 e418 2ad4 721c e2db 711c
00000270: 6b09 9318 2faa 0818 91f0 3a18 9e15 ca18
00000280: cc25 b716 9539 0319 6ba6 781a 323d ad1a
00000290: 1c9b 241b 6d37 531b 8a17 381d d32a 381d
000002a0: 8a71 f817 32fd c819 0541 021c f37e 0b1c
000002b0: badb 5416 baaf c017 21c9 2c16 fb43 e217
000002c0: c85c 7417 910c eb17 b95b 2d17 a233 bd17
000002d0: d303 9039 2319 9139 d247 8639 d247 8639
000002e0: 81b4 8c39 6ebc 8c39 9ef0 a039 59f5 a039
000002f0: ab38 b139 61b9 b039 931c 9239 afe0 9139
00000300: 3e11 a639 4b13 a539 dc8c a239 7c5d a139
00000310: fe25 8e39 edb7 8b39 c54b 9839 8930 9439
00000320: 7fa9 d239 ef1e cd39 5d5a a939 b0bd a639
00000330: 7374 af39 4d7d ab39 a1fd af39 4968 a939
00000340: 3240 8839 d3c4 8939 9a27 8a39 dc96 8b39
00000350: 890c 9139 0459 9239 838a 8d39 78bd 8e39
00000360: a0d7 bc38 afac bd38 1700 bf38 1700 bf38
00000370: 8daa b938 9e87 b938 4f3d d138 27f4 d038
00000380: 3b84 da38 bb6c da38 362f be38 563f be38
00000390: f4ba ca38 1bcc ca38 e2b6 ce38 2769 ce38
000003a0: 993d c038 a85e be38 72c2 d238 abc6 cf38
000003b0: 513d 3439 7bb2 3339 7b70 ec38 312f eb38
000003c0: 78db 0a39 2f33 0a39 76b9 0139 884f 0039
000003d0: 11f8 bb38 65cf bc38 002d b438 342a b538
000003e0: 6e41 b938 c914 ba38 85a7 c938 426a ca38
000003f0: 8a85 b336 7595 b436 64d9 f036 64d9 f036
1.8107036e-24 1.954751e-24 1.1309136e-25 1.1309136e-25 2.8115815e-24 2.6589405e-24 8.1858716e-25 5.08213e-25
1.3815264e-23 1.3793242e-23 8.482893e-25 3.8318702e-25 2.2251316e-23 2.0984188e-23 3.4104413e-24 1.1544135e-24
4.430105e-25 1.4138529e-24 4.831252e-25 3.829314e-24 2.686915e-22 2.6790317e-22 1.7809336e-24 2.204332e-24
8.385543e-24 1.04292334e-23 1.5686801e-24 5.8738283e-24 6.583075e-25 8.285542e-25 2.0370412e-24 2.422132e-24
6.607084e-25 7.457359e-25 5.3903595e-24 5.4404786e-24 1.1130166e-19 4.820026e-18 8.729264e-26 8.729264e-26
1.0169086e-17 1.6215682e-19 2.0823417e-17 8.662254e-18 2.5349168e-17 2.573292e-17 4.8834464e-17 3.7769954e-17
3.6000237e-17 1.2356863e-17 9.9040445e-15 9.8993215e-15 1.1257761e-18 3.4357516e-17 4.7639155e-16 5.672192e-16
4.523968e-17 2.5171233e-16 9.054935e-15 9.052939e-15 8.918898e-17 1.8773564e-16 2.1832776e-15 2.350907e-15
2.4598896e-19 6.293615e-18 1.5611666e-17 2.121593e-17 4.9506412e-18 4.5964946e-18 2.3253412e-17 2.6554698e-17
8.166263e-24 1.4799759e-20 1.221623e-19 1.221623e-19 6.756356e-20 2.7005337e-23 1.9518411e-19 4.3058906e-20
1.900938e-19 1.848389e-19 6.739288e-20 1.4772692e-23 2.6495383e-19 2.7270626e-20 3.9569575e-19 1.484825e-19
3.7810252e-18 3.958963e-18 3.2155323e-19 9.901672e-19 1.17868374e-20 1.2589559e-18 3.416527e-18 3.5367683e-18
3.5267052e-18 3.9741942e-18 4.4776084e-17 4.4855057e-17 3.306961e-23 2.8296847e-20 7.2564605e-21 2.8664942e-20
1.4996088e-20 1.9398098e-20 2.8252053e-20 1.561358e-20 1.2444365e-05 1.2516056e-05 1.265407e-05 1.265407e-05
1.1565541e-05 1.1538515e-05 1.3644148e-05 1.3540166e-05 1.3237635e-05 1.3147625e-05 1.2349192e-05 1.235172e-05
1.2442698e-05 1.2400126e-05 1.2600878e-05 1.2528821e-05 1.2556024e-05 1.2444785e-05 1.1677556e-05 1.1497049e-05
1.4686295e-05 1.4414169e-05 1.1757436e-05 1.1619541e-05 9.790631e-09 1.9964455e-07 1.1981484e-05 1.173292e-05
1.2002856e-05 1.20911745e-05 1.1805972e-05 1.1904898e-05 1.1954207e-05 1.2014466e-05 1.2214896e-05 1.2292895e-05
3.4210134e-25 1.3923452e-24 2.0798476e-25 2.0798476e-25 1.1190558e-24 1.7051608e-25 2.0961823e-24 2.259172e-24
2.122049e-24 5.914718e-24 8.03453e-22 8.0024403e-22 3.800812e-24 1.7663509e-24 2.4161392e-24 5.2237604e-24
2.9589098e-25 6.78417e-24 5.141963e-23 7.164999e-23 1.361588e-22 1.747142e-22 2.4364367e-21 2.4374337e-21
1.6055286e-24 2.078178e-23 4.309743e-22 4.615532e-22 1.7194557e-25 1.2452069e-24 1.3957514e-25 1.4622068e-24
7.895776e-25 1.5189691e-24 5.6015085e-25 1.2226873e-24 0.0002746867 0.00027675283 0.00025611982 0.00025611982
0.00026837367 0.00026843272 0.00030696852 0.00030700376 0.00033802292 0.00033707454 0.0002786858 0.00027823957
0.00031674834 0.00031485627 0.00031003996 0.00030777964 0.00027112657 0.0002664918 0.00029048152 0.0002826492
0.00040180606 0.00039123694 0.00032301518 0.00031803316 0.00033465363 0.00032709018 0.0003356757 0.0003231189
0.0002598777 0.00026277322 0.00026350917 0.00026624545 0.00027665895 0.00027913612 0.00026996815 0.00027225516
9.004702e-05 9.044387e-05 9.1076065e-05 9.1076065e-05 8.853255e-05 8.846748e-05 9.977316e-05 9.96369e-05
0.0001041968 0.00010415303 9.0687e-05 9.071703e-05 9.666933e-05 9.670128e-05 9.85691e-05 9.8424316e-05
9.166747e-05 9.077537e-05 0.000100497986 9.907534e-05 0.0001718898 0.0001713726 0.00011274308 0.00011214463
0.00013242464 0.00013179773 0.00012371488 0.00012236659 8.963061e-05 9.003169e-05 8.591451e-05 8.6386135e-05
8.833675e-05 8.873043e-05 9.61563e-05 9.651903e-05 5.3501617e-06 5.381817e-06 7.177865e-06 7.177865e-06

exp_avg f4 [36]
00000000: 2b9b 1302 6590 1e02 d864 1d02 08bf c0b8
00000010: f1e6 1502 31d4 cb39 38d3 93b8 1b80 82b8
00000020: 92ee 1902 8df0 1402 934c 1102 4db3 1502
00000030: 56e9 1702 26f0 c838 197f 12b7 8f5d 9fb8
00000040: e454 1c02 9cb7 84b7 666f 6737 5e2f 1202
00000050: 1bd9 1b02 8daf 7537 d21c e837 40b6 b635
00000060: bd54 9d37 46b3 1402 01c7 2339 ebeb 1f02
00000070: c669 1702 ea7b 0336 1301 1302 c55e 0d39
00000080: 680a e3b9 bfef a539 5658 1102 0feb 1502
1.0844385e-37 1.1649446e-37 1.1563479e-37 -9.190856e-05 1.1013068e-37 0.00038877272 -7.048849e-05 -6.2227446e-05
1.1309131e-37 1.0942357e-37 1.0674893e-37 1.0998248e-37 1.1160692e-37 9.581474e-05 -8.73187e-06 -7.5991375e-05
1.1485432e-37 -1.5821126e-05 1.379461e-05 1.073998e-37 1.1449908e-37 1.4644012e-05 2.7669976e-05 1.3613098e-06
1.8755318e-05 1.0924772e-37 0.00015619026 1.174918e-37 1.1124083e-37 1.9592649e-06 1.0800163e-37 0.00013482112
-0.00043304567 0.00031649877 1.0678269e-37 1.101425e-37

exp_avg_sq f4 [36]
00000000: cefa 7418 f760 3f25 1b63 1021 8e1a db34
00000010: 65a3 131a 95cc 0637 6f10 2036 ae90 3a34
00000020: 6d13 e015 2a4a 7325 3ce7 9b1b ffe8 1815
00000030: 5791 3618 68cf c734 6d93 8e31 ace2 1233
00000040: 53b3 ba16 a1ee 1d36 cb1d 8d34 6bc0 3f15
00000050: 112f c41a 9c99 5430 af52 2934 fb70 8532
00000060: 3f13 ca32 a28a 6d21 9706 b234 67fe a52b
00000070: 95ca 6f1b 258f ec32 a34b 4d17 79f2 9534
00000080: 7ac9 4837 89c0 8e35 992d 0618 ef87 d919
3.1662885e-24 1.6599462e-16 4.8920263e-19 4.081125e-07 3.0530877e-23 8.034655e-06 2.3851424e-06 1.7375234e-07
9.050353e-26 2.1102018e-16 2.579203e-22 3.0879957e-26 2.3596327e-24 3.7217546e-07 4.1495043e-09 3.419943e-08
3.016309e-25 2.3533723e-06 2.6284974e-07 3.8723934e-26 8.113974e-23 7.734344e-10 1.5769432e-07 1.5534615e-08
2.3524647e-08 8.04822e-19 3.3159878e-07 1.1794566e-12 1.9835074e-22 2.753911e-08 6.633454e-25 2.7929835e-07
1.1967839e-05 1.063586e-06 1.7342115e-24 2.2492177e-23

exp_avg f4 [64, 36]
00000000: a513 1b82 492c 1c02 a5b7 1702 5d3b 73b8
00000010: 3468 1482 c62e 88b8 9204 96b8 8da6 3038
00000020: 1858 1202 6c1c 1202 5006 1502 ddd6 1502
00000030: 3589 1a02 5a7e 0037 aafc 4eb6 e04e cbb7
00000040: 5945 1582 0dae b036 f45b 5734 3e88 1e82
00000050: 2708 1202 18a7 ed1e 8c0d d1b8 488c 7437
00000060: cb66 13b9 270f 1502 c81d 34b8 efb0 1382
00000070: 62c6 1682 95b5 0cb8 8432 1402 4522 47b7
00000080: 32a2 aab8 98b3 c6b9 65f1 1402 10a6 1f82
00000090: bb08 1d02 7dc7 1e82 604e 1202 e368 06b9
000000a0: ffbf 1482 4be5 8e38 d77a 96b7 d7ea 66b8
000000b0: 2287 1e02 fe74 1f02 79b7 1002 2f61 1482
000000c0: 368e 1f82 8b6b d936 0189 7eb1 3203 3fb8
000000d0: 922d 1c82 ec3d 2837 9c9d 4a39 3b74 1e02
000000e0: 3791 1d02 28c4 3db7 a8ce 2137 d415 a537
000000f0: ba6d 5fb7 1ff4 1302 8ac3 4939 db71 1002
00000100: bc33 1082 7aa7 4cb5 eecf 1582 d824 2eb9
00000110: 7cbc a238 2f07 9439 2d44 1d02 d02f 1202
00000120: 7e89 1282 78a1 1402 8e14 1102 dd7c 1002
00000130: 6898 1382 4959 1e02 48eb 1d82 08db 1802
00000140: d252 1a02 b16e 1882 7ec7 1402 26ea 1c02
00000150: a047 1402 30c5 1402 bf72 1102 389e 1302
00000160: f7df 1a82 45b2 1002 024e 1002 9008 1582
00000170: ebe5 1502 cec5 1402 5b3e 1c82 1ba1 1382
00000180: 8100 1902 2c4a 1c02 7908 1f02 b5c7 1e02
00000190: aa90 1682 7d8d 1082 19ac 1082 a456 1302
000001a0: 7e26 1202 d8f6 1d02 a983 1e82 866c 1e02
000001b0: bb9f 1802 8f38 1d02 3a57 1c82 d761 1702
000001c0: a930 1a02 c8b0 1102 eb4c 1902 ed83 1d02
000001d0: ae29 1482 464b 1782 d802 1602 d4d8 1e82
000001e0: 1568 1502 c764 1a02 3306 1a82 93bc 1702
000001f0: 02a7 1482 21f4 1f02 94f8 1782 1879 1a02
00000200: b7ba 1402 5154 1602 b0fc 1502 7521 1f02
00000210: 6800 1802 5eb4 1402 9afa 1e82 0990 1182
00000220: 57a1 1902 f9c4 1482 72cd 1202 2113 1302
00000230: 0565 1c02 6215 1a02 c47b 1082 3b31 1d82
00000240: cfdf 1f02 f6c4 1002 69f0 1102 2768 1202
00000250: f06b 1d82 672c 1202 e61c 1202 dfdf 1c02
00000260: 3724 1402 4391 1b82 57fb 1402 ac39 1182
00000270: c811 1a82 2726 1802 e0aa 1e82 95bc 1102
00000280: e207 1802 cc35 1802 9a55 1b02 59f6 1582
00000290: d8c7 1182 160a 1f02 6ab4 1682 ad13 1d02
000002a0: a6ed 1682 eb1a 1302 971a 1502 ba44 1602
000002b0: d626 1a02 019a 1202 de7c 1802 597c 1002
000002c0: ddf8 1d02 e0aa 1e02 847f 1202 dae3 1302
000002d0: 72b5 1702 1af7 1f02 e229 1482 c40e 40b9
000002e0: aebc 1002 6c7a 1a39 aedd 04b8 e5dc bfb6
000002f0: 023e 1502 9e9e 1f02 144c 1902 5d9e 1102
00000300: 319a 1d02 8374 1fb7 2741 1db7 8b7c d7b7
00000310: 05f5 1882 fd96 6537 fc1b 7235 bf29 1302
00000320: f810 1682 296e 2bb7 03d4 68b8 63ed 6338
00000330: 6ed4 5838 e135 1e82 e892 20b8 e643 1e02
00000340: 92cd 1d02 53b8 e9b7 2806 1902 6049 4bb7
00000350: 6cb6 79b8 842c 33b8 5161 1602 58bd 1002
00000360: 6fd2 1002 b3c9 1502 024e 1082 c823 7338
00000370: 5e1d 1c82 4a18 cd38 8d31 8038 a42f 95b8
00000380: 7403 1102 4482 1682 545e 1882 86e7 1702
00000390: bba3 1502 ff79 8237 1031 cbb1 dc3e b2b7
000003a0: 3e4d 1c02 b090 1e35 6101 7b38 9c9c 1502
000003b0: 2ecf 1402 aff6 3bb3 79a9 4538 dc65 4e37
000003c0: aef7 a138 a34a 1202 af42 0eb8 ef5f 1402
000003d0: 11f2 1c82 1c4c 5838 a6cf 1402 5128 bc38
000003e0: 1bca da38 ca0a 9e39 cecc 1002 bb8d 1102
000003f0: 0111 1382 40c6 1c02 2ea6 1b82 6711 1eba
-1.1393239e-37 1.1473779e-37 1.1146431e-37 -5.7991e-05 -1.0903228e-37 -6.4936976e-05 -7.153409e-05 4.2116782e-05
1.0751668e-37 1.0734543e-37 1.0948603e-37 1.1008454e-37 1.135351e-37 7.658813e-06 -3.0843462e-06 -2.4236215e-05
-1.0966693e-37 5.265471e-06 2.0056888e-07 -1.1647106e-37 1.0728726e-37 2.516246e-20 -9.96842e-05 1.4576195e-05
-0.00014057306 1.095114e-37 -4.294308e-05 -1.0850632e-37 -1.1077193e-37 -3.3547713e-05 1.088782e-37 -1.1869303e-05
-8.136443e-05 -0.0003789931 1.09426e-37 -1.1729133e-37 1.1537044e-37 -1.1665257e-37 1.0748878e-37 -0.00012818309
-1.0928423e-37 6.813797e-05 -1.7938595e-05 -5.5054985e-05 1.1646788e-37 1.171505e-37 1.0632103e-37 -1.0901213e-37
-1.1722288e-37 6.4796236e-06 -3.7039742e-09 -4.5540924e-05 -1.1474148e-37 1.0027998e-05 0.00019322935 1.1641363e-37
1.1576213e-37 -1.1310949e-05 9.644464e-06 1.9679697e-05 -1.33173835e-05 1.0869914e-37 0.00019241698 1.0612124e-37
-1.0594296e-37 -7.623963e-07 -1.1006464e-37 -0.00016607658 7.75987e-05 0.00028234112 1.1554104e-37 1.0740107e-37
-1.0765844e-37 1.0919662e-37 1.0658816e-37 1.0615283e-37 -1.0843593e-37 1.163363e-37 -1.1602061e-37 1.1230055e-37
1.1337901e-37 -1.1198963e-37 1.0930574e-37 1.1528267e-37 1.0893878e-37 1.0929913e-37 1.0685848e-37 1.0845261e-37
-1.1378408e-37 1.063061e-37 1.0601836e-37 -1.0949248e-37 1.1012774e-37 1.093009e-37 -1.1478965e-37 -1.0846089e-37
1.1240809e-37 1.1482356e-37 1.1683907e-37 1.166532e-37 -1.1061776e-37 -1.0620054e-37 -1.0628839e-37 1.0824719e-37
1.0737433e-37 1.1605379e-37 -1.1645791e-37 1.1639151e-37 1.1213037e-37 1.155077e-37 -1.1486103e-37 1.1121807e-37
1.1328098e-37 1.0703651e-37 1.1262739e-37 1.1572399e-37 -1.0885284e-37 -1.111533e-37 1.1021076e-37 -1.1670233e-37
1.0976661e-37 1.1343055e-37 -1.1315912e-37 1.1147846e-37 -1.0921252e-37 1.1751537e-37 -1.1165066e-37 1.1348885e-37
1.0926907e-37 1.1044457e-37 1.1019309e-37 1.1691077e-37 1.1167313e-37 1.0925086e-37 -1.1679926e-37 -1.0694254e-37
1.1286967e-37 -1.0929851e-37 1.0785346e-37 1.0805344e-37 1.1490061e-37 1.132027e-37 -1.0614968e-37 -1.1548667e-37
1.1745705e-37 1.0635974e-37 1.0721912e-37 1.0756276e-37 -1.1565515e-37 1.0739129e-37 1.0734679e-37 1.1525318e-37
1.0883716e-37 -1.142929e-37 1.0945454e-37 -1.0669469e-37 -1.1319236e-37 1.1178146e-37 -1.1657045e-37 1.0707038e-37
1.1169459e-37 1.1182635e-37 1.1412168e-37 -1.101749e-37 -1.071027e-37 1.168437e-37 -1.1072036e-37 1.1540185e-37
-1.1088461e-37 1.0807579e-37 1.0954422e-37 1.1039983e-37 1.1325278e-37 1.0770583e-37 1.1203031e-37 1.0615135e-37
1.1605959e-37 1.1657045e-37 1.0762981e-37 1.0865245e-37 1.11458e-37 1.175239e-37 -1.0885343e-37 -0.00018316047
1.0633598e-37 0.0001473219 -3.1677708e-05 -5.717959e-06 1.0964587e-37 1.1726996e-37 1.1262498e-37 1.0698366e-37
1.1578789e-37 -9.504266e-06 -9.373099e-06 -2.5687992e-05 -1.1237513e-37 1.3684618e-05 9.019275e-07 1.0811835e-37
-1.1025129e-37 -1.0218043e-05 -5.551056e-05 5.43421e-05 5.1696254e-05 -1.1623469e-37 -3.828379e-05 1.1627493e-37
1.1593534e-37 -2.7861597e-05 1.1242431e-37 -1.2116827e-05 -5.953612e-05 -4.2718384e-05 1.1048188e-37 1.0633788e-37
1.0639841e-37 1.1004676e-37 -1.0601836e-37 5.796904e-05 -1.1469498e-37 9.779686e-05 6.112745e-05 -7.1137474e-05
1.0653909e-37 -1.1057644e-37 -1.1194267e-37 1.1160172e-37 1.099378e-37 1.5554016e-05 -5.9136553e-09 -2.1248525e-05
1.1483237e-37 5.9070135e-07 5.9844348e-05 1.0991736e-37 1.093278e-37 -4.3763688e-08 4.7126294e-05 1.2302273e-05
7.723212e-05 1.0747806e-37 -3.3917542e-05 1.0900854e-37 -1.153054e-37 5.1569295e-05 1.0932915e-37 8.972048e-05
0.00010432695 0.00030144147 1.0638225e-37 1.0693592e-37 -1.0804734e-37 1.1517965e-37 -1.1435293e-37 -0.0006029815
