models/v8-epoch=2-val_loss=0.003332.ckpt (torch, 84854 bytes, 18 tensors)

layers.0.weight f4 [36, 36]
0.020643648 0.068371475 0.13088813 0.1349243 -0.052638005 0.10935773 0.18375906 -0.044890508
0.12992947 -0.016860519 0.11370203 -0.003993218 0.005307583 0.037527278 0.12610899 -0.07215646
-0.036684815 0.06756795 0.06236838 0.011561059 0.004743132 0.07198591 -0.03729064 0.1209111
0.14258595 -0.083599105 -0.045700397 0.11803827 0.17766896 -0.06367705 -0.010281292 0.14546186
-0.007011417 0.090148844 -0.03291386 0.070255525 -0.09426282 0.19106878 0.12821582 0.008623335
0.0003852112 0.15312348 0.05557742 0.022098523 0.060763936 0.16006492 0.12582363 -0.05188605
0.026874756 0.03478915 -0.012531673 0.0010475885 0.062794074 0.01033216 0.05327062 -0.051289633
0.04491478 -0.010840645 -0.08619806 0.09574445 0.11527437 -0.03634494 0.064703606 -0.047425143
-0.060035124 0.20520432 0.11913288 0.054519612 0.002778422 0.10229124 0.03711129 0.10422096
0.056625564 0.23053782 0.1029169 -0.06525865 0.09873648 0.021137677 -0.059983835 0.13396546
-0.012051682 0.12822832 0.17051788 0.11060058 -0.032603253 0.09409923 0.084503196 -0.06878517
0.024967656 0.040002007 -0.067789346 0.09909848 -0.018753655 0.0069635827 0.122215144 -0.0857879
0.020843588 0.028529018 0.07240176 -0.02632945 -0.061914813 0.3558573 -0.07146056 0.27436265
0.042773858 0.21107778 0.012842274 0.124344625 0.0661938 -0.06311044 0.03761388 -0.03565873
-0.06599603 0.05321791 -0.14637667 0.15362805 -0.53254515 0.54733884 0.09429441 -0.09431176
0.078470945 -0.08605692 -0.018712092 0.01685068 -0.14197703 0.13394177 -0.12359717 0.1258643
0.052021086 -0.047900118 -0.008574553 0.00990053 4.2483554 2.5708294 -0.040629074 0.062859766
-0.031933118 0.02536116 0.00662993 -0.0065996572 0.055853505 -0.057538286 -0.0058028856 0.009449075
0.038745612 0.054249737 0.096026786 -0.016443195 0.03918385 0.043189704 -0.012432653 0.061824173
-0.045801073 0.088662796 0.079573385 0.0017350903 0.10248635 -0.06177595 -0.041552216 0.11015157
0.14386505 -0.119281426 0.03047414 0.020555189 0.034891132 -0.0102758985 0.07593942 -0.06581848
0.024349034 0.09869131 -0.032409407 0.08343335 0.053702213 0.122272216 0.05529044 0.09135709
-0.032349914 0.108933195 0.034959316 0.06828724 0.15672517 -0.15885866 0.10411727 -0.098563485
0.23633198 -0.24086793 0.12014769 -0.16547179 0.071766526 -0.13263054 -0.1432273 0.13907072
-0.36821306 0.3476829 -0.2554521 0.2417159 -0.092949755 0.09161126 -0.28007975 0.26358798
0.043716755 -0.086583465 -0.22638945 0.21283306 -0.30306393 0.2772018 -0.34063148 0.30325168
0.1295837 -0.13758391 0.16222285 -0.15973063 0.20095283 -0.20768437 0.09552557 -0.099830545
0.1645109 -0.16724889 0.08643124 -0.08915841 -0.08513481 0.077814445 -0.014927794 0.049765825
0.01468866 0.021512456 0.036718957 -0.028531032 0.16804032 -0.17343445 0.09801264 -0.10301611
-0.39664763 0.38507462 -0.3099021 0.2863483 -0.17657068 0.10259116 -0.16849017 0.14239413
-0.36550695 0.30106074 -0.31513023 0.2526524 0.16212213 -0.1624536 0.24427634 -0.2515358
0.2012416 -0.21414685 0.17589355 -0.18714237 -0.045765214 0.04868278 0.060889095 -0.06334368
00000000: de1c a93c 5806 8c3d 8a07 063e 9829 0a3e
00000010: f39a 57bd f2f6 df3d 562b 3c3e 1cdf 37bd
00000020: 3b0c 053e 121f 8abc 9cdc e83d 8ad9 82bb
00000030: 3ceb ad3b 34b6 193d b722 013e c4c6 93bd
00000040: d142 16bd 1161 8a3d fd75 7f3d 996a 3d3c
00000050: 466c 9b3b 596d 933d 12be 18bd 3da0 f73d
00000060: 0d02 123e 0236 abbd 5730 3bbd 0cbe f13d
00000070: daee 353e 1d69 82bd dd72 28bc f4f3 143e
00000080: 07c0 e5bb f59f b83d afd0 06bd 21e2 8f3d
00000090: de0c c1bd 89a7 433e 024b 033e e348 0d3c
000000a0: 2cf6 c939 67cc 1c3e 26a5 633d f607 b53c
000000b0: 9be3 783d 0fe8 233e e9d7 003e 7786 54bd
000000c0: 7328 dc3c 117f 0e3d a551 4dbc 3d4f 893a
000000d0: 2e9a 803d 3848 293c 4b32 5a3d 1415 52bd
000000e0: 8ff8 373d f69c 31bc 9c88 b0bd ab15 c43d
000000f0: f814 ec3d 6fde 14bd 5383 843d de40 42bd
00000100: 64e7 75bd 1521 523e f0fb f33d f54f 5f3d
00000110: 3016 363b 127e d13d 0202 183d cc71 d53d
00000120: 35f0 673d 1b12 6c3e 18c6 d23d 54a6 85bd
00000130: 5a36 ca3d ec28 ad3c 9cb1 75bd 3e2e 093e
00000140: 6b74 45bc 494e 033e 3d9c 2e3e 8f82 e23d
00000150: fd8a 05bd 19b7 c03d 0310 ad3d 3ddf 8cbd
00000160: f888 cc3c 25d9 233d 24d5 8abd 25f4 ca3d
00000170: 44a1 99bc c42e e43b ef4b fa3d 91b1 afbd
00000180: 2cc0 aa3c b0b5 e93c 6047 943d dcb0 d7bc
00000190: 639a 7dbd ee32 b63e ea59 92bd 4379 8c3e
000001a0: a433 2f3d c624 583e 6768 523c 65a8 fe3d
000001b0: 9d90 873d 0c40 81bd 0311 1a3d e30e 12bd
000001c0: ed28 87bd 06fb 593d c4e3 15be ac50 1d3e
000001d0: e154 08bf 661e 0c3f 6d1d c13d 8626 c1bd
000001e0: 60b5 a03d 9c3e b0bd 1a4a 99bc 700a 8a3c
000001f0: 6d62 11be 0828 093e 8320 fdbd 92e2 003e
00000200: 1014 553d ea32 44bd 487c 0cbc d535 223c
00000210: 87f2 8740 7888 2440 ac6a 26bd 9fbc 803d
00000220: 4dcc 02bd 35c2 cf3c e23f d93b f041 d8bb
00000230: a5c6 643d 44ad 6bbd 2226 bebb 4bd0 1a3c
00000240: b8b3 1e3d f934 5e3d b1a9 c43d e1b3 86bc
00000250: 3f7f 203d b0e7 303d 54b2 4bbc 583b 7d3d
00000260: e899 3bbd d794 b53d 5ff7 a23d f86b e33a
00000270: 5de4 d13d c708 7dbd a832 2abd 2597 e13d
00000280: 5c51 133e d249 f4bd e7a4 f93c 5b63 a83c
00000290: 01ea 0e3d 3e5c 28bc 2086 9b3d d7cb 86bd
000002a0: a077 c73c ab1e ca3d babf 04bd 1bdf aa3d
000002b0: daf6 5b3d db69 fa3d 3a78 623d 6d19 bb3d
000002c0: 5881 04bd 5e18 df3d 8031 0f3d 2eda 8b3d
000002d0: 907c 203e d8ab 22be 6f3b d53d a7db c9bd
000002e0: 0301 723e 15a6 76be fe0f f63d 7071 29be
000002f0: 54fa 923d 4dd0 07be 2daa 12be 8e68 0e3e
00000300: 6c86 bcbe 7e03 b23e 9eca 82be 5f84 773e
00000310: 715c bebd af9e bb3d 9d66 8fbe 01f5 863e
00000320: 5710 333d ac52 b1bd a3d2 67be e9f0 593e
00000330: 322b 9bbe 65ed 8d3e 4067 aebe ce43 9b3e
00000340: 97b1 043e cce2 0cbe bf1d 263e 6d90 23be
00000350: 94c6 4d3e 36ab 54be e9a2 c33d f573 ccbd
00000360: 8c75 283e 4b43 2bbe dd02 b13d af98 b6bd
00000370: 295b aebd 2e5d 9f3d b593 74bc 40d7 4b3d
00000380: b5a8 703c e43a b03c 9e66 163d e9b9 e9bc
00000390: c312 2c3e cd98 31be daba c83d 1cfa d2bd
000003a0: 6615 cbbe 8028 c53e 7dab 9ebe 3f9c 923e
000003b0: f2ce 34be 501b d23d b088 2cbe c4cf 113e
000003c0: ba23 bbbe a224 9a3e c058 a1be a85b 813e
000003d0: 5803 263e 3d5a 26be 9423 7a3e 4dc9 80be
000003e0: 4712 4e3e 5049 5bbe 701d 343e 40a2 3fbe
000003f0: 4e74 3bbd 9867 473d d866 793d 55ba 81bd

layers.0.bias f4 [36]
-0.1347157 -0.18077596 -0.39388397 -0.023002341 -0.32877582 -0.48592556 -0.83485526 -0.78374445
-0.20632665 -0.28199768 -0.03323058 -0.13504846 -0.08988994 -2.2833188 -0.23721026 -1.5600209
-0.035568126 0.128574 -1.3629413 -0.21868566 -0.32851088 -0.64928615 -0.8980873 -0.6833217
-1.0241296 -0.3580928 0.23704621 -0.36908185 -0.054676555 -1.0023346 -0.11616379 0.6056758
0.1471459 -0.14496244 -0.38003123 -0.28213748
00000000: eaf2 09be 551d 39be 29ab c9be 686f bcbc
00000010: 4e55 a8be 3ccb f8be 13b9 55bf 7aa3 48bf
00000020: 4b47 53be 0062 90be ca1c 08bd 254a 0abe
00000030: 3818 b8bd e521 12c0 3fe7 72be c4ae c7bf
00000040: e2af 11bd e7a8 033e dc74 aebf 22ef 5fbe
00000050: 9432 a8be 9e37 26bf 0de9 65bf 2cee 2ebf
00000060: ae16 83bf f157 b7be 3ebc 723e 4cf8 bcbe
00000070: 86f4 5fbd 804c 80bf 48e7 edbd 920d 1b3f
00000080: 6aad 163e 0971 14be 7493 c2be 5374 90be

layers.2.weight f4 [64, 36]
0.04384086 0.05899862 0.053336907 0.056481443 -0.060399927 -0.10581032 0.29217517 0.013082208
0.008948601 -0.044321485 -0.027118806 0.028206075 -0.07273249 0.09448546 -0.0151157 -0.032087572
-0.041355498 -0.22338185 -0.8588528 -0.0057472694 -0.07572364 -0.032952785 0.02928573 -0.026192484
0.027508635 0.037687376 0.017490467 0.08802955 0.021536596 -0.06530706 0.024179963 -0.38661996
-0.07600869 0.030881833 0.07487348 -0.050207634 0.040307254 -0.123100445 -0.032297608 0.022989048
0.051293224 0.008751571 0.09212368 0.08344391 -0.0359623 -0.06353666 -0.050428655 -0.07919976
0.040851615 0.16253047 -0.3650078 -0.057056338 0.029130073 -0.1764745 0.063667506 -0.0027887681
-0.041279554 -0.09313567 0.06126617 -0.076578036 0.019441478 -0.06310321 0.08555544 0.059439253
-0.047419738 -0.064778335 -0.010649383 0.03132157 0.30799598 0.017321363 0.07687805 0.009525271
0.12029752 0.059005782 -0.07657173 -0.15389475 0.098862745 -0.009980902 -0.14024839 0.07508448
0.0651013 -0.024530374 -0.097471446 0.058643572 -0.033707667 -0.13835369 0.099105895 0.056782138
-0.07666666 0.06281317 -0.17300422 0.10025382 -0.046825036 0.003483268 -0.1310812 0.056385744
-0.012150613 0.06998729 0.013412945 -0.031527076 0.09446748 -0.06958566 -0.10442738 -0.032211863
-0.15847628 -0.06547864 0.097851105 -0.075147666 0.09122884 0.016875481 -0.15824692 -0.08640796
-0.07560253 -0.115292974 -0.047105134 0.069148734 -0.12249186 0.06606775 -0.11349593 0.028062062
-0.05457888 -0.06465084 0.068794936 0.081151895 0.12775084 -0.104337275 -0.09472154 0.06243184
0.09979813 0.07973869 -0.06367006 -0.0829192 0.027196815 -0.11780852 -0.13380542 0.10942848
-0.14544843 -0.026247008 -0.096891664 -0.13542192 -0.11603051 -0.14931257 -0.14418545 -0.037089426
0.0864213 -0.08385436 0.11584387 -0.12634255 -0.021190986 -0.15518458 -0.07270539 -0.0007117465
0.091984496 0.13672264 0.10990874 0.028192544 0.017075399 -0.1636762 0.04705942 -0.032813497
-0.044258222 0.058540322 -0.011219268 -0.12487612 -0.11040015 -0.16131303 0.008551066 -0.057578746
-0.04201504 -0.014682446 -0.08361511 0.046212543 -0.1054188 0.119815715 0.04649204 -0.045519467
-0.14069979 -0.10931823 -0.061248608 -0.1684863 0.029036865 0.11956328 -0.12503934 0.042297732
-0.04597903 -0.06853221 0.14288259 -0.21045129 -0.059473816 -0.17571129 0.10376749 -0.03419318
0.1114949 0.14142738 -0.056484956 -0.014180168 -0.054963954 -0.2673733 -0.063822344 0.09377422
0.10366481 0.108943254 0.06329617 -0.070690416 -0.06925638 0.027710851 -0.2258976 -0.0774097
0.10041855 -0.10422264 0.063821785 -0.06365342 0.23198551 0.031393863 0.112254575 -0.054490563
0.12738326 -0.10152418 0.0067006233 0.02824047 0.12025867 -0.14127368 0.062121086 0.09989349
0.017650513 0.12896788 -2.0663014e-05 -0.15279856 -0.14186215 0.13946207 0.006724888 -0.103159726
-0.11977815 -0.16333944 -0.023473995 0.06290476 0.003168555 -0.037038773 0.066150755 -0.15404658
0.01750878 -0.040658183 0.10018577 -0.1366353 -0.12792498 -0.083617575 -0.09156576 -0.04556235
0.42534763 -0.009655731 0.07934842 -0.08911743 0.010537805 0.13268636 0.0018572801 0.032885358
00000000: 7992 333d 89a8 713d cd77 5a3d 1659 673d
00000010: ea65 77bd 15b3 d8bd fc97 953e c256 563c
00000020: 279d 123c 728a 35bd 4228 debc 6d10 e73c
00000030: c6f4 94bd 9881 c13d d7a7 77bc 426e 03bd
00000040: 6264 29bd 36be 64be c7dd 5bbf 9753 bcbb
00000050: ff14 9bbd 80f9 06bd a1e8 ef3c 9f91 d6bc
00000060: ca59 e13c 145e 1a3d 2b48 8f3c d648 b43d
00000070: 846d b03c b5bf 85bd 0f15 c63c 0df3 c5be
00000080: 72aa 9bbd e6fb fc3c 4457 993d 85a6 4dbd
00000090: 3819 253d 161c fcbd 7f4a 04bd 8753 bc3c
000000a0: d818 523d c062 0f3c 57ab bc3d a4e4 aa3d
000000b0: 344d 13bd 821f 82bd 478e 4ebd 7c33 a2bd
000000c0: 0654 273d 636e 263e 4de2 babe e8b3 69bd
000000d0: 31a2 ee3c bbb5 34be 1c64 823d c4c3 36bb
000000e0: c014 29bd eabd bebd 3cf2 7a3d f2d4 9cbd
000000f0: bc43 9f3c 413c 81bd b137 af3d 9376 733d
00000100: 333b 42bd 81aa 84bd c07a 2ebc 0c4b 003d
00000110: a6b1 9d3e 88e5 8d3c 3d72 9d3d e20f 1c3c
00000120: 8c5e f63d 0cb0 713d a4d1 9cbd 9696 1dbe
00000130: 8d78 ca3d f086 23bc 469d 0fbe e4c5 993d
00000140: d553 853d ecf3 c8bc 1c9f c7bd 3e34 703d
00000150: 0d11 0abd 97ac 0dbe 08f8 ca3d 6394 683d
00000160: 6903 9dbd 31a4 803d 0528 31be e051 cd3d
00000170: 9ccb 3fbd 8a47 643b 263a 06be bdf4 663d
00000180: 5d13 47bc 7f55 8f3d f8c1 5b3c 8922 01bd
00000190: 2b78 c13d ed82 8ebd 06de d5bd 96f0 03bd
000001a0: 9b47 22be aa19 86bd 2966 c83d 05e7 99bd
000001b0: 30d6 ba3d 733e 8a3c 7b0b 22be a8f6 b0bd
000001c0: 80d5 9abd b91e ecbd 50f1 40bd da9d 8d3d
000001d0: 03dd fabd 874e 873d 8e70 e8bd 69e2 e53c
000001e0: 1b8e 5fbd a967 84bd 5ce4 8c3d f732 a63d
000001f0: 1ed1 023e c8ae d5bd 5efd c1bd 87b8 7f3d
00000200: f662 cc3d 0a4e a33d 7365 82bd 8bd1 a9bd
00000210: dbcb de3c 9845 f1bd 4a04 09be 0a1c e03d
00000220: 6ff0 14be f703 d7bc 236f c6bd 0bac 0abe
00000230: 67a1 edbd 65e5 18be 5aa5 13be 15eb 17bd
00000240: a7fd b03d d6bb abbd 8d3f ed3d f15f 01be
00000250: b898 adbc b5e8 1ebe 90e6 94bd 8094 3aba
00000260: 5e62 bc3d 0501 0c3e d517 e13d 0df4 e63c
00000270: b5e1 8b3c bc9a 27be 61c1 403d 7267 06bd
00000280: 1c48 35bd fac7 6f3d 05d1 37bc 0dbf ffbd
00000290: 7919 e2bd 3e2f 25be c519 0c3c b1d7 6bbd
000002a0: f617 2cbd a48e 70bc 663e abbd 5d49 3d3d
000002b0: d0e5 d7bd f161 f53d 706e 3e3d 9f72 3abd
000002c0: 9b13 10be 3ce2 dfbd d2df 7abd ac87 2cbe
000002d0: b8de ed3c 98dd f43d 500a 00be 6340 2d3d
000002e0: 8254 3cbd 9e5a 8cbd d04f 123e 8b80 57be
000002f0: d19a 73bd a9ed 33be 0d84 d43d 260e 0cbd
00000300: 7057 e43d 57d2 103e c55c 67bd ef53 68bc
00000310: e221 61bd 27e5 88be 4ab5 82bd b30c c03d
00000320: 374e d43d a41d df3d 6ca1 813d 23c6 90bd
00000330: 4ad6 8dbd de01 e33c b351 67be fa88 9ebd
00000340: 3ea8 cd3d ae72 d5bd ffb4 823d b95c 82bd
00000350: 9c8d 6d3e da96 003d bae5 e53d 7f31 5fbd
00000360: c270 023e e9eb cfbd e790 db3b 8f58 e73c
00000370: 2d4a f63d 0caa 10be ae72 7e3d f594 cc3d
00000380: cf97 903c 2810 043e 7c55 adb7 3a77 1cbe
00000390: 5044 11be 25cf 0e3e 735c dc3b 6845 d3bd
000003a0: 3f4e f5bd 7442 27be 894c c0bc 36d4 803d
000003b0: 88a7 4f3b f8b5 17bd 0c7a 873d 63be 1dbe
000003c0: 936e 8f3c 3289 26bd 322e cd3d 20ea 0bbe
000003d0: c4fe 02be b13f abbd d486 bbbd 969f 3abd
000003e0: 2ac7 d93e 1233 1ebc 6d81 a23d 3383 b6bd
000003f0: c2a6 2c3c efde 073e fb6f f33a ccb2 063d

layers.2.bias f4 [64]
0.15994677 -0.41691917 -0.11500267 -0.14522086 -0.16166358 0.03937081 -0.22663048 -0.30550486
0.009326893 -0.07068843 -0.036851484 0.40444273 -0.39020482 -0.19753148 -0.06570277 -0.13802803
-0.12475162 -0.052325577 -0.2535967 0.0073377625 0.0068007545 -0.13411501 0.39172766 -0.26014844
-0.28352144 0.3737436 -0.35527706 -0.08457153 -0.37819904 -0.22239788 -0.08130519 -0.2716532
-0.17702495 -0.14965181 0.25000677 -0.20579918 -0.41518924 -0.30392087 -0.46946955 -0.09212771
-0.2174135 -0.2094167 0.119249776 -0.04078343 -0.27336645 0.05333302 -0.21239914 0.16185164
-0.17226703 0.41528082 -0.2877626 -0.4555413 -0.120107524 -0.2533167 0.18268095 0.06186783
0.1022701 -0.35610172 -0.18584555 0.31234038 0.43263447 -0.40321115 0.4376637 -0.22234295
00000000: 16c9 233e 6e76 d5be 8586 ebbd c7b4 14be
00000010: 238b 25be 4943 213d d211 68be 226b 9cbe
00000020: d3cf 183c 18c5 90bd 95f1 16bd 1e13 cf3e
00000030: edc8 c7be b145 4abe 2d8f 86bd 3857 0dbe
00000040: c77d ffbd 5853 56bd 6dd7 81be 9d71 f03b
00000050: ddd8 de3b 7255 09be 8790 c83e 2d32 85be
00000060: b929 91be 525b bf3e e0e6 b5be d733 adbd
00000070: 4ea3 c1be 45bc 63be 5683 a6bd 2116 8bbe
00000080: 0746 35be 533e 19be e300 803e 05bd 52be
00000090: af93 d4be 849b 9bbe 505e f0be 74ad bcbd
000000a0: a5a1 5ebe 5571 56be 3a39 f43d 870c 27bd
000000b0: b0f6 8bbe ba73 5a3d 297f 59be 70bc 253e
000000c0: c566 30be b09f d43e 9f55 93be b63c e9be
000000d0: effa f5bd bab2 81be b710 3b3e 1f69 7d3d
000000e0: fc72 d13d f752 b6be 4c4e 3ebe 14eb 9f3e
000000f0: 4482 dd3e b171 cebe 7515 e03e dfad 63be

layers.5.weight f4 [36, 64]
0.0011833819 0.0021315895 -0.027405249 -0.015887903 -0.044445902 -0.00053650443 -0.004373403 0.0006750954
0.0057068854 -0.05397811 0.00076495606 0.0018489514 0.0025029527 0.023759233 -0.0016219562 0.024152668
-0.0012748978 -0.05871158 0.0010227425 -0.003763681 -0.0065198266 -0.0035907195 0.002057443 0.0057517495
0.0017724345 0.0010045017 0.0013981315 0.06922187 -0.0037224211 0.00087669183 0.022328198 -0.006020038
-0.0045824535 -0.0016463154 0.0011673905 0.0024193355 -0.00040207038 0.004986892 -0.0010871287 -0.030791812
-0.019626329 0.0013830761 -0.0069838217 0.005192588 -0.0622445 0.0028835468 -0.047251187 0.0076451604
-0.006160005 0.002747583 -0.003655905 0.00063412945 -0.008693774 -0.0020560576 0.0015690054 0.00035064569
-0.007556144 0.0017345337 -0.03266201 -0.0015231423 -0.0007013414 0.004554444 -0.0016299069 -0.012696735
-0.008093995 -0.0121843675 0.0065752524 -0.050298966 0.056255713 -0.009385748 -0.004427712 -0.011768736
-0.012571152 0.07794495 -0.011881608 0.025245788 -0.018980034 -0.040947463 -0.011706287 0.035499364
-0.011965044 0.086104855 -0.01685932 -0.0045663384 -0.01575667 0.00060272985 0.024137516 -0.03538132
-0.020809159 0.024427328 -0.021545148 -0.036232658 -0.014916643 -0.012895023 0.030154042 -0.018052304
-0.0131838815 -0.011932665 0.009362548 -0.01180621 -0.013948182 -0.018168503 -0.017588658 0.016404754
0.060392898 -0.01615958 -0.009390111 -0.019653235 0.04404449 -0.0111521 -0.08705318 -0.008175722
-0.02597951 0.022594428 -0.0114745535 -0.00900016 0.020922583 -0.010113549 -0.013436647 -0.011576568
-0.011311248 -0.014536307 -0.0925805 0.019330243 0.028986469 -0.036207635 0.022821506 -0.019631537
-0.0006112649 0.0011703704 -0.014143714 0.038457733 0.0287088 -3.8659527e-05 -0.00070546113 -0.0010375076
-0.0015756269 0.043378074 -0.0013305473 0.00047920726 -0.0005963153 0.0089408625 0.0009245971 0.018076845
4.4757948e-05 -0.01950941 -0.00050843164 0.0004991733 -0.00053638255 0.00075736677 -6.3742365e-05 -0.0014851629
0.0005454479 0.00048487022 0.0011593795 0.035010017 -6.8688387e-06 9.6780335e-05 -0.09394092 -0.00024899852
0.00020642557 -0.011308318 0.00034589175 -0.00058124494 4.609079e-05 5.832034e-05 -2.0998654e-05 -0.024719419
0.042153496 0.0004691303 -0.0003932607 -0.00051034417 0.018243104 -0.00043900614 -0.022824334 0.0004357478
-0.010467503 0.0004370332 0.0007460112 0.00074446626 -0.04865371 -0.00025509426 -0.00042510446 -0.00080211717
0.00062886305 0.00024696006 0.08176113 -0.00017816472 0.0004146227 0.0012590413 -0.00026101066 -0.019276943
-2.6000182e-06 -6.6524485e-06 0.052695435 0.018911524 0.06802178 1.340726e-06 7.83108e-06 1.951588e-06
3.3950837e-06 0.06103221 -2.2320244e-05 -4.397242e-06 -6.4888236e-06 -0.050770093 -4.423223e-06 -0.012186569
1.0567901e-06 0.016536232 3.988816e-06 -6.193932e-06 2.434267e-07 -2.9293224e-06 7.203173e-07 -3.5647784e-06
1.7997204e-06 -7.3530814e-06 -9.196238e-06 -0.063603014 5.1210027e-06 -1.0411455e-05 0.071508065 -5.1616234e-07
7.597986e-06 0.027512982 -1.0922042e-07 8.228652e-07 6.254434e-06 1.7691778e-07 8.730388e-06 -0.009240901
0.016851423 -2.1065252e-06 -8.763926e-06 -1.725503e-05 0.035045937 -5.012434e-06 0.015993936 5.933673e-06
0.0018230124 3.2036946e-06 1.05897925e-05 -1.1627558e-05 -0.024454018 7.4252387e-07 -6.503733e-06 1.33386975e-05
-1.1265569e-05 -2.2227823e-06 -0.048234656 2.6089679e-06 2.4154826e-06 1.6307926e-06 1.9574761e-06 -0.042909905
00000000: b51b 9b3a 23b2 0b3b f980 e0bc 5927 82bc
00000010: e80c 36bd 34a4 0cba c34e 8fbb e3f8 303a
00000020: d300 bb3b 2718 5dbd 5587 483a 8458 f23a
00000030: 9408 243b b9a2 c23c d297 d4ba d1db c53c
00000040: 791a a7ba 8e7b 70bd 8b0d 863a 17a8 76bb
00000050: 45a4 d5bb 4752 6bbb 2ad6 063b 2c79 bc3b
00000060: 0851 e83a 7ca9 833a 8241 b73a 32c4 8d3d
00000070: ddf3 73bb cbd1 653a a0e9 b63c bd43 c5bb
00000080: 6828 96bb 2ec9 d7ba 2003 993a b78d 1e3b
00000090: f9cc d2b9 1569 a33b fc7d 8eba 1c3f fcbc
000000a0: 65c7 a0bc 5548 b53a 8bd8 e4bb 9626 aa3b
000000b0: 17f4 7ebd e3f9 3c3b 768a 41bd 4184 fa3b
000000c0: ded9 c9bb cb10 343b e897 6fbb b53b 263a
000000d0: 5570 0ebc ecbe 06bb 16a7 cd3a ded6 b739
000000e0: 8899 f7bb 4b59 e33a 9ac8 05bd 2da4 c7ba
000000f0: 3ada 37ba 723d 953b 9aa2 d5ba f705 50bc
00000100: ad9c 04bc f1a0 47bc 3775 d73b 4a06 4ebd
00000110: 646c 663d aec6 19bc 5716 91bb a8d1 40bc
00000120: 3cf7 4dbc 9aa1 9f3d 13ab 42bc 41d0 ce3c
00000130: 047c 9bbc 87b8 27bd bacb 3fbc c867 113d
00000140: 0809 44bc be57 b03d 8f1c 8abc 39a1 95bb
00000150: 2214 81bc 8400 1e3a 0abc c53c 01ec 10bd
00000160: f877 aabc d21b c83c 737f b0bc b268 14bd
00000170: ef64 74bc a645 53bc 9c05 f73c 6de2 93bc
00000180: 3501 58bc 3981 43bc 5f65 193c d56e 41bc
00000190: ea86 64bc 1dd6 94bc 1716 90bc 4363 863c
000001a0: 8b5e 773d 1861 84bc fbd8 19bc d2ff a0bc
000001b0: ff67 343d 4cb7 36bc f048 b2bd 77f3 05bc
000001c0: fbd2 d4bc f317 b93c c4ff 3bbc 6875 13bc
000001d0: d665 ab3c 4db3 25bc 6225 5cbc a5ab 3dbc
000001e0: d052 39bc b129 6ebc d89a bdbd 755a 9e3c
000001f0: 0875 ed3c 754e 14bd 2bf4 ba3c 51d2 a0bc
00000200: 4b3d 20ba 1d67 993a 09bb 67bc db85 1d3d
00000210: b82e eb3c 5a26 22b8 b2ee 38ba fafc 87ba
00000220: 4485 ceba 35ad 313d c265 aeba 1c3e fb39
00000230: 0b52 1cba b27c 123c a960 723a e415 943c
00000240: 7bba 3b38 33d2 9fbc 4548 05ba f4da 023a
00000250: 069c 0cba 068a 463a 6cad 85b8 cca9 c2ba
00000260: 64fc 0e3a 2e36 fe39 52f6 973a aa66 0f3d
00000270: e07a e6b6 8cf6 ca38 1964 c0bd 048c 82b9
00000280: f173 5839 8646 39bc ce58 b539 b05e 18ba
00000290: 9c51 4138 fd9c 7438 4426 b0b7 6180 cabc
000002a0: 25a9 2c3d 9af5 f539 8f2e ceb9 9ec8 05ba
000002b0: 9072 953c 682a e6b9 19fa babc 1475 e439
000002c0: e47f 2bbc 9a21 e539 f78f 433a 4928 433a
000002d0: 1d49 47bd 2cbe 85b9 8ee0 deb9 2c45 52ba
000002e0: 49da 243a 6b7a 8139 6172 a73d bad1 3ab9
000002f0: b761 d939 6a06 a53a 42d8 88b9 aeea 9dbc
00000300: f97b 2eb6 1938 dfb6 2bd7 573d 57ec 9a3c
00000310: 014f 8b3d fff2 b335 3c62 0337 07f8 0236
00000320: 18d7 6336 e9fc 793d 5c3c bbb7 058c 93b6
00000330: 92ba d9b6 4df4 4fbd 326b 94b6 2daa 47bc
00000340: 08d7 8d35 fe76 873c abd7 8536 79d5 cfb6
00000350: 50b0 8234 6095 44b6 d45b 4135 6d3a 6fb6
00000360: ec8d f135 7dba f6b6 8b49 1ab7 4c42 82bd
00000370: 14d5 ab36 dcac 2eb7 d272 923d 688e 0ab5
00000380: 34f2 fe36 e862 e13c 908c eab3 dee2 5c35
00000390: 2edd d136 caf6 3d34 bb78 1237 2667 17bc
000003a0: ff0b 8a3c d45d 0db6 c708 13b7 e5be 90b7
000003b0: 548c 0f3d 7b30 a8b6 b705 833c dd19 c736
000003c0: 25f2 ee3a 0eff 5636 d0aa 3137 fb13 43b7
000003d0: cb53 c8bc da51 4735 a43a dab6 45c9 5f37
000003e0: 4001 3db7 1c2b 15b6 b491 45bd ba15 2f36
000003f0: ad19 2236 9be1 da35 2f5d 0336 4cc2 2fbd

layers.5.bias f4 [36]
0.002013968 -0.083674684 8.868172e-05 -1.1037295e-06 -0.0038889938 0.001961776 -0.0033172413 0.09453153
-0.0020299212 0.14153469 0.0042580077 -0.0035795511 0.0051563247 0.08121073 0.0071795266 0.14336231
-0.0012116111 0.20644939 -0.00037862256 0.37587777 0.00038390682 0.5147522 0.0043016714 0.20410717
0.007104515 0.37398696 0.008504109 0.5118943 0.001344207 -0.09385834 0.003103471 -0.09543068
-0.002420796 -0.082538076 0.0031846138 -0.08517678
00000000: c7fc 033b a25d abbd a3fa b938 db23 94b5
00000010: 7dde 7ebb 2491 003b 1366 59bb bf99 c13d
00000020: 6d08 05bb 78ee 103e c286 8b3b e796 6abb
00000030: 63f6 a83b d051 a63d 3c42 eb3b 92cd 123e
00000040: ecce 9eba 7867 533e dc81 c6b9 0d73 c03e
00000050: 1a47 c939 cdc6 033f 09f5 8c3b 7801 513e
00000060: fecc e83b 387b bf3e d254 0b3c 810b 033f
00000070: 1a30 b03a cd38 c0bd 9a63 4b3b 2971 c3bd
00000080: 38a6 1ebb b909 a9bd f4b4 503b 2a71 aebd

exp_avg f4 [36, 36]
-1.0640813e-37 -1.17383e-37 1.148309e-37 1.148309e-37 -1.092566e-37 1.1239179e-37 -1.0787486e-37 -1.1495419e-37
-1.1127018e-37 -1.158753e-37 1.0580321e-37 1.1423317e-37 1.1400313e-37 -1.1110564e-37 1.0685373e-37 -1.1435591e-37
-1.0640813e-37 1.0794883e-37 1.1496776e-37 1.0650683e-37 -1.1452473e-37 1.1714102e-37 1.0580321e-37 1.1032118e-37
-1.1742969e-37 -1.1740867e-37 1.1400313e-37 1.1339703e-37 -1.0640813e-37 -1.17383e-37 1.1496776e-37 -1.149586e-37
-1.1203813e-37 -1.1093463e-37 1.1060434e-37 -1.1253403e-37 -1.111092e-37 -1.1006555e-37 -1.1184412e-37 -1.1184412e-37
-1.1363888e-37 1.1196473e-37 -1.0870617e-37 1.1370851e-37 -1.0870617e-37 1.1587698e-37 1.0870617e-37 -1.14959e-37
1.123325e-37 -1.1067768e-37 -1.147203e-37 -1.147203e-37 -1.1557868e-37 1.1574142e-37 1.0691556e-37 1.1328948e-37
1.0691556e-37 1.0618828e-37 1.0870617e-37 1.1491397e-37 1.0698321e-37 1.1498587e-37 1.123325e-37 1.1265486e-37
1.1690783e-37 -1.1006555e-37 1.0691556e-37 -1.1015285e-37 -1.0691556e-37 -1.0997803e-37 1.1363888e-37 -1.1024056e-37
-1.1488655e-37 -1.0622123e-37 -1.1638581e-37 -1.1638581e-37 -1.1679303e-37 1.1725839e-37 -1.0642753e-37 1.1168213e-37
-1.0642753e-37 1.1297833e-37 1.1679272e-37 -1.1725813e-37 1.086199e-37 -1.1144241e-37 1.1311991e-37 -1.1384845e-37
-1.1387364e-37 -1.1387364e-37 -1.148691e-37 1.0948586e-37 -1.148691e-37 1.139904e-37 -1.1387364e-37 -1.1387364e-37
-1.1387364e-37 -1.1387364e-37 1.0642753e-37 1.1332942e-37 -1.0592547e-37 -1.1062174e-37 1.148691e-37 -1.1115653e-37
-1.0814185e-37 -1.158222e-37 1.148691e-37 -1.0688165e-37 -0.0003514568 -0.0003420699 0.0006166335 0.0006166335
0.00045519968 0.00045703942 6.4612614e-05 7.540589e-05 0.00036033965 0.00035565766 0.00048209354 0.00047911343
-0.0010523878 -0.0010780336 -0.0005839864 -0.0005859271 -0.00044639857 -0.00047498397 -0.00012197546 -0.00016059692
0.00030554686 0.00031166177 -0.0005992721 -0.00062635494 1.6990384e-06 -2.7550734e-05 -8.943674e-05 -0.0001374573
-5.0591334e-06 9.058727e-06 0.00042359153 0.00042415617 0.00041976984 0.0004279522 0.0012356514 0.0012206207
1.1217394e-37 -1.0598027e-37 -1.0723366e-37 -1.0723366e-37 1.1013106e-37 -1.1450846e-37 1.0703484e-37 1.0721952e-37
1.1013828e-37 1.1294602e-37 -1.1430179e-37 -1.0982198e-37 -1.0838463e-37 1.1468323e-37 -1.1014289e-37 1.1307208e-37
1.1698192e-37 1.1734954e-37 1.1694663e-37 1.081022e-37 1.1696656e-37 1.0639002e-37 -1.0845335e-37 -1.0845335e-37
-1.1011223e-37 1.0854805e-37 -1.1011063e-37 1.0640956e-37 1.1698119e-37 -1.0600399e-37 -1.1531682e-37 -1.0599758e-37
1.1696584e-37 -1.0908598e-37 -1.1697748e-37 -1.0595128e-37 -0.0009417551 -0.0008941206 -0.0012935246 -0.0012935246
-0.00021901599 -0.00021756848 0.001283692 0.00139512 -0.0020031244 -0.0018265934 0.0019125611 0.0019228028
-0.0014466248 -0.0013650437 0.0014102409 0.0014487398 -0.0057210852 -0.0059449016 -0.00082775997 -0.0009905727
-0.002182301 -0.0022169584 -0.0032500867 -0.0034344238 -0.003129526 -0.0033582202 -0.0032058498 -0.0034744237
-0.00058565056 -0.00053323875 -0.003243936 -0.003160235 -0.001654215 -0.0015393717 -0.0013401584 -0.0013125099
-0.00014386134 -7.839207e-05 -0.0010307643 -0.0010307643 0.00054593396 0.0005013742 0.001717973 0.0017792947
-0.0007670252 -0.00069515547 0.0018142932 0.0018233412 -0.000619772 -0.0006338166 1.8451276e-05 9.510791e-05
-0.00016835658 -0.00025827647 0.0015589056 0.0014246847 0.00052302267 0.00044834998 -0.0007767987 -0.00091977447
7.824274e-05 -5.77193e-05 -0.00010967933 -0.00024856132 0.0010747737 0.0011236875 -0.0017093476 -0.0015994483
-0.0015186688 -0.0014348271 0.0024927072 0.0025048314 0.0006687023 0.00067713164 0.00090216723 0.00090216723
00000000: d2d5 1082 01c6 1f82 bb4c 1c02 bb4c 1c02
00000010: 5eb6 1482 d3fa 1802 e7d4 1282 b077 1c82
00000020: 0074 1782 a6b8 1d82 0a03 1002 737c 1b02
00000030: 4b2c 1b02 aa3a 1782 1771 1102 38a7 1b82
00000040: d2d5 1082 adee 1202 6b7c 1c02 37f8 1002
00000050: 0be2 1b82 b071 1f02 0a03 1002 5229 1602
00000060: 46d6 1f82 f3ce 1f82 4b2c 1b02 1959 1a02
00000070: d2d5 1082 01c6 1f82 6b7c 1c02 3a79 1c82
00000080: 977f 1882 14ff 1682 fd8b 1602 632c 1982
00000090: e83b 1782 3fd0 1582 fd3b 1882 fd3b 1882
000000a0: 5fad 1a82 0466 1802 92f6 1382 a2c5 1a02
000000b0: 92f6 1382 3cb9 1d02 92f6 1302 5d79 1c82
000000c0: 2ae6 1802 8ba5 1682 3126 1c82 3126 1c82
000000d0: 4b51 1d82 008a 1d02 a386 1102 9f33 1a02
000000e0: a386 1102 3789 1002 92f6 1302 ad69 1c02
000000f0: 359e 1102 ba82 1c02 2ae6 1802 7d56 1902
00000100: 6f20 1f02 3fd0 1582 a386 1102 abee 1582
00000110: a386 1182 c0b1 1582 5fad 1a02 3b0d 1682
00000120: 1f60 1c82 b294 1082 896a 1e82 896a 1e82
00000130: 6ef8 1e82 969a 1f02 95dc 1082 8b03 1802
00000140: 95dc 1082 34c7 1902 53f8 1e02 7f9a 1f82
00000150: 83d8 1302 03b0 1782 89f8 1902 65f6 1a82
00000160: 2cff 1a82 2cff 1a82 0a5a 1c82 4106 1502
00000170: 0a5a 1c82 db27 1b02 2cff 1a82 2cff 1a82
00000180: 2cff 1a82 2cff 1a82 95dc 1002 8a41 1a02
00000190: a42d 1082 0d92 1682 0a5a 1c02 664c 1782
000001a0: ef31 1382 25a6 1d82 0a5a 1c02 d27a 1182
000001b0: bc43 b8b9 d857 b3b9 93a5 213a 93a5 213a
000001c0: dea7 ee39 cb9e ef39 a280 8738 3b23 9e38
000001d0: f8eb bc39 9077 ba39 80c1 fc39 8431 fb39
000001e0: 46f0 89ba ce4c 8dba aa16 19ba e798 19ba
000001f0: 9a0a eab9 4507 f9b9 14cd ffb8 e865 28b9
00000200: ce31 a039 8966 a339 7818 1dba f831 24ba
00000210: 840a e435 c01c e7b7 fc8f bbb8 6a22 10b9
00000220: a0c1 a9b6 f0fa 1737 7e15 de39 4761 de39
00000230: 8e14 dc39 c65e e039 95f5 a13a 3cfd 9f3a
00000240: eaae 1802 bc40 1082 7af5 1182 7af5 1182
00000250: 13e7 1502 60dc 1b82 33b0 1102 8df0 1102
00000260: 97e9 1502 f2bb 1902 5c94 1b82 607b 1582
00000270: 8886 1382 4619 1c02 32eb 1582 dfe7 1902
00000280: 403a 1f02 59ba 1f02 f42d 1f02 1e24 1302
00000290: e634 1f02 83cf 1002 7a9e 1382 7a9e 1382
000002a0: 83e0 1582 7abf 1302 f4df 1582 52d6 1002
000002b0: ff39 1f02 0049 1082 0cf6 1c82 c446 1082
000002c0: a634 1f02 eb7a 1482 b438 1f82 a236 1082
000002d0: 1de0 76ba 6b63 6aba 7c8b a9ba 7c8b a9ba
000002e0: a8a7 65b9 1823 64b9 8e41 a83a 76dc b63a
000002f0: da46 03bb 4e6a efba e7ae fa3a 8e06 fc3a
00000300: ac9c bdba 44eb b2ba d5d7 b83a a4e3 bd3a
00000310: f177 bbbb 73cd c2bb 08fe 58ba 1bd6 81ba
00000320: ef04 0fbb 644a 11bb 68ff 54bb 1214 61bb
00000330: bc18 4dbb 9615 5cbb 3c19 52bb 28b3 63bb
00000340: 5886 19ba 0cc9 0bba 3798 54bb f21b 4fbb
00000350: 3fd2 d8ba bec4 c9ba 41a8 afba 8608 acba
00000360: 7cd9 16b9 6c66 a4b8 b61a 87ba b61a 87ba
00000370: 021d 0f3a a76e 033a 9c2d e13a 3937 e93a
00000380: 3112 49ba 183b 36ba 94cd ed3a 2efd ee3a
00000390: 3278 22ba b626 26ba d0c7 9a37 ac74 c738
000003a0: e088 30b9 4869 87b9 3154 cc3a 7cbc ba3a
000003b0: 751b 093a 8410 eb39 14a2 4bba 051d 71ba
000003c0: 4016 a438 a017 72b8 a403 e6b8 5651 82b9
000003d0: 6cdf 8c3a b248 933a 300c e0ba 94a4 d1ba
000003e0: 120e c7ba cf10 bcba b05c 233b 1928 243b
000003f0: da4b 2f3a 8981 313a 6b7f 6c3a 6b7f 6c3a

exp_avg_sq f4 [36, 36]
1.6200253e-30 1.7489056e-30 1.0118209e-31 1.0118209e-31 2.5154966e-30 2.3789365e-30 7.3238437e-31 4.5469415e-31
1.23604296e-29 1.2340727e-29 7.5895873e-31 3.4283518e-31 1.9908105e-29 1.877437e-29 3.0512901e-30 1.0328463e-30
3.963592e-31 1.2649604e-30 4.322494e-31 3.426061e-30 2.4039672e-28 2.3969137e-28 1.5933884e-30 1.972203e-30
7.502498e-30 9.330968e-30 1.4034901e-30 5.2552873e-30 5.889841e-31 7.4130134e-31 1.8225197e-30 2.1670654e-30
5.911326e-31 6.672058e-31 4.822722e-30 4.867563e-30 9.9580445e-26 4.3124454e-24 7.8100203e-32 7.8100203e-32
9.098192e-24 1.4508054e-25 1.8630572e-23 7.7500614e-24 2.267973e-23 2.3023076e-23 4.3691907e-23 3.379245e-23
3.2209175e-23 1.1055578e-23 8.861085e-21 8.856867e-21 1.0072205e-24 3.07394e-23 4.2622405e-22 5.074865e-22
4.0475696e-23 2.2520573e-22 8.101404e-21 8.099601e-21 7.979685e-23 1.6796579e-22 1.953365e-21 2.103343e-21
2.200847e-25 5.630855e-24 1.3967664e-23 1.898175e-23 4.4293065e-24 4.112456e-24 2.0804678e-23 2.3758242e-23
7.3063124e-30 1.3241266e-26 1.0929782e-25 1.0929782e-25 6.0448716e-26 2.4161464e-29 1.7462961e-25 3.8524546e-26
1.700758e-25 1.6537419e-25 6.029596e-26 1.3217033e-29 2.370526e-25 2.4398888e-26 3.5402657e-25 1.3284653e-25
3.3828596e-24 3.5420584e-24 2.876916e-25 8.858961e-25 1.05456e-26 1.126381e-24 3.056747e-24 3.164325e-24
3.1553093e-24 3.555691e-24 4.006091e-23 4.013155e-23 2.9587084e-29 2.5317009e-26 6.49231e-27 2.5646273e-26
1.341688e-26 1.7355367e-26 2.5276977e-26 1.3969335e-26 9.434172e-06 9.497244e-06 9.2478795e-06 9.2478795e-06
8.991366e-06 8.970322e-06 9.765617e-06 9.694446e-06 1.05783365e-05 1.0509989e-05 9.125896e-06 9.149466e-06
9.491316e-06 9.504326e-06 1.0010528e-05 1.0048224e-05 9.936257e-06 9.8802275e-06 8.891876e-06 8.785914e-06
1.137336e-05 1.1322527e-05 9.233339e-06 9.1657275e-06 8.5613285e-09 1.6692154e-07 8.954534e-06 8.9173545e-06
9.588292e-06 9.642512e-06 8.88986e-06 8.94595e-06 9.454907e-06 9.480483e-06 9.278502e-06 9.342023e-06
3.0607625e-31 1.2457212e-30 1.8608258e-31 1.8608258e-31 1.0012084e-30 1.5255977e-31 1.8754414e-30 2.0212676e-30
1.8985847e-30 5.2918416e-30 7.188449e-28 7.159738e-28 3.4005626e-30 1.5803418e-30 2.1617046e-30 4.6736662e-30
2.6473186e-31 6.069752e-30 4.6004658e-29 6.410473e-29 1.2182038e-28 1.5631566e-28 2.1798653e-27 2.1807578e-27
1.43645645e-30 1.8593332e-29 3.8558957e-28 4.1294856e-28 1.5383859e-31 1.114074e-30 1.2487701e-31 1.3082272e-30
7.064293e-31 1.3590105e-30 5.011631e-31 1.0939288e-30 0.00024259847 0.00024501162 0.0002417427 0.0002417427
0.00023453274 0.00023502312 0.00027625932 0.00027629363 0.0002949844 0.00029408914 0.00024155133 0.0002409791
0.0002785149 0.0002755999 0.00026515377 0.00026156293 0.00023972883 0.00023441995 0.00027206118 0.00026285212
0.00036584397 0.00035572523 0.00028594185 0.00027986828 0.00031047923 0.00030059807 0.0003048934 0.0002900035
0.00025178964 0.0002548352 0.00024648718 0.00024910597 0.0002444599 0.00024718774 0.00024271206 0.0002448416
9.1832284e-05 9.241225e-05 8.898498e-05 8.898498e-05 9.0894115e-05 9.0838956e-05 0.00010054484 0.00010040297
0.000100171754 0.00010000644 8.443773e-05 8.452142e-05 9.421075e-05 9.405047e-05 0.00010198393 0.00010189401
9.574958e-05 9.462483e-05 0.00010328117 0.00010151994 0.00016755238 0.00016630495 0.000115415874 0.00011434875
0.00013180611 0.00012999894 0.00012283781 0.00011997025 9.231823e-05 9.2991235e-05 8.999009e-05 9.062837e-05
8.810956e-05 8.864908e-05 8.9413435e-05 8.998918e-05 4.9024407e-06 4.9158e-06 4.7166554e-06 4.7166554e-06
00000000: 9c6e 030e 59e3 0d0e 8457 030c 8457 030c
00000010: d214 4c0e 9400 410e 1dac 6d0d 838e 130d
00000020: 05b3 7a0f b84c 7a0f d34b 760d 4483 de0c
00000030: 65e4 c90f 0d65 be0f d18c 770e c296 a70d
00000040: 3ca0 000d 6640 cd0d e045 0c0d 40fa 8a0e
00000050: 995e 9811 26ec 9711 6245 010e 0e01 200e
00000060: 322b 180f 2841 3d0f b3ba e30d 062e d50e
00000070: e222 3f0d e890 700d 41dc 130e 30d0 2f0e
00000080: 60d5 3f0d 4a85 580d 02a2 c30e aa73 c50e
00000090: 9b8c f615 64d4 a618 7dc2 ca0b 7dc2 ca0b
000000a0: 11fc 2f19 dc99 3316 102f b419 72e8 1519
000000b0: 4b58 db19 60aa de19 f647 531a 0769 231a
000000c0: 07c1 1b1a 92d8 5519 9461 271e 2e4d 271e
000000d0: 1ddc 9b17 89a5 141a 7dd1 001c de60 191c
000000e0: 7cba 431a e620 881b fc07 191e 44ff 181e
000000f0: dcef c01a e50e 4b1b 9397 131d 92ec 1e1d
00000100: d039 8816 49d5 d918 4316 8719 8994 b719
00000110: ba59 ab18 cb17 9f18 e335 c919 8fc6 e519
00000120: 8b30 140f 9922 8314 dd4d 0716 dd4d 0716
00000130: eda9 9515 bf06 f50f 552e 5816 aac3 3e15
00000140: 2c8b 5216 2cb9 4c16 1b49 9515 6109 860f
00000150: 7cba 9216 88a2 f114 c021 db16 bf74 2416
00000160: 38de 8218 d906 8918 8e12 b216 f615 8917
00000170: 8be0 5014 8c4c ae17 1d81 6c18 ead3 7418
00000180: 5721 7418 dc8d 8918 01b9 411a 7410 421a
00000190: 3b06 1610 3eba fa14 ec97 0014 07fd fd14
000001a0: d5df 8414 15e1 ab14 c054 fa14 7958 8a14
000001b0: 7647 1e37 5a56 1f37 5727 1b37 5727 1b37
000001c0: 9fd9 1637 3d7f 1637 01d7 2337 54a5 2237
000001d0: 9c79 3137 0f54 3037 6d1b 1937 a880 1937
000001e0: e43c 1f37 c574 1f37 e4f2 2737 cb94 2837
000001f0: e6b3 2637 41c3 2537 512e 1537 3767 1337
00000200: 36d0 3e37 e2f5 3d37 e4e8 1a37 80c6 1937
00000210: 1f15 1332 0b3b 3334 6e3b 1637 bf9b 1537
00000220: 67dd 2037 46c6 2137 a825 1537 9016 1637
00000230: 84a0 1e37 5d0e 1f37 ddaa 1b37 afbb 1c37
00000240: a4a7 c60c 3c21 ca0d 8b8c 710c 8b8c 710c
00000250: 9274 a20d ae08 460c 6527 180e 16fc 230e
00000260: 1008 1a0e a0a9 d60e a0cf 6312 b2e6 6212
00000270: 76f1 890e 6a36 000e d960 2f0e 2096 bd0e
00000280: 20d2 ab0c e937 f60e 7645 6910 5986 a210
00000290: f96c 1a11 5527 4611 ecb4 2c13 06c7 2c13
000002a0: 1114 e90d 0d8f bc0f 7c65 f411 5ede 0212
000002b0: a4b1 470c d3c4 b40d 8119 220c a245 d40d
000002c0: da3f 650d 1683 dc0d 00a3 220d 0680 b10d
000002d0: 0862 7e39 e774 8039 507c 7d39 507c 7d39
000002e0: e7ec 7539 8a70 7639 e6d6 9039 81db 9039
000002f0: 23a8 9a39 fa2f 9a39 f148 7d39 56af 7c39
00000300: a305 9239 647e 9039 5604 8b39 6222 8939
00000310: b85f 7b39 a0ce 7539 6fa3 8e39 6acf 8939
00000320: bfce bf39 a280 ba39 77ea 9539 49bb 9239
00000330: d1c7 a239 9799 9d39 19da 9f39 9c0b 9839
00000340: a202 8439 679b 8539 f33a 8139 709a 8239
00000350: da2a 8039 fa98 8139 8680 7e39 155e 8039
00000360: 1596 c038 73cd c138 739d ba38 739d ba38
00000370: 689e be38 cb80 be38 9adb d238 6f8f d238
00000380: 4d13 d238 8cba d138 2914 b138 1841 b138
00000390: 0393 c538 f63c c538 35e0 d538 eeaf d538
000003a0: 2acd c838 5271 c638 a898 d838 1ae7 d438
000003b0: 00b1 2f39 2562 2e39 6d0b f238 85ce ef38
000003c0: 6f35 0a39 5350 0839 06ce 0039 8a98 fb38
000003d0: f99a c138 4a04 c338 10b9 bc38 bc0f be38
000003e0: 76c7 b838 1de9 b938 7983 bb38 93b8 bc38
000003f0: a57f a436 67f2 a436 c343 9e36 c343 9e36

exp_avg f4 [36]
1.0844385e-37 1.1649446e-37 1.1563479e-37 -7.288048e-05 1.1013068e-37 0.00021599537 -0.00010792255 -0.00011707234
1.1309131e-37 1.0942357e-37 1.0674893e-37 1.0998248e-37 1.1160692e-37 -2.9299641e-05 5.6448016e-07 -2.5386154e-05
1.1485432e-37 -9.794199e-05 0.00013181452 1.073998e-37 1.1449908e-37 7.209286e-09 -2.2916807e-05 1.9833695e-05
0.00011056085 1.0924772e-37 1.9485553e-05 1.174918e-37 1.1124083e-37 1.7466053e-05 1.0800163e-37 -3.3210355e-05
-0.00039390306 -0.00010671331 1.0678269e-37 1.101425e-37
00000000: 2b9b 1302 6590 1e02 d864 1d02 69d7 98b8
00000010: f1e6 1502 d17c 6239 7a54 e2b8 bc84 f5b8
00000020: 92ee 1902 8df0 1402 934c 1102 4db3 1502
00000030: 56e9 1702 80c8 f5b7 c886 1735 5af4 d4b7
00000040: e454 1c02 3566 cdb8 b137 0a39 5e2f 1202
00000050: 1bd9 1b02 8db5 f731 783d c0b7 8960 a637
00000060: e8dc e738 46b3 1402 e874 a337 ebeb 1f02
00000070: c669 1702 1084 9237 1301 1302 594b 0bb8
00000080: c684 ceb9 46cb dfb8 5658 1102 0feb 1502

exp_avg_sq f4 [36]
2.8328549e-30 1.485139e-22 4.3768567e-25 3.06784e-07 2.731581e-29 7.3777296e-06 2.4152819e-06 1.14003875e-07
8.0972947e-32 1.8879837e-22 2.3075953e-28 2.7628073e-32 2.1111504e-30 2.8356393e-07 3.567362e-09 1.4416926e-08
2.6986722e-31 2.790239e-06 2.1042234e-07 3.4646015e-32 7.259521e-29 3.151376e-10 1.0596009e-07 9.59302e-09
5.5966975e-08 7.200702e-25 2.2459665e-07 1.0552499e-18 1.7746318e-28 2.7120935e-08 5.9349116e-31 2.4509706e-07
9.902836e-06 6.2145165e-07 1.5515844e-30 2.0123606e-29
00000000: 18d4 650e d38a 331b 0875 0717 12b4 a434
00000010: f381 0a10 378e f736 3a16 2236 4bd2 f433
00000020: c137 d20b 443e 641b e042 9211 0274 0f0b
00000030: e146 2b0e bb3c 9834 b225 7531 50ae 7732
00000040: 6227 af0c f13f 3b36 74f0 6134 74e4 330b
00000050: fc0c b810 ad3f ad2f 2d8c e333 8cce 2432
00000060: 5760 7033 d7d9 5e17 a828 7134 37ba 9b21
00000070: 18f6 6011 91f7 e832 5199 400d e295 8334
00000080: 5b24 2637 d5d1 2635 4bc2 fb0d de13 cc0f

exp_avg f4 [64, 36]
-1.1393239e-37 1.1473779e-37 1.1146431e-37 -9.501543e-05 -1.0903228e-37 0.0001046085 -4.5997273e-05 1.1735858e-05
1.0751668e-37 1.0734543e-37 1.0948603e-37 1.1008454e-37 1.135351e-37 -5.2174175e-05 -1.5767355e-05 -2.8455801e-05
-1.0966693e-37 -7.101892e-06 1.3564822e-07 -1.1647106e-37 1.0728726e-37 3.137579e-10 5.1846913e-05 -2.6373593e-05
-8.096227e-06 1.095114e-37 5.8597478e-05 -1.0850632e-37 -1.1077193e-37 -3.3174652e-05 1.088782e-37 7.3923075e-06
6.172953e-05 -0.0001062785 1.09426e-37 -1.1729133e-37 1.1537044e-37 -1.1665257e-37 1.0748878e-37 4.3318687e-05
-1.0928423e-37 -0.00012060425 4.786816e-05 -0.00012018379 1.1646788e-37 1.171505e-37 1.0632103e-37 -1.0901213e-37
-1.1722288e-37 -3.684394e-05 -6.5147947e-06 2.6227342e-05 -1.1474148e-37 1.6662003e-05 7.071977e-05 1.1641363e-37
1.1576213e-37 -1.2621094e-09 -4.2013824e-05 -2.745987e-05 0.0002002951 1.0869914e-37 -0.00024647175 1.0612124e-37
-1.0594296e-37 -5.763094e-06 -1.1006464e-37 -8.0596285e-05 -4.64886e-05 -9.545596e-05 1.1554104e-37 1.0740107e-37
-1.0765844e-37 1.0919662e-37 1.0658816e-37 1.0615283e-37 -1.0843593e-37 1.163363e-37 -1.1602061e-37 1.1230055e-37
1.1337901e-37 -1.1198963e-37 1.0930574e-37 1.1528267e-37 1.0893878e-37 1.0929913e-37 1.0685848e-37 1.0845261e-37
-1.1378408e-37 1.063061e-37 1.0601836e-37 -1.0949248e-37 1.1012774e-37 1.093009e-37 -1.1478965e-37 -1.0846089e-37
1.1240809e-37 1.1482356e-37 1.1683907e-37 1.166532e-37 -1.1061776e-37 -1.0620054e-37 -1.0628839e-37 1.0824719e-37
1.0737433e-37 1.1605379e-37 -1.1645791e-37 1.1639151e-37 1.1213037e-37 1.155077e-37 -1.1486103e-37 1.1121807e-37
1.1328098e-37 1.0703651e-37 1.1262739e-37 1.1572399e-37 -1.0885284e-37 -1.111533e-37 1.1021076e-37 -1.1670233e-37
1.0976661e-37 1.1343055e-37 -1.1315912e-37 1.1147846e-37 -1.0921252e-37 1.1751537e-37 -1.1165066e-37 1.1348885e-37
1.0926907e-37 1.1044457e-37 1.1019309e-37 1.1691077e-37 1.1167313e-37 1.0925086e-37 -1.1679926e-37 -1.0694254e-37
1.1286967e-37 -1.0929851e-37 1.0785346e-37 1.0805344e-37 1.1490061e-37 1.132027e-37 -1.0614968e-37 -1.1548667e-37
1.1745705e-37 1.0635974e-37 1.0721912e-37 1.0756276e-37 -1.1565515e-37 1.0739129e-37 1.0734679e-37 1.1525318e-37
1.0883716e-37 -1.142929e-37 1.0945454e-37 -1.0669469e-37 -1.1319236e-37 1.1178146e-37 -1.1657045e-37 1.0707038e-37
1.1169459e-37 1.1182635e-37 1.1412168e-37 -1.101749e-37 -1.071027e-37 1.168437e-37 -1.1072036e-37 1.1540185e-37
-1.1088461e-37 1.0807579e-37 1.0954422e-37 1.1039983e-37 1.1325278e-37 1.0770583e-37 1.1203031e-37 1.0615135e-37
1.1605959e-37 1.1657045e-37 1.0762981e-37 1.0865245e-37 1.11458e-37 1.175239e-37 -1.0885343e-37 -0.00054829
1.0633598e-37 -9.850245e-05 -0.00012557038 5.6038184e-06 1.0964587e-37 1.1726996e-37 1.1262498e-37 1.0698366e-37
1.1578789e-37 -8.490797e-05 -5.5068763e-06 -4.8297556e-05 -1.1237513e-37 1.740723e-05 9.487895e-06 1.0811835e-37
-1.1025129e-37 -6.3095607e-10 -0.00039448863 -2.2097374e-06 3.206166e-05 -1.1623469e-37 -3.5080062e-05 1.1627493e-37
1.1593534e-37 -6.429226e-05 1.1242431e-37 -9.570505e-05 -0.00016149171 -0.0004373073 1.1048188e-37 1.0633788e-37
1.0639841e-37 1.1004676e-37 -1.0601836e-37 0.0002471907 -1.1469498e-37 2.9881096e-05 -1.8111441e-05 2.2576682e-05
1.0653909e-37 -1.1057644e-37 -1.1194267e-37 1.1160172e-37 1.099378e-37 -5.6997513e-05 -1.4014194e-06 1.5804244e-06
1.1483237e-37 -2.0445686e-05 3.2228956e-05 1.0991736e-37 1.093278e-37 -3.585836e-09 0.00013746857 -1.1598413e-05
0.00016204052 1.0747806e-37 -0.00014827005 1.0900854e-37 -1.153054e-37 1.6534368e-05 1.0932915e-37 -3.0290286e-05
7.6708355e-05 9.7039294e-05 1.0638225e-37 1.0693592e-37 -1.0804734e-37 1.1517965e-37 -1.1435293e-37 0.00038370994
00000000: a513 1b82 492c 1c02 a5b7 1702 0543 c7b8
00000010: 3468 1482 4361 db38 32ed 40b8 20e5 4437
00000020: 1858 1202 6c1c 1202 5006 1502 ddd6 1502
00000030: 3589 1a02 98d5 5ab8 2344 84b7 5eb4 eeb7
00000040: 5945 1582 ca4c eeb6 b3a6 1134 3e88 1e82
00000050: 2708 1202 807d ac2f 3376 5938 dc3c ddb7
00000060: 08d5 07b7 270f 1502 90c6 7538 efb0 1382
00000070: 62c6 1682 0325 0bb8 8432 1402 700b f836
00000080: ca74 8138 d6e1 deb8 65f1 1402 10a6 1f82
00000090: bb08 1d02 7dc7 1e82 604e 1202 16b1 3538
000000a0: ffbf 1482 eaec fcb8 0cc6 4838 2e0b fcb8
000000b0: 2287 1e02 fe74 1f02 79b7 1002 2f61 1482
000000c0: 368e 1f82 e188 1ab8 a999 dab6 ca02 dc37
000000d0: 922d 1c82 61c5 8b37 634f 9438 3b74 1e02
000000e0: 3791 1d02 8776 adb0 0038 30b8 9f59 e6b7
000000f0: 4e06 5239 1ff4 1302 e138 81b9 db71 1002
00000100: bc33 1082 9a60 c1b6 eecf 1582 cd05 a9b8
00000110: c1fc 42b8 872f c8b8 2d44 1d02 d02f 1202
00000120: 7e89 1282 78a1 1402 8e14 1102 dd7c 1002
00000130: 6898 1382 4959 1e02 48eb 1d82 08db 1802
00000140: d252 1a02 b16e 1882 7ec7 1402 26ea 1c02
00000150: a047 1402 30c5 1402 bf72 1102 389e 1302
00000160: f7df 1a82 45b2 1002 024e 1002 9008 1582
00000170: ebe5 1502 cec5 1402 5b3e 1c82 1ba1 1382
00000180: 8100 1902 2c4a 1c02 7908 1f02 b5c7 1e02
00000190: aa90 1682 7d8d 1082 19ac 1082 a456 1302
000001a0: 7e26 1202 d8f6 1d02 a983 1e82 866c 1e02
000001b0: bb9f 1802 8f38 1d02 3a57 1c82 d761 1702
000001c0: a930 1a02 c8b0 1102 eb4c 1902 ed83 1d02
000001d0: ae29 1482 464b 1782 d802 1602 d4d8 1e82
000001e0: 1568 1502 c764 1a02 3306 1a82 93bc 1702
000001f0: 02a7 1482 21f4 1f02 94f8 1782 1879 1a02
00000200: b7ba 1402 5154 1602 b0fc 1502 7521 1f02
00000210: 6800 1802 5eb4 1402 9afa 1e82 0990 1182
00000220: 57a1 1902 f9c4 1482 72cd 1202 2113 1302
00000230: 0565 1c02 6215 1a02 c47b 1082 3b31 1d82
00000240: cfdf 1f02 f6c4 1002 69f0 1102 2768 1202
00000250: f06b 1d82 672c 1202 e61c 1202 dfdf 1c02
00000260: 3724 1402 4391 1b82 57fb 1402 ac39 1182
00000270: c811 1a82 2726 1802 e0aa 1e82 95bc 1102
00000280: e207 1802 cc35 1802 9a55 1b02 59f6 1582
00000290: d8c7 1182 160a 1f02 6ab4 1682 ad13 1d02
000002a0: a6ed 1682 eb1a 1302 971a 1502 ba44 1602
000002b0: d626 1a02 019a 1202 de7c 1802 597c 1002
000002c0: ddf8 1d02 e0aa 1e02 847f 1202 dae3 1302
000002d0: 72b5 1702 1af7 1f02 e229 1482 1ebb 0fba
000002e0: aebc 1002 1a93 ceb8 8bab 03b9 6f08 bc36
000002f0: 023e 1502 9e9e 1f02 144c 1902 5d9e 1102
00000300: 319a 1d02 9f10 b2b8 b5c7 b8b6 1b93 4ab8
00000310: 05f5 1882 be05 9237 332e 1f37 bf29 1302
00000320: f810 1682 966f 2db0 5ed3 ceb9 004b 14b6
00000330: f279 0638 e135 1e82 ee22 13b8 e643 1e02
00000340: 92cd 1d02 a5d4 86b8 2806 1902 42b5 c8b8
00000350: 1a56 29b9 6446 e5b9 5161 1602 58bd 1002
00000360: 6fd2 1002 b3c9 1502 024e 1082 6099 8139
00000370: 5e1d 1c82 2aa9 fa37 06ee 97b7 0e63 bd37
00000380: 7403 1102 4482 1682 545e 1882 86e7 1702
00000390: bba3 1502 9d10 6fb8 6718 bcb5 f81e d435
000003a0: 3e4d 1c02 c782 abb7 942d 0738 9c9c 1502
000003b0: 2ecf 1402 b26a 76b1 7025 1039 ce96 42b7
000003c0: 6ce9 2939 a34a 1202 f078 1bb9 ef5f 1402
000003d0: 11f2 1c82 49b3 8a37 a6cf 1402 e517 feb7
000003e0: 7cde a038 9381 cb38 cecc 1002 bb8d 1102
000003f0: 0111 1382 40c6 1c02 2ea6 1b82 ad2c c939
