models/vae-v8-epoch=3-val_loss=0.013655.ckpt (torch, 65110 bytes, 42 tensors)

encoder.0.weight f4 [32, 36]
0	0xbdc541cd	-0.09631691
1	0x3ddabecf	0.10680925
2	0xbdabf372	-0.08396043
3	0x3da0cc14	0.07851425
4	0x3e5bac97	0.21452557
5	0xbe51b3df	-0.20478772
6	0x3e59aab6	0.21256527
7	0xbe50b1b9	-0.20380296
8	0x3ebea98c	0.3723873
9	0xbe8d0e40	-0.27549934
10	0xbe6d78d1	-0.23190619
11	0x3e770392	0.24122456
12	0x3e17336b	0.14765708
13	0xbdc98553	-0.09839883
14	0x3e7a5db4	0.24449807
15	0xbe06cb33	-0.13163452
16	0x3e835483	0.25650415
17	0xbe7ae7d5	-0.245025
18	0x3e2387ce	0.15969774
19	0xbe22be65	-0.15892942
20	0x3dd5c67f	0.10438251
21	0xbde26139	-0.110537
22	0xbd9075b9	-0.07053704
23	0x3d9c9f90	0.07647622
24	0x3ddb90f5	0.10721008
25	0xbdab927a	-0.083775476
26	0x3cc7dedc	0.02439826
27	0xbc32e600	-0.010919094
28	0x3d567686	0.052359127
29	0xbd4ac511	-0.049504343
30	0xbe8bbb75	-0.27291456
31	0x3e89ed63	0.26938924
32	0xbd1bd1d3	-0.0380419
33	0x3d29d800	0.04146576
34	0xbbde6489	-0.006786887
35	0x3c9aead6	0.018910807
36	0xbd7f1bf6	-0.062282525
37	0x3d9123ae	0.070868835
38	0x3dd76b84	0.10518554
39	0xbdc0f23c	-0.094212025
40	0xbd975d74	-0.07390872
41	0x3db8c834	0.09022561
42	0xbe4af12b	-0.19818561
43	0x3e4c3181	0.19940759
44	0xbe992f25	-0.2991878
45	0x3e91c9af	0.28474185
46	0x3e3583d5	0.17726071
47	0xbe28d8f0	-0.16489005
48	0xbe90f256	-0.28309888
49	0x3ea2cef2	0.31798512
50	0xbe55f0a9	-0.20892586
51	0x3e333446	0.1750041
52	0xbdcb3a56	-0.09923236
53	0x3dea00c7	0.114259295
54	0x3be5d2c3	0.00701365
55	0x3ae69a30	0.0017593559
56	0xbd39a188	-0.045320064
57	0x3da5c069	0.0809334
58	0x3d983db7	0.07433646
59	0xbd6004e2	-0.054692157
60	0x3d1a9e19	0.03774843
61	0xbd376fe6	-0.04478445
62	0xbd815eef	-0.06316935
63	0x3cd2095d	0.02563923
64	0xbdc03ce6	-0.093866155
65	0x3debee3e	0.115200505
66	0x3cc5f2b5	0.024163583
67	0xbca0047e	-0.019533392
68	0xbe130f77	-0.14361368
69	0x3e0dffc5	0.138671
70	0x3dc5138b	0.09622868
71	0xbd84f893	-0.06492724
72	0x3e1a853f	0.15089892
73	0xbe288d56	-0.16460165
74	0x3d1d21b6	0.038362227
75	0xbd19c4c0	-0.03754115
76	0xbc62f46d	-0.013852221
77	0x3c9aa8c4	0.018879302
78	0xbdabacae	-0.083825454
79	0x3db27caa	0.08715184
80	0xbea2b040	-0.31775093
81	0x3ea28a54	0.3174616
82	0x3d089821	0.033348206
83	0xbd2b7455	-0.04185899
84	0xbe8f46a4	-0.27983582
85	0x3ea26f20	0.31725407
86	0xbe424fb3	-0.18975715
87	0x3e0c90c3	0.13727097
88	0x3bc72db5	0.0060784467
89	0x3bc4f54d	0.0060106874
90	0x3e8139f2	0.2523952
91	0xbe68ae0c	-0.22722644
92	0x3e9f3034	0.31091464
93	0xbe848685	-0.2588388
94	0xbdc5c6e2	-0.096570745
95	0x3dea4386	0.1143866
96	0x3e136fd4	0.14398128
97	0xbe0a4281	-0.13501932
98	0x3dfded2f	0.12398755
99	0xbda4932e	-0.08035885
100	0x3cd60db7	0.026129587
101	0x3b72644a	0.0036986046
102	0xbcf3ffd8	-0.029785082
103	0x3ccbd391	0.024881156
104	0xbc19ae88	-0.00937999
105	0x3d13fa9f	0.036127683
106	0xbcdd1c9e	-0.026991185
107	0x3cffe2da	0.031236101
108	0xbd8af914	-0.06785789
109	0x3d971f87	0.0737906
110	0xbc287a3d	-0.01028305
111	0x3b6bfc42	0.0036008512
112	0xbe351fb6	-0.17687878
113	0x3e3de21d	0.18543287
114	0x3dbbfa2b	0.09178575
115	0xbd88e35c	-0.0668399
116	0x3e23d404	0.15998846
117	0xbe16041e	-0.14650008
118	0x3e07b721	0.13253452
119	0xbe009de2	-0.12560228
120	0x3f00c01f	0.50293154
121	0xbeecd8c6	-0.46259135
122	0x3dbf5ccf	0.09343874
123	0xbe2c4b02	-0.16825488
124	0xbd8a5160	-0.06753802
125	0x3d985e7e	0.07439898
126	0xbd97926e	-0.07400976
127	0x3d910993	0.07081904
128	0x3d8af86a	0.067856625
129	0xbd843f4c	-0.064573854
130	0x3e0e2eaf	0.13884996
131	0xbe049add	-0.129497
132	0xb9969aeb	-0.00028725652
133	0xbc2a686c	-0.010400873
134	0x3de6a1e7	0.11261349
135	0xbdc310a1	-0.09524656
136	0x3c2a37c5	0.010389273
137	0xbad5c793	-0.0016310088
138	0x3bdcf23d	0.0067427442
139	0xbc4d5c82	-0.012534263
140	0xbca3318f	-0.019921092
141	0x3ce4f5c9	0.02794923
142	0x3dc97d9b	0.098384105
143	0xbdc68ef5	-0.09695236
144	0x3d05707b	0.032577973
145	0xbcede5b7	-0.0290402
146	0x3cbb77aa	0.022884209
147	0xbcab5556	-0.020914715
148	0xbdae6548	-0.085154116
149	0x3db45680	0.08805561
150	0xbed74b35	-0.42049566
151	0x3ed2051a	0.41019517
152	0xbec87c40	-0.39157295
153	0x3ec107d4	0.37701285
154	0xbcf47ae5	-0.029843757
155	0x3d06c7e3	0.03290547
156	0xbdf0676f	-0.117384784
157	0x3dfaa890	0.12239182
158	0xbee3c52a	-0.44486362
159	0x3ee38306	0.444359
160	0xbe68c312	-0.22730663
161	0x3e629404	0.22126776
162	0xbe71f16d	-0.23627253
163	0x3e5f2f37	0.21795355
164	0xbdb06f7f	-0.08615016
165	0x3da320e4	0.07965258
166	0xbc7564b5	-0.014977624
167	0x3c908273	0.017640328
168	0xbc0f9436	-0.008763364
169	0x3c154466	0.009110546
170	0xbda14aee	-0.0787562
171	0x3d92f262	0.07175137
172	0x3c83d04d	0.016090536
173	0xbc3db9d3	-0.0115799485
174	0x3df187a4	0.117934495
175	0xbdef6c50	-0.11690581
176	0x3d6988d4	0.057015255
177	0xbd6f8b3d	-0.058482397
178	0x3e29f357	0.16596733
179	0xbe2b6e18	-0.16741216
180	0xbd653351	-0.055957142
181	0x3dad3fbd	0.08459423
182	0x3cf8394a	0.030300755
183	0xbcb2b4f2	-0.021814797
184	0x3de69b35	0.11260072
185	0xbda14d93	-0.07876124
186	0xbe4cc625	-0.19997461
187	0x3e5f3673	0.21798114
188	0xbe272d0e	-0.16325781
189	0x3e267537	0.16255651
190	0xbd3215a6	-0.043477677
191	0x3d243a48	0.040094644
192	0xbe620ac2	-0.22074416
193	0x3e56b03e	0.20965669
194	0xbed652c4	-0.4186002
195	0x3ec5f609	0.38664272
196	0x3e21e3e5	0.15809591
197	0xbe2a93d0	-0.16657948
198	0x3d89215a	0.066958144
199	0xbd1e3a55	-0.03862985
200	0x3b46b85b	0.0030322287
201	0x3bc1b86b	0.005911877
202	0x3dea26f9	0.11433215
203	0xbddc4bf0	-0.107566714
204	0x3d7d5a60	0.061853766
205	0xbd87aac6	-0.06624369
206	0x3d131063	0.0359043
207	0xbbf2f976	-0.007414992
208	0x3ddf5253	0.10904374
209	0xbdc292dc	-0.095006675
210	0x3db60719	0.088880725
211	0xbdb7351c	-0.08945677
212	0x3d81312c	0.06308207
213	0xbd753564	-0.05986537
214	0xbe2f924b	-0.1714565
215	0x3e4ab416	0.1979526
216	0x3de02f13	0.10946479
217	0xbdf07442	-0.117409244
218	0xbdca24e6	-0.09870319
219	0x3dc97ca4	0.098382264
220	0x3e7d85ca	0.24758068
221	0xbe829386	-0.25503176
222	0x3ead047c	0.33792484
223	0xbebad3d5	-0.3648974
224	0x3ec6a1df	0.38795373
225	0xbecea5bd	-0.40360823
226	0xbe96c4ef	-0.29447123
227	0x3e975734	0.29558718
228	0x3c84cfea	0.016212422
229	0xbc833b8b	-0.016019603
230	0xbd459cb9	-0.048245165
231	0x3d5810e0	0.05275047
232	0x3e271f7d	0.16320606
233	0xbe3028ce	-0.17203066
234	0x3dd7593f	0.10515069
235	0xbddbdd60	-0.10735583
236	0x3d6b2a52	0.057413407
237	0xbd5f4ab2	-0.054514594
238	0xbdb87c0e	-0.090080366
239	0x3dc190e1	0.094514616
240	0xbd864259	-0.065556236
241	0x3d8dcac7	0.06923442
242	0x3d49e321	0.049288873
243	0xbd232cfa	-0.039837815
244	0xbd94d9f8	-0.07268137
245	0x3d9b1c8c	0.07573804
246	0xbcd0cdc0	-0.025488734
247	0x3cca6b36	0.024709325
248	0x3d81acdd	0.06331799
249	0xbd8c38cf	-0.06846773
250	0xbd9a3f80	-0.07531643
251	0x3d9012e7	0.07034855
252	0x3d999b85	0.07500366
253	0xbd97f5c7	-0.07419925
254	0xbc16802f	-0.009185835
255	0x3bf4ebeb	0.0074744127

encoder.0.bias f4 [32]
0	0xbcca846a	-0.024721343
1	0xbeaabe55	-0.33348337
2	0x3e97d5e5	0.29655376
3	0xbe7de50c	-0.24794406
4	0xbeba0ac1	-0.3633633
5	0xbdc56272	-0.096379176
6	0x3b6d0258	0.0036164727
7	0xbea13f4f	-0.31493613
8	0xbf37383e	-0.71570194
9	0xbea3a492	-0.31961495
10	0xbc55e0f0	-0.013054118
11	0x3e1167e9	0.14199795
12	0x3e65d66c	0.22445077
13	0xbd84128e	-0.064488515
14	0xbe800aec	-0.25008333
15	0xbe4f7d20	-0.20262575
16	0xbdae9bc7	-0.08525806
17	0x3eade6eb	0.3396524
18	0xbe3e0be0	-0.18559217
19	0xbec42ac6	-0.38313884
20	0x3ca616db	0.02027457
21	0x3e477c96	0.1948112
22	0xbeba05dc	-0.36332595
23	0xbf039373	-0.51396865
24	0xbe700f60	-0.23443365
25	0xbf63f98b	-0.8905265
26	0xbda17b8a	-0.07884891
27	0x3e89693f	0.2683811
28	0xbe094867	-0.13406526
29	0x3cd1a2c6	0.025590312
30	0xbeb082a5	-0.34474674
31	0xbf10da75	-0.5658334

encoder.2.weight f4 [16, 32]
0	0x3e060d93	0.13091116
1	0xbc387289	-0.011257776
2	0xbcf08cd7	-0.029364033
3	0x3d8e6dc0	0.06954527
4	0xbe14922f	-0.1450889
5	0xbc9a91fe	-0.018868443
6	0x3d749d19	0.059720132
7	0xbdb36ec2	-0.0876136
8	0x3da00d91	0.078150876
9	0xbb5336cf	-0.0032228713
10	0xbb2cc293	-0.0026361092
11	0xbc3552ed	-0.011067134
12	0xbdb512ab	-0.08841451
13	0x3e005ab9	0.12534608
14	0xbb4ff471	-0.0031731392
15	0x3c047577	0.008084646
16	0xbccda46c	-0.025102817
17	0xbd470071	-0.048584405
18	0xba402a18	-0.0007330491
19	0x3b18fa24	0.0023342455
20	0x3d4baef5	0.0497274
21	0x3c4aef28	0.012386121
22	0xbb2a6335	-0.0025999073
23	0x3c7b15e9	0.015325048
24	0x3ba98c3a	0.005174187
25	0x3d030848	0.03199032
26	0x3cd26acf	0.025685696
27	0x3b3f1dae	0.0029161978
28	0xbc77bb6f	-0.015120371
29	0xbb2d1a9b	-0.0026413563
30	0xbb9783b4	-0.0046238545
31	0xbc1afd74	-0.009459842
32	0x3c207dcf	0.00979562
33	0xbb1cae91	-0.002390776
34	0x3c956074	0.018234469
35	0x3bef2cfa	0.007299063
36	0xbbb243a1	-0.005440191
37	0x3b6b664f	0.0035919135
38	0x3c2bd62a	0.010488072
39	0xbc6748d7	-0.0141164875
40	0x3c33cbd7	0.010973892
41	0x3d306dba	0.043073393
42	0x3c1801b6	0.009277752
43	0x3c408414	0.01175024
44	0xbc35a2c3	-0.011086169
45	0xbc1928e6	-0.00934813
46	0x38507e2e	4.970858e-05
47	0x3b9460bd	0.0045281337
48	0xbaa3d7b0	-0.0012500193
49	0xbc92ecbf	-0.017935155
50	0x3bc2992d	0.00593867
51	0x3ad3dea5	0.0016164376
52	0xbb88857a	-0.0041663023
53	0xbc82cc00	-0.015966415
54	0x3a3e8540	0.00072677806
55	0xba8ddd85	-0.0010823464
56	0x3b12f39b	0.0022423032
57	0x3accdef4	0.001563041
58	0x3c3164da	0.010827268
59	0xba09fb77	-0.00052636064
60	0x3c8b41b9	0.016999112
61	0xbc423200	-0.011852741
62	0x3c7bfa70	0.015379533
63	0xbbc84b9b	-0.0061125285
64	0x3d67dfc4	0.056609884
65	0xbc71ffec	-0.014770489
66	0xbbba8aad	-0.005692801
67	0xbd85d83c	-0.06535384
68	0xbd8ecb4b	-0.06972369
69	0xbb3fc067	-0.0029258968
70	0x3d6cb7be	0.057792418
71	0x3df9e477	0.12201779
72	0x3ca50861	0.020145597
73	0xbb6e3adb	-0.0036350999
74	0xbcc0e153	-0.023544943
75	0x3c389228	0.011265315
76	0xbc87fd1f	-0.01660019
77	0xbe568b07	-0.20951472
78	0x3c1f10e2	0.009708615
79	0xbc0f15eb	-0.008733253
80	0x3d01740f	0.031604823
81	0xbd9cbc91	-0.07653154
82	0xbbfb14f1	-0.0076624085
83	0xbc2e2c75	-0.010630717
84	0xbcef7859	-0.02923219
85	0xbc740661	-0.014894099
86	0x3be2938e	0.0069145625
87	0x3e070531	0.13185574
88	0xbc0e5f50	-0.008689716
89	0xbd8d6e43	-0.069057964
90	0x3cc74176	0.024323206
91	0xbdafae22	-0.08578135
92	0x3c738250	0.014862612
93	0xbc3313ea	-0.010930041
94	0x3c9cf6e2	0.019160692
95	0xbdead6fe	-0.11466788
96	0x3aefc19c	0.0018291953
97	0xbbb7cd87	-0.0056092176
98	0xbc90500c	-0.017616294
99	0x3c44a92c	0.012003224
100	0x3cab58f8	0.020916447
101	0xbbea7fe4	-0.007156359
102	0xbc1a1b96	-0.009405991
103	0x3ce6a9c6	0.028157126
104	0x3c2a9a22	0.010412725
105	0x3b2e1094	0.0026560174
106	0x3c52938e	0.012852563
107	0xbc16b76b	-0.009199004
108	0xbdaaf8fd	-0.08348272
109	0x3da20c39	0.079124875
110	0x3b4135e0	0.0029481575
111	0xba3edd9d	-0.0007280948
112	0xbd2a9f61	-0.0416559
113	0xba55fbf9	-0.0008162852
114	0xbab8b995	-0.0014093394
115	0x3c0c0dfd	0.008548257
116	0x3c7e30c1	0.0155145535
117	0xba8b0c8c	-0.0010608598
118	0x3b695f57	0.0035609805
119	0xbe41776f	-0.18893217
120	0x3b0d335c	0.0021545505
121	0xbbd29e7c	-0.006427584
122	0xbc2b7e66	-0.010467147
123	0xbbc3307e	-0.0059567085
124	0xbba77088	-0.0051098503
125	0xbb0a1ad6	-0.0021073124
126	0x3bcb3a21	0.006201998
127	0xbd9d70ff	-0.07687568
128	0x3d1cd126	0.038285397
129	0xbd0f18b4	-0.034935668
130	0xbcd5b12b	-0.026085457
131	0xbcad6797	-0.02116756
132	0x3ddd7019	0.108123966
133	0xbae86653	-0.001773069
134	0xbba11352	-0.0049156332
135	0xbda37cfe	-0.07982825
136	0x3c8861a1	0.016648116
137	0xbc3c7c4a	-0.011504242
138	0x3bb044da	0.0053793015
139	0xbba9c912	-0.00518144
140	0xbb2e6946	-0.002661304
141	0xbd0e98c5	-0.03481366
142	0xbc9b42ed	-0.018952811
143	0xbd0a34d1	-0.033741776
144	0x3c6927d1	0.014230684
145	0xbb61af9c	-0.0034436947
146	0xbaf72b09	-0.001885743
147	0x3c73032a	0.014832297
148	0x3ca27ac9	0.01983394
149	0x3c3818f7	0.011236421
150	0xb98e7369	-0.00027170338
151	0x3e15d772	0.14632967
152	0x3c79ebab	0.0152539415
153	0xbc3e5dac	-0.011619013
154	0xbbf70278	-0.007538136
155	0xbd4c9103	-0.04994298
156	0x3c1e465a	0.009660328
157	0xbcfabf3e	-0.03060877
158	0xbcaa04fe	-0.020754334
159	0xbde8671d	-0.11347792
160	0x3d386884	0.04502155
161	0xbc622baa	-0.013804356
162	0xba0b2a78	-0.00053087575
163	0x3d010445	0.031498212
164	0xbd398864	-0.045296088
165	0xbb467053	-0.0030279353
166	0xbde0cb34	-0.10976258
167	0x3dfde6aa	0.12397511
168	0xbcc7d596	-0.024393838
169	0x3c35888e	0.01107992
170	0xbd16144f	-0.03664046
171	0x3ac6ca44	0.0015166481
172	0xbe0c4b0c	-0.13700503
173	0xbd5a1690	-0.053244174
174	0xbc4a24b5	-0.012337853
175	0xbd09b5e0	-0.033620715
176	0xbc05ade6	-0.008159136
177	0xbbcf2862	-0.0063219527
178	0xbc2a40dd	-0.010391441
179	0xba77dcba	-0.0009455193
180	0xbd8e6be9	-0.06954176
181	0xbbd35792	-0.006449648
182	0xbba83ccc	-0.0051342007
183	0xbca57f6b	-0.02020236
184	0xbb05c8b7	-0.0020413825
185	0xbcab978f	-0.020946292
186	0xbb1d3413	-0.0023987337
187	0xbc063852	-0.008192139
188	0xbbd47e7d	-0.006484805
189	0x3c853b41	0.016263606
190	0x3c263c70	0.010146245
191	0xbd0a553b	-0.03377269
192	0xbdafa50c	-0.08576402
193	0xbca716a5	-0.02039654
194	0x3ccea95a	0.025227237
195	0xbc13f5f3	-0.009030807
196	0x3d9b8525	0.07593755
197	0x3b3231aa	0.0027190247
198	0xbe20bfef	-0.15698217
199	0x3d791082	0.06080676
200	0xbd8039e2	-0.0626104
201	0xbc07276f	-0.008249148
202	0xbba27d31	-0.0049587716
203	0x3ce07732	0.027400587
204	0x3be406ee	0.006958834
205	0xbd8af1e5	-0.06784419
206	0xb92ad250	-0.00016290811
207	0x3b487b6c	0.0030591143
208	0xbc90503f	-0.01761639
209	0x3d3144e2	0.043278582
210	0xbc5a02a6	-0.0133062955
211	0x3c8c61ab	0.017136415
212	0xbcd71a52	-0.026257668
213	0xbc3ae9a7	-0.011408246
214	0x3b4b5728	0.003102729
215	0xbe0e5865	-0.13900907
216	0xbc4b14dc	-0.01239511
217	0xbd0266ee	-0.031836443
218	0x3ce2ccd6	0.027685564
219	0xbcaad8cf	-0.020855336
220	0xbc26bfce	-0.010177566
221	0x39c7567c	0.00038020674
222	0xb9e6cb51	-0.000440205
223	0x3c7bbf75	0.015365471
224	0xbcbbd9bc	-0.022930972
225	0x3cccc686	0.024997007
226	0x3c8b2b7c	0.016988508
227	0x3c62e988	0.0138496235
228	0x3cc2e6bf	0.023791669
229	0xbb439278	-0.002984194
230	0xbcd2507e	-0.025673147
231	0x3bbde48c	0.005795067
232	0x3a4680dd	0.0007572303
233	0x3c55d4d5	0.013051231
234	0xba406673	-0.0007339485
235	0xbbef3ba6	-0.007300812
236	0xbca5629d	-0.020188624
237	0x3dde66c7	0.10859447
238	0xbc23afe2	-0.009990664
239	0xbafda827	-0.0019352481
240	0xbd33d156	-0.04390081
241	0x3d022b59	0.03177962
242	0xbbb97f74	-0.0056609455
243	0x3bdc57e2	0.0067243436
244	0xbb147a9f	-0.0022656096
245	0x3b597fb3	0.0033187687
246	0xbbef8f68	-0.0073107965
247	0x3d961e84	0.07330039
248	0x3c863f2d	0.016387546
249	0x3ca2af5f	0.019859014
250	0xba43e08d	-0.00074721203
251	0x3d2b55d0	0.041829884
252	0x3be49be7	0.006976593
253	0xbae4f3a2	-0.0017467628
254	0xbb14cf23	-0.002270647
255	0x3d8a476a	0.067519024

encoder.2.bias f4 [16]
0	0x3c16ebd2	0.009211497
1	0xbca0c6bb	-0.019626012
2	0xbd8e2ee7	-0.0694254
3	0xbe7c0430	-0.24610972
4	0x3a963d5b	0.0011462377
5	0xbc283460	-0.010266393
6	0xbda2dc77	-0.079522066
7	0xbd719391	-0.05897862
8	0xbda973c2	-0.08274032
9	0xbc10a53d	-0.008828458
10	0xbb88a68e	-0.0041702455
11	0xbe292e7d	-0.1652164
12	0xbe034113	-0.12817793
13	0xbc4af52e	-0.012387557
14	0xbd060363	-0.032718074
15	0xbd3a9efa	-0.045561768

mean_layer.weight f4 [4, 16]
0	0xbc433419	-0.0119142765
1	0xbb1890b7	-0.0023279616
2	0xbb0fad20	-0.002192326
3	0x3aae2625	0.0013286514
4	0x3b4330fc	0.0029783836
5	0x3b0565bf	0.0020354835
6	0x3c285649	0.010274478
7	0x3aa171c7	0.0012317233
8	0xbaa9b880	-0.0012948662
9	0x3b38aded	0.002817984
10	0xbb17c5bd	-0.0023158633
11	0xba01c6c3	-0.0004950577
12	0xbc0d5886	-0.008627063
13	0x3b44f492	0.0030053002
14	0xbabd1a17	-0.0014427331
15	0x3b308ef9	0.0026940687
16	0x3bc1794a	0.0059043514
17	0x3c498e6d	0.012302023
18	0x3e0f7062	0.14007714
19	0xbb29cf14	-0.0025910782
20	0x3b062961	0.002047144
21	0x3be87b8e	0.007094807
22	0xbc9f4b84	-0.019445188
23	0x3c9554f2	0.018228982
24	0xbd263cb4	-0.040585235
25	0x3a696970	0.0008903956
26	0x399bcfde	0.00029718777
27	0x3d270cb2	0.04078359
28	0xbd1edcf4	-0.038784936
29	0x3b922ea9	0.0044611287
30	0xbc5cbd2a	-0.013472835
31	0xbba50151	-0.0050355573
32	0x3b5e0f7d	0.0033883743
33	0x3a5af5cf	0.00083526684
34	0xbd0db8c9	-0.034600053
35	0x3d546cd1	0.051861588
36	0x39840901	0.0002518371
37	0x3a948058	0.0011329753
38	0x3c4788f3	0.012178647
39	0xbcb2511a	-0.021767188
40	0x3b1a42bf	0.002353832
41	0xb776e008	-1.4714904e-05
42	0xbb04d807	-0.0020270364
43	0x3c207d51	0.009795503
44	0xbdcb4606	-0.09925465
45	0x3b6b2f8a	0.003588649
46	0x3d1af846	0.03783443
47	0x3b314fd2	0.0027055633
48	0xbd6ac657	-0.057318058
49	0xba9205d4	-0.0011140653
50	0x3b9d659e	0.0048033735
51	0x3b6a8149	0.0035782626
52	0x3cad57b4	0.021159984
53	0x3cdb5d83	0.026777988
54	0x3ca48f4e	0.020087864
55	0x3c8bb4c5	0.017053971
56	0xbc4cc7fd	-0.012498853
57	0xbae633fa	-0.0017563098
58	0xbb0cec8f	-0.0021503305
59	0x3b78474f	0.00378843
60	0xbd0fdafb	-0.035120945
61	0xb88ff684	-6.8646885e-05
62	0xba4e509e	-0.0007870289
63	0x3c987cf0	0.018614262

mean_layer.bias f4 [4]
0	0xb6959280	-4.457601e-06
1	0x3b4e3704	0.0031465897
2	0xbba891a3	-0.0051443144
3	0x3a2fc92c	0.0006705697

logvar_layer.weight f4 [4, 16]
0	0xbad0e53d	-0.0015937459
1	0xbb005c2b	-0.0019586186
2	0x3b6487df	0.0034871025
3	0x3aa9ce19	0.0012955099
4	0xbc3d37be	-0.0115489345
5	0x3b920698	0.0044563524
6	0xbc8344a6	-0.016023945
7	0xbb498466	-0.0030749082
8	0x38bc9d08	8.993788e-05
9	0xbb438b77	-0.0029837766
10	0xba91dca8	-0.0011128383
11	0x39b55482	0.00034585973
12	0xbafe71d4	-0.0019412586
13	0xbafd069c	-0.0019304338
14	0xbb5f15ce	-0.0034040096
15	0xbbd3fd0a	-0.0064693736
16	0x3adf01d2	0.0017014092
17	0x3b31e387	0.0027143674
18	0xbb02cfeb	-0.0019960355
19	0xba9d76db	-0.0012013571
20	0xbad72976	-0.0016415555
21	0x38b33d9e	8.546862e-05
22	0x3b00857d	0.0019610815
23	0xba9c279b	-0.0011913659
24	0x3ae57190	0.0017505158
25	0xbaa019a1	-0.0012214669
26	0x3a73c3d4	0.0009298895
27	0x3acae816	0.0015480544
28	0xba2b370e	-0.0006531336
29	0x3b7ac91a	0.0038266839
30	0xba64290d	-0.0008703627
31	0xbb6c6f5e	-0.0036077122
32	0x39937bd2	0.00028130278
33	0x3b7a930f	0.0038234626
34	0xba17b324	-0.0005786887
35	0x3add1552	0.0016867316
36	0xbb4c119a	-0.003113842
37	0x3a619e08	0.00086066173
38	0xbb3a5924	-0.002843448
39	0x3a91aa26	0.001111333
40	0x3b5a8c73	0.0033347874
41	0x39a5ec91	0.00031647508
42	0xbb1ff816	-0.0024409345
43	0xbac6d3a8	-0.001516928
44	0xba1c1818	-0.0005954518
45	0xbb549adc	-0.0032440936
46	0xba2ff5d5	-0.0006712352
47	0x3aa66efc	0.0012697871
48	0xb8dee403	-0.000106282554
49	0xbbe3e78f	-0.006955094
50	0xba9ec811	-0.0012114068
51	0xbb6536d9	-0.0034975319
52	0x3b1c9348	0.0023891497
53	0x3b81af33	0.003957653
54	0xba387763	-0.0007036833
55	0x3b68ac13	0.0035502955
56	0x3b8188e6	0.003953087
57	0xbb62072d	-0.003448914
58	0xbbe2976d	-0.006915024
59	0x3bdad424	0.006678121
60	0x3aa29966	0.0012405335
61	0xbc442d1f	-0.011973648
62	0xbb10114a	-0.0021982961
63	0xbb99ff6c	-0.004699638

logvar_layer.bias f4 [4]
0	0x3a7c82e0	0.0009632539
1	0xb7e928a0	-2.7794682e-05
2	0xb6202b70	-2.3867142e-06
3	0xba7b4730	-0.0009585498

decoder.0.weight f4 [16, 4]
0	0x3efeda55	0.4977595
1	0x4020a58f	2.510105
2	0x40a72754	5.223551
3	0x3fd63038	1.6733465
4	0xbf1c88e6	-0.6114639
5	0xc054b64e	-3.323627
6	0x40008cb5	2.008588
7	0xc0b33197	-5.5998034
8	0xbf4168b6	-0.755504
9	0x40934aa5	4.602862
10	0xc021ef51	-2.5302317
11	0xc015290c	-2.3306303
12	0xbf280f56	-0.656484
13	0xbf84633d	-1.0342785
14	0xc09fd529	-4.9947705
15	0xbf7b47bc	-0.9815633
16	0xbf75c8ad	-0.9600933
17	0xbf632eb4	-0.8874314
18	0x40c92fcd	6.287085
19	0xbf871496	-1.0553157
20	0xbd0e6083	-0.03476001
21	0xbe0957d8	-0.13412416
22	0x409af6cb	4.842626
23	0xbf724d2b	-0.94649
24	0xbfb7e900	-1.4367981
25	0xc090c08f	-4.5235057
26	0x4051a50d	3.275699
27	0xc0acf421	-5.404801
28	0xbf4b3d8e	-0.793908
29	0xbf4e6d34	-0.8063538
30	0x40978a4d	4.7356324
31	0xc0e2c14d	-7.0860963
32	0x3f9617ea	1.1726048
33	0x40723057	3.7842004
34	0x4094cb8c	4.649847
35	0x4087f9f6	4.249263
36	0x3ec8db07	0.39229605
37	0x40032ac1	2.0494845
38	0x40b88bc9	5.7670636
39	0x401c3621	2.4408038
40	0x3f692623	0.91073817
41	0x3eaa4531	0.33255914
42	0x40967fcc	4.7031
43	0x405093ae	3.2590137
44	0x3f3b50dc	0.73170257
45	0xc0fb3888	-7.850651
46	0x3f8d9400	1.1060791
47	0x400b2809	2.1743186
48	0x3f3faec4	0.74876046
49	0x3fe7b1e4	1.8101163
50	0x40c2a602	6.0827646
51	0x3fd4edb9	1.6635047
52	0xbf3080d4	-0.68946576
53	0xbf635176	-0.88796175
54	0x40a5927b	5.174131
55	0xbf1c26f1	-0.6099692
56	0xbef1ce94	-0.4722792
57	0xbf49dc71	-0.7885199
58	0x40a5bbdb	5.1791816
59	0xc0374f08	-2.8641987
60	0xbe92bbd1	-0.28658918
61	0x3f508bd9	0.8146339
62	0xc094a931	-4.6456532
63	0x408ba439	4.3637967

decoder.0.bias f4 [16]
0	0x3d44cc79	0.048046563
1	0xbe1aed46	-0.15129575
2	0xbcca2ebf	-0.024680493
3	0xbd601b08	-0.05471328
4	0x3deb8d5f	0.11501574
5	0xbea051d7	-0.3131244
6	0xbe54c0f4	-0.20776731
7	0x3daee643	0.08540013
8	0x3e83b38c	0.2572292
9	0x3e15bb42	0.14622214
10	0xbe7d7a17	-0.24753605
11	0x3d9b432a	0.0758117
12	0x3e935510	0.28775835
13	0xbdfb9814	-0.12284866
14	0x3e033b0d	0.12815495
15	0xbd87ee34	-0.066372305

decoder.2.weight f4 [32, 16]
0	0x3e8ea07c	0.27856815
1	0x3e3ed279	0.18634976
2	0xbbaddf61	-0.00530617
3	0xbf862be3	-1.0482143
4	0x3f145bdd	0.5795267
5	0x3eaa1096	0.3321578
6	0x3e181b3e	0.14854142
7	0x3c9c3a14	0.019070663
8	0x3e7204a6	0.23634586
9	0x3ed57ddc	0.41697586
10	0xbd1388f4	-0.03601928
11	0x3c2e36c1	0.010633172
12	0x3e90253d	0.2815341
13	0x3e957dcc	0.29197538
14	0x3ee505df	0.44731042
15	0xbeae16e6	-0.34001845
16	0xbd95df45	-0.07317976
17	0xbe800136	-0.25000924
18	0xbf5c4b9a	-0.8605286
19	0x3ecf1ec4	0.4045316
20	0xbeb34235	-0.3501145
21	0xbe0ac9d6	-0.13553557
22	0xbda44c2a	-0.0802234
23	0xbe970525	-0.29496112
24	0xbdcff7ba	-0.10154672
25	0x3e33ce80	0.17559242
26	0xbe2c5e93	-0.16832952
27	0x3edeea31	0.4353805
28	0xbe1d1563	-0.1534019
29	0xbf0755c6	-0.52865255
30	0xbe14ee7b	-0.14544098
31	0x3e748f22	0.23882726
32	0xbd93d2b3	-0.07217922
33	0x3f1c7366	0.61113584
34	0xbf7453a3	-0.9544012
35	0xbec3fe13	-0.3827978
36	0x3f110525	0.56648475
37	0x3e993c2f	0.2992873
38	0x3eed46c2	0.46343046
39	0x3dfeb0e0	0.1243608
40	0xbcfbac52	-0.030721817
41	0xbe271f7c	-0.16320604
42	0x3e91e114	0.28492033
43	0x3f14833d	0.58012754
44	0x3e2226f5	0.15835173
45	0x3f08c58d	0.5342644
46	0x3e9bc29f	0.30421922
47	0xbe7fe98f	-0.2499144
48	0x3ea0e3fa	0.31423932
49	0xbdf38911	-0.11891378
50	0xbf23d762	-0.64000523
51	0xbed21d09	-0.41037777
52	0x3e9489bf	0.29011342
53	0x3e63c8f4	0.22244626
54	0x3df9a845	0.12190298
55	0xbd9dfd52	-0.07714333
56	0x3d8c47a1	0.068496
57	0x3ebdd3e1	0.37075713
58	0x3dbf38a2	0.09336974
59	0x3ddea08a	0.10870464
60	0x3d34aaa1	0.044108037
61	0x3e27fc28	0.16404784
62	0x3e64c328	0.22340071
63	0xbe448b61	-0.19193794
64	0x3e5c9b08	0.21543515
65	0x3b7ab0d1	0.0038252363
66	0xbecc8ab1	-0.39949563
67	0xbf5107c4	-0.81652474
68	0x3ecd2a63	0.400714
69	0x3de27144	0.1105676
70	0x3e633033	0.22186355
71	0x3e5ca2d4	0.21546489
72	0x3d857944	0.0651727
73	0x3dfb1f1e	0.122617945
74	0x3e6f4e74	0.23369771
75	0x3e0282c5	0.12745197
76	0x3ebab75a	0.3646801
77	0x3edd0f4c	0.43175733
78	0x3ee63b79	0.4496725
79	0xbee34957	-0.4439189
80	0x3da57831	0.08079565
81	0x3de8fbc0	0.113761425
82	0xbf7a7167	-0.9782929
83	0xbf38af06	-0.72142065
84	0x3f05a1a8	0.5219979
85	0x3e2ae043	0.16687112
86	0x3e66126e	0.22467968
87	0xbedbad9a	-0.42905885
88	0x3ba3614a	0.004985963
89	0x3ea36b93	0.3191801
90	0xbad052d9	-0.0015893831
91	0x3f68729c	0.9079988
92	0x3e4b36d4	0.19845134
93	0x3f2184a3	0.6309301
94	0x3ea5342d	0.3226637
95	0xbe0f2b20	-0.13981295
96	0xbf1b3c33	-0.6063873
97	0x3e47a769	0.19497456
98	0x3daebfd0	0.08532679
99	0x3f99b32f	1.2007807
100	0xbf150473	-0.58209914
101	0xbe8b885f	-0.2725248
102	0xbdf06e35	-0.1173977
103	0xbe11891a	-0.14212456
104	0xbe0d44dc	-0.13795799
105	0xbed03a4b	-0.40669474
106	0xbea981fb	-0.3310698
107	0xbd7ad5a5	-0.061238904
108	0xbe92e66c	-0.28691423
109	0xbf434a24	-0.76285005
110	0xbe07a06e	-0.13244793
111	0xbcb0e7c6	-0.021594893
112	0x3e6de6ce	0.23232576
113	0xbda4c468	-0.08045274
114	0xbeae5d9a	-0.34055787
115	0xbf089e9a	-0.53367007
116	0x3db03548	0.086039126
117	0x3e947f15	0.29003206
118	0x3da5dfe0	0.080993414
119	0x3e0e1ad0	0.13877416
120	0x3e19928b	0.14997308
121	0x3dcf42f6	0.10120194
122	0x3d6a627d	0.057222832
123	0x3e04148b	0.12898462
124	0xbd92c2e7	-0.07166081
125	0x3efb9e16	0.49144047
126	0x3e62b8a2	0.22140744
127	0xbcd26a80	-0.025685549
128	0xbe3ad785	-0.18246277
129	0x3f4048c3	0.75111026
130	0xbf6da2fa	-0.9282681
131	0xbe31e806	-0.17373666
132	0x3ecda4be	0.4016475
133	0x3d8d38c3	0.06895592
134	0x3e994ee8	0.29943013
135	0x3c33cf63	0.010974738
136	0xbc090f20	-0.0083654225
137	0xbe17895d	-0.14798494
138	0x3e95d258	0.29262042
139	0x3f68de75	0.9096444
140	0x3d7f1b61	0.06228197
141	0x3eefc6b3	0.46831283
142	0x3e9b4a3a	0.30330068
143	0xbdf8ab50	-0.1214205
144	0x3ef5bf23	0.47997388
145	0xbc9d6c46	-0.019216668
146	0x3f8028f4	1.0012498
147	0xbf3152bc	-0.6926687
148	0x3bca1e8e	0.006168193
149	0x3e828dfb	0.25498948
150	0xbe3db98e	-0.18527815
151	0xbe682668	-0.22670901
152	0x3ec19595	0.37809435
153	0x3ea96006	0.33081073
154	0x3eb911d1	0.36146405
155	0xbf505925	-0.81386024
156	0x3e366610	0.17812371
157	0x3eaa0a15	0.33210817
158	0xbe270a29	-0.1631247
159	0x3e613b83	0.21995358
160	0xbe5cbc22	-0.21556142
161	0x3efaf1a2	0.49012476
162	0xbf0fa2da	-0.56107867
163	0xbe287bd8	-0.16453493
164	0x3f072d1d	0.5280321
165	0x3d9f60c3	0.07782128
166	0x3f0db3c7	0.55352443
167	0x3e2b76c3	0.16744523
168	0xbe72f7b5	-0.23727305
169	0x3e33772c	0.17525929
170	0x3e5cef8c	0.21575755
171	0x3f3916d2	0.72300446
172	0xbe0aad4a	-0.13542667
173	0x3f208398	0.62700796
174	0x3e16d264	0.14728695
175	0xbe6b4bf7	-0.22978197
176	0xbe85c5e9	-0.26127556
177	0x3c880372	0.016603205
178	0x3d40525c	0.046953544
179	0x3e2a4078	0.16626155
180	0xbef11a6a	-0.47090465
181	0x3e0906e5	0.13381536
182	0x3b996e17	0.004682313
183	0xbe863882	-0.26214987
184	0xbda16a28	-0.07881576
185	0xbe357d3d	-0.17723556
186	0x3e31a45e	0.17347857
187	0x3c8dc172	0.017304156
188	0x3dab04a6	0.08350496
189	0xbee93a32	-0.45552212
190	0xbeae9e40	-0.3410511
191	0x3cd9f2a2	0.026604954
192	0xbdadd350	-0.0848757
193	0xbe9167f2	-0.28399616
194	0xbf1e1aa3	-0.61759394
195	0x3d4c4435	0.049869735
196	0xbdea9fee	-0.114562854
197	0xbe3d9e1a	-0.18517342
198	0x3def9a36	0.11699335
199	0xbe2877b9	-0.1645192
200	0x3cca9af3	0.024732089
201	0x3dca29f3	0.098712824
202	0x3e0a7e63	0.13524775
203	0x3f0fe4ab	0.56208295
204	0xbc91ffb7	-0.01782213
205	0xbed9048e	-0.42386287
206	0x3b9a06e3	0.004700528
207	0xbbc130b0	-0.0058956966
208	0xbd31d4cc	-0.04341583
209	0xbeb0f3e8	-0.34561086
210	0xbe878c86	-0.26474398
211	0x3f41c86d	0.7569645
212	0xbf2f2b79	-0.6842571
213	0xbee2c9fa	-0.4429472
214	0xbeb53769	-0.35393837
215	0xbf37d704	-0.7181246
216	0x3e87453e	0.26420015
217	0xbd5873b5	-0.05284472
218	0xbbffdb56	-0.0078081293
219	0x3ec64720	0.3872614
220	0xbe46cc86	-0.19413957
221	0xbf3477c2	-0.70495236
222	0xbe818363	-0.25295553
223	0x3f29f7e5	0.6639388
224	0x3e25c3ea	0.16188017
225	0xbe8806ad	-0.26567593
226	0xbf3c4976	-0.7354959
227	0xbe22ffba	-0.15917864
228	0x3bec6877	0.0072146016
229	0x3e5df767	0.21676408
230	0xbd27027f	-0.040773865
231	0xbe944aae	-0.28963226
232	0x3e7e455d	0.24831147
233	0xbd48f68b	-0.049063247
234	0x3e1a979a	0.15096894
235	0x3e3099f3	0.17246227
236	0x3dd26aa3	0.102742456
237	0x3ec729b2	0.38898998
238	0x3e6ea3d1	0.23304678
239	0x3e0bfd99	0.13670959
240	0xbc4aebe9	-0.012385347
241	0x392ae272	0.00016296821
242	0xbf7d98eb	-0.9906146
243	0x3db0475c	0.08607361
244	0xbca925b2	-0.020647857
245	0x3e4c77ab	0.19967525
246	0x3eb19c48	0.34689546
247	0xbbd79790	-0.006579347
248	0xbe3ef6b8	-0.18648803
249	0xbe219f61	-0.15783454
250	0x3e7b6e90	0.24553895
251	0x3f620cee	0.8830098
252	0x3e3cff47	0.18456756
253	0x3eb484ad	0.35257474
254	0x3e1da8c0	0.15396404
255	0xbd8e5668	-0.069500744

decoder.2.bias f4 [32]
0	0xbe80beb3	-0.25145492
1	0x3c1031ed	0.008800966
2	0xbd877aca	-0.06615217
3	0x3dab62db	0.083684646
4	0xbe4beb0f	-0.19913886
5	0xbe4c15bc	-0.19930166
6	0x3ea0c14b	0.3139747
7	0x3e2b16d9	0.16707934
8	0xbd935e5a	-0.071957305
9	0xbd8bec51	-0.06832183
10	0x3b9aeafd	0.00472772
11	0x3dae55ba	0.08512445
12	0xbdeb5024	-0.11489895
13	0x3e27d2bc	0.16388983
14	0xbdb3b92b	-0.08775552
15	0xbba7f2a3	-0.00512536
16	0xbe38113d	-0.17975326
17	0x3dcb9797	0.09941023
18	0xbd8a5d09	-0.06756026
19	0x3eb8a050	0.3605981
20	0xbdf22017	-0.11822527
21	0x3e11e8a4	0.14248902
22	0xbafb076f	-0.0019151996
23	0xbe8ae65e	-0.2712888
24	0xbe2c505f	-0.16827534
25	0x3db93354	0.09042993
26	0xbc824061	-0.015899839
27	0xbda21c59	-0.07915563
28	0x3c4a0fbe	0.012332855
29	0xbb38971d	-0.0028166242
30	0x3cb9b81a	0.022670794
31	0xbe453fe6	-0.19262657

decoder.4.weight f4 [36, 32]
0	0x3c3f7638	0.0116859
1	0xbd41bcc9	-0.04729918
2	0xbce2aa1f	-0.02766901
3	0x3d97af1f	0.074064486
4	0xbde40df7	-0.11135476
5	0xbc1f161e	-0.009709863
6	0xba9314ec	-0.0011221445
7	0x3e0c8d66	0.13725814
8	0x3e28a27c	0.16468233
9	0x3d827499	0.063698955
10	0xbd764fde	-0.06013476
11	0x3d54358d	0.051808883
12	0x3d336fcf	0.0438078
13	0xbcff35fd	-0.031153673
14	0xbdf047df	-0.11732458
15	0x3cf08da7	0.02936442
16	0x3c0b934c	0.008519005
17	0x3d24df99	0.0402523
18	0xba915181	-0.0011086912
19	0xbcbbf833	-0.022945499
20	0xbda70250	-0.08154738
21	0x3e0112fc	0.12604898
22	0x3d3aae17	0.04557618
23	0xbc8e92e4	-0.017404027
24	0xbbaccfc0	-0.005273789
25	0xbd57fbc4	-0.052730337
26	0xbdb4e6f1	-0.08833111
27	0x3c71845c	0.01474103
28	0x3d33a5cc	0.043859288
29	0x3d295d94	0.04134901
30	0x3da3efac	0.08004698
31	0x3b21c314	0.0024682926
32	0xbed88954	-0.42292273
33	0xbe36c6da	-0.17849293
34	0xbe65d4af	-0.22444414
35	0x3cfda3ae	0.030961838
36	0x3e2a44ba	0.1662778
37	0xbd91d9ac	-0.07121596
38	0x3ebf3295	0.3734328
39	0xbe2601aa	-0.16211572
40	0xbe2d9f52	-0.16955307
41	0xbe07483a	-0.13211146
42	0x3d11369d	0.035452474
43	0xbe224c6f	-0.1584947
44	0x3d9f22b0	0.07770288
45	0x3c5ccd34	0.013476659
46	0x3d2c7c7e	0.042110913
47	0xbd305812	-0.04305274
48	0x3e0e069b	0.13869707
49	0xbd9c417e	-0.07629679
50	0x3da55089	0.080720015
51	0x3ebc6248	0.36793733
52	0x3dda452d	0.106577255
53	0xbd8af6d9	-0.06785364
54	0x3d2dfecd	0.042479325
55	0x3e207a81	0.15671732
56	0xbdf7d03e	-0.12100266
57	0xbc6f2c71	-0.014597998
58	0xbdfbf733	-0.12303009
59	0xbdec2cfd	-0.11532018
60	0xbd87967f	-0.06620502
61	0xbc83bf0e	-0.016082313
62	0xbbb38f36	-0.0054797186
63	0xbadc1a4b	-0.0016792504
64	0xbc4260fb	-0.011863942
65	0x3e2c97ba	0.16854754
66	0xbb30327f	-0.0026885567
67	0xbd4d935e	-0.05018937
68	0x3cb1d66c	0.02170869
69	0xba93fef8	-0.0011291197
70	0xbb283886	-0.0025668456
71	0xbda517be	-0.08061169
72	0x3b856db2	0.0040719146
73	0xbacd4828	-0.0015661763
74	0xbaf261d3	-0.0018492289
75	0xbc0b5de8	-0.008506276
76	0x3e148aea	0.14506117
77	0x3b52cfaa	0.0032167234
78	0x3bea685f	0.0071535553
79	0xbaa1c017	-0.0012340572
80	0x3cc3cf5e	0.023902591
81	0xbbcdc7dc	-0.0062799286
82	0x3ba3c160	0.0049974173
83	0x39815cf4	0.00024674053
84	0x3d01d9b3	0.031701755
85	0xbd17b09f	-0.037033673
86	0xbe12f812	-0.14352444
87	0x3abc9347	0.0014387154
88	0x3bc0ed66	0.005887675
89	0x3c5cee11	0.013484494
90	0xbb1e4fad	-0.0024156377
91	0xbdbd5cb7	-0.092461996
92	0xbb527552	-0.0032113385
93	0xbb085299	-0.0020801185
94	0x3d3e4f4b	0.04646234
95	0xbb51402a	-0.0031929114
96	0x3c6c0b92	0.014407055
97	0x3e3d658e	0.18495771
98	0xb9f9a4b7	-0.00047615703
99	0xbd6dbf12	-0.058043547
100	0xbbe12566	-0.0068709133
101	0x3affb0c7	0.001950764
102	0x3a198fdd	0.0005857924
103	0xbce2f586	-0.027704965
104	0xba11a294	-0.0005555537
105	0xba3e31a0	-0.00072553195
106	0xb97588f4	-0.0002341604
107	0x3dc93649	0.09824807
108	0x3e41e252	0.1893399
109	0xb8fd7672	-0.00012086042
110	0xbaf4334c	-0.001863101
111	0x3902f6c5	0.00012489695
112	0xbc9b4ca1	-0.018957438
113	0x3bdbe529	0.0067106676
114	0xba2a3515	-0.0006492895
115	0x39765ecb	0.00023495701
116	0x3da727a3	0.08161857
117	0x3c8a20cb	0.01686134
118	0xbcff0f15	-0.031135121
119	0xba4cf83c	-0.0007818972
120	0xb9f509a4	-0.00046737224
121	0x3c17a439	0.009255462
122	0x3a40a14e	0.0007348255
123	0xbd221ce0	-0.03957832
124	0x39822b8d	0.0002482798
125	0x3a900db6	0.0010990414
126	0x3d9a9995	0.07548825
127	0xbbeaab75	-0.0071615526
128	0x3dce6e9a	0.10079689
129	0x3e2de5ce	0.16982195
130	0xbee922e9	-0.45534447
131	0xbca22fda	-0.019798208
132	0xbe020c2c	-0.12699956
133	0xbf0a217c	-0.53957343
134	0xbdefb4c3	-0.117043994
135	0xbd921f48	-0.07134873
136	0xbf04a643	-0.51816195
137	0x3fa38a84	1.2776647
138	0xbeb0656f	-0.34452388
139	0x3e106d2f	0.1410415
140	0xbda475a8	-0.08030254
141	0xbdcfe1ff	-0.10150527
142	0xbd6fe229	-0.058565293
143	0xbecf6a73	-0.40510902
144	0xbd49874c	-0.049201295
145	0xbe19699a	-0.1498169
146	0xbedf5d1d	-0.43625727
147	0xbd3aee82	-0.045637615
148	0xbdc2b2f9	-0.095067926
149	0x3e10f984	0.14157683
150	0xbdf29ede	-0.11846708
151	0x3ec5660c	0.38554418
152	0x3f057e30	0.5214567
153	0xbdf1792d	-0.117906906
154	0xbef47c72	-0.47751194
155	0x3e092a1e	0.13394973
156	0xbf16f506	-0.58967626
157	0x3f10aab1	0.56510454
158	0x3d82247d	0.06354616
159	0x3e632990	0.22183824
160	0x3da2d383	0.07950499
161	0xbd449031	-0.047989074
162	0x3da039a1	0.07823492
163	0x3dd221dd	0.10260365
164	0x3d55f516	0.052235685
165	0x3cc60427	0.024171902
166	0x3d0fcf1c	0.035109624
167	0xbdc62935	-0.09675828
168	0x3b0a56f6	0.0021108962
169	0x3dc72ee0	0.097257376
170	0xbdb528e7	-0.08845692
171	0xbe08a4ab	-0.13344066
172	0x3e92def4	0.28685725
173	0xbddd540e	-0.10807048
174	0xbdf703f6	-0.12061302
175	0xbdf5f4a8	-0.12009555
176	0x3ca36515	0.01994566
177	0x3d2debad	0.042461086
178	0x3c104f64	0.008807991
179	0x3cdc9134	0.026924707
180	0xbd872696	-0.065991566
181	0xbd18c710	-0.037299216
182	0xbe15d014	-0.14630157
183	0xbb301126	-0.002686569
184	0xbd7b44d3	-0.061344933
185	0x3c53c3f9	0.0129251415
186	0x388a7dfe	6.603821e-05
187	0x3e49ee56	0.19719824
188	0xbca91540	-0.020640016
189	0x3d45aaa5	0.048258442
190	0xbe5d5ab5	-0.21616633
191	0xbc7d0342	-0.015442671
192	0x3ea43368	0.3207047
193	0xbdb3facd	-0.08788071
194	0xbf577835	-0.84167796
195	0x3dbc8e88	0.09206873
196	0x3cd7f98b	0.026364109
197	0xbe875f02	-0.26439673
198	0x3c123f00	0.008926153
199	0xbd035438	-0.03206274
200	0xbf4520b8	-0.7700305
201	0x3fa2e659	1.2726547
202	0xbf043ac9	-0.516522
203	0xbd655565	-0.05598964
204	0x3c315ce0	0.010825366
205	0x3d9cfb9b	0.076651774
206	0x3d91300d	0.07089243
207	0xbf02e9d2	-0.5113803
208	0x3d7a0d57	0.061047878
209	0xbe6b9b04	-0.23008353
210	0xbea1930e	-0.31557506
211	0x3d48dbbd	0.049037684
212	0x3cc24e6e	0.023719039
213	0x3d09a760	0.033606887
214	0xbe034e17	-0.12822758
215	0xbdc94a2d	-0.09828601
216	0x3f17c5a5	0.59285957
217	0xbec5bbc9	-0.3861983
218	0xbf5ad6da	-0.8548409
219	0xbe3f405b	-0.18676893
220	0x3eec0288	0.4609568
221	0x3e3605be	0.17775628
222	0x3e13ba11	0.14426447
223	0x3e4548d4	0.19266063
224	0x3e5fcc3d	0.21855254
225	0x3dbc7bc0	0.09203291
226	0x3c41fa0e	0.011839403
227	0xbdc4ca26	-0.09608869
228	0xbd588c14	-0.052867964
229	0x3f21e25c	0.6323602
230	0xbf1587da	-0.5841042
231	0xbd3d0e45	-0.046156187
232	0xbc370411	-0.011170403
233	0x3f338ba9	0.7013498
234	0x3de8a412	0.11359419
235	0x3d140d6e	0.03614562
236	0x3d0df0e1	0.03465355
237	0x3f4cad1c	0.79951644
238	0x3c9910e4	0.018684812
239	0xbda7fe70	-0.08202827
240	0x3d29f010	0.041488707
241	0x3e273cd4	0.16331798
242	0x3e1c56e4	0.15267521
243	0xbf65fce1	-0.8983899
244	0x3d92b3c8	0.07163197
245	0x3ddde477	0.10834592
246	0x3d948087	0.07251077
247	0xbf88a560	-1.0675468
248	0xbdc4053c	-0.09571311
249	0x3e478b62	0.19486764
250	0x3d29363b	0.041311484
251	0x3d803497	0.06260031
252	0xbf8ff5a4	-1.1246839
253	0x3e01ee68	0.12688601
254	0xbd3212da	-0.04347501
255	0xbd34447e	-0.04401063

decoder.4.bias f4 [36]
0	0xbcfb3bb9	-0.030668126
1	0xbdcdf605	-0.1005669
2	0x3caca350	0.021073967
3	0x3c282587	0.0102628535
4	0x3dcfa485	0.101388015
5	0x3cc267f1	0.023731204
6	0x3c859a3e	0.0163089
7	0x3dc5bb1c	0.09654829
8	0xbceb69fc	-0.02873706
9	0x3da64160	0.08117938
10	0xb925dc24	-0.00015817635
11	0x3c7daa0e	0.015482439
12	0x3d56e690	0.052465975
13	0x3deaaedb	0.11459132
14	0xbb0f329e	-0.0021850239
15	0x3e4d3e2a	0.20043245
16	0x3d6acef6	0.05732628
17	0x3df16464	0.11786726
18	0x3e1e9d9f	0.15489815
19	0x3e3073a0	0.17231607
20	0x3d40813c	0.046998248
21	0x3ea07e49	0.31346348
22	0x3ad28af0	0.0016063135
23	0x3da616a8	0.0810979
24	0x3cf53298	0.029931352
25	0x3e7b763d	0.24556823
26	0xbcca32e0	-0.024682462
27	0x3e96d033	0.29455718
28	0x3cd61f0f	0.026137857
29	0xbe429072	-0.19000414
30	0x3d9b620d	0.07587061
31	0xbd52356f	-0.05132049
32	0x3c660a37	0.014040521
33	0xbd939932	-0.07206954
34	0xbd820ed6	-0.06350486
35	0xbe0985a7	-0.1342989

exp_avg f4 [32, 36]
0	0xb9c6e13d	-0.00037933319
1	0xb9cf5b1b	-0.00039549996
2	0x39abe256	0.00032784295
3	0x39abe256	0.00032784295
4	0xba2933d8	-0.00064545637
5	0xba289d0c	-0.0006432093
6	0xba108ebe	-0.00055144343
7	0xba0ec894	-0.00054467586
8	0xba645485	-0.0008710104
9	0xba5ee805	-0.00085032015
10	0xba68c4fd	-0.0008879451
11	0xba695076	-0.0008900234
12	0xb9a7e60a	-0.00032024115
13	0xb99af5fa	-0.00029556436
14	0xba8281bc	-0.0009956877
15	0xba7f5157	-0.00097395986
16	0xba92f879	-0.0011212967
17	0xba93a668	-0.0011264803
18	0x39a5ba34	0.00031609985
19	0x39d1082a	0.0003986967
20	0x3885741e	6.363563e-05
21	0x3938e489	0.00017632743
22	0x39a1e8ef	0.00030881862
23	0x39b807a1	0.000351009
24	0xb88e48ae	-6.784625e-05
25	0x36db0500	6.5272907e-06
26	0xba91a8b9	-0.0011112905
27	0xba928637	-0.0011178915
28	0xb9cba637	-0.00038843017
29	0xb9d4c2d9	-0.00040580964
30	0xba796e61	-0.0009515044
31	0xba7b1673	-0.00095782353
32	0xba0ff897	-0.000549206
33	0xba133c6b	-0.0005616608
34	0xb4bdcf80	-3.535497e-07
35	0xb7cfb8ee	-2.4762438e-05
36	0xb95d2be9	-0.0002109256
37	0xb95cd233	-0.0002105914
38	0x37871de5	1.6107175e-05
39	0x37871de5	1.6107175e-05
40	0x3593cd50	1.1012107e-06
41	0x36c0e454	5.748627e-06
42	0xb8eb76fa	-0.00011227834
43	0xb8e2bd13	-0.000108117376
44	0xb7d2ce68	-2.5130066e-05
45	0xb794f53d	-1.7757173e-05
46	0xb8354abf	-4.3223376e-05
47	0xb840e645	-4.5990822e-05
48	0xb80ef7d9	-3.4086264e-05
49	0xb839b663	-4.4277298e-05
50	0xb8bccd2c	-9.002755e-05
51	0xb8bc1452	-8.9683235e-05
52	0x3821267e	3.842124e-05
53	0x385c8ac5	5.2581327e-05
54	0xb883fb11	-6.2933315e-05
55	0xb853d477	-5.0504193e-05
56	0xb91beb5f	-0.00014869634
57	0xb912246a	-0.0001393721
58	0xb89fdbe5	-7.622669e-05
59	0xb898fe37	-7.295276e-05
60	0xb93f9abd	-0.00018272824
61	0xb93eaa3e	-0.00018183232
62	0xb863569c	-5.420168e-05
63	0xb81853a1	-3.631751e-05
64	0xb8897082	-6.553625e-05
65	0xb88e7d7b	-6.79446e-05
66	0xb91c5c2a	-0.00014911653
67	0xb91e82f4	-0.00015116838
68	0x37dfba67	2.6670472e-05
69	0x37da6c72	2.6038124e-05
70	0xb7fa2690	-2.982028e-05
71	0xb80ebbdb	-3.4030392e-05
72	0x3889f514	6.5783184e-05
73	0x38948a66	7.082969e-05
74	0xb72db87c	-1.0354557e-05
75	0xb72db87c	-1.0354557e-05
76	0x3813cd2b	3.523861e-05
77	0x3836fb29	4.3626093e-05
78	0x398d9531	0.00027004772
79	0x398e8eb8	0.00027190684
80	0x39c89be5	0.00038263123
81	0x39cba6fa	0.00038843584
82	0x39637d2d	0.00021695039
83	0x3963a7b2	0.00021710878
84	0x391e10fb	0.0001507438
85	0x38f4641f	0.00011653476
86	0x39c62ff4	0.0003780123
87	0x39bf2605	0.00036458686
88	0x3a26ec7a	0.0006367635
89	0x3a2beb40	0.00065581873
90	0xb8c17c56	-9.2261165e-05
91	0xb8e1ec07	-0.000107727996
92	0xb94b9f04	-0.00019418827
93	0xb97afa37	-0.0002393507
94	0xb9431fc8	-0.00018608489
95	0xb959301f	-0.00020712659
96	0xb88dd694	-6.763372e-05
97	0xb8d33d8f	-0.0001007273
98	0x392e6dc7	0.00016634828
99	0x392a11d8	0.0001621911
100	0xb5e004a0	-1.6690647e-06
101	0x36832bd4	3.9092065e-06
102	0x39021d4a	0.00012408677
103	0x3905d9ce	0.00012765007
104	0x3998af3c	0.0002912226
105	0x399d4bd9	0.00030001884
106	0x392e49a9	0.00016621374
107	0x392ca47c	0.00016464473
108	0x39d93be6	0.00041434093
109	0x39da9c6e	0.0004169675
110	0x39516177	0.00019968102
111	0x39516177	0.00019968102
112	0x397b6ca6	0.000239777
113	0x39654a14	0.00021866738
114	0xb90d6a2b	-0.00013486359
115	0xb923085d	-0.00015548007
116	0xb9caedbe	-0.00038705574
117	0xb9d929c6	-0.0004142059
118	0xba002744	-0.00048886635
119	0xb9f4fd16	-0.0004672787
120	0xb7fdc0b8	-3.0249692e-05
121	0x38800b54	6.105626e-05
122	0x39043fe6	0.00012612305
123	0x392806b8	0.00016024231
124	0xba792f08	-0.00095056044
125	0xba87dd98	-0.0010365723
126	0x3a8e462f	0.0010854657
127	0x3a917c36	0.001109964
128	0x3a7142be	0.0009203366
129	0x3a7584e3	0.000936581
130	0x3a458cc6	0.00075359305
131	0x3a498971	0.0007688022
132	0x3a060fef	0.00051140686
133	0x3a07a11c	0.00051738485
134	0xb9d3a81c	-0.00040370307
135	0xba09860f	-0.00052461115
136	0x392e7c04	0.00016640133
137	0x39334055	0.00017094736
138	0xb95c1783	-0.00020989594
139	0xb9469f2f	-0.00018942052
140	0xb7fb01c4	-2.9922354e-05
141	0xb825e4ce	-3.9552157e-05
142	0x3a17ced2	0.00057910115
143	0x3a1a910b	0.0005896247
144	0x3acea7ec	0.0015766597
145	0x3ad730b0	0.0016417708
146	0xbae58586	-0.0017511107
147	0xbae58586	-0.0017511107
148	0x3b4e80d8	0.0031509902
149	0x3b4f8e44	0.003167049
150	0x3b665c08	0.003515007
151	0x3b64374a	0.0034822994
152	0x3b479af1	0.0030457343
153	0x3b453c5f	0.0030095798
154	0x3b5a0bf0	0.0033271275
155	0x3b5b3c0e	0.0033452543
156	0x3a9cc885	0.0011961615
157	0x3a7f735d	0.00097446685
158	0x3b2ed2e9	0.0026676005
159	0x3b1c576c	0.0023855818
160	0x3bd6453f	0.0065390165
161	0x3bda9e68	0.0066717155
162	0xbb84dd03	-0.004054667
163	0xbb9659e0	-0.0045883507
164	0xba4c7deb	-0.00078007457
165	0xbaa31cfa	-0.0012444549
166	0xbb27353e	-0.0025513913
167	0xbb371451	-0.0027935694
168	0xba923e65	-0.0011157511
169	0xbabe499d	-0.0014517788
170	0x3bb8588b	0.0056257895
171	0x3bbefe73	0.0058286726
172	0x3a9e507c	0.001207843
173	0x3aabe4c0	0.0013114437
174	0x3b44e476	0.00300434
175	0x3b474fde	0.0030412595
176	0x3b2eeb93	0.0026690706
177	0x3b349292	0.0027553183
178	0xba95036a	-0.0011368815
179	0xba869729	-0.0010268438
180	0xb88fdc61	-6.85982e-05
181	0xb88ae6cc	-6.623342e-05
182	0xb7588168	-1.2904733e-05
183	0xb7588168	-1.2904733e-05
184	0x38a75bb5	7.980262e-05
185	0x38ad9ea2	8.2788305e-05
186	0x380a7d8a	3.301868e-05
187	0x3802052c	3.0999232e-05
188	0x38ab940a	8.18149e-05
189	0x389f8dd0	7.6081255e-05
190	0x38e84d42	0.000110770125
191	0x38e58d1b	0.00010945854
192	0x381ebccd	3.784597e-05
193	0x38063049	3.199306e-05
194	0x38a59f2b	7.8974605e-05
195	0x389a31ff	7.352605e-05
196	0x397688b6	0.00023511317
197	0x397eb9b1	0.00024292503
198	0xb8c9039a	-9.585098e-05
199	0xb8dec548	-0.000106225314
200	0xb8b091df	-8.4195046e-05
201	0xb8d00d7f	-9.920727e-05
202	0xb8e038a9	-0.00010691706
203	0xb8f251bb	-0.00011554683
204	0x364dd390	3.0670526e-06
205	0xb69ca25a	-4.6680625e-06
206	0x39354f6a	0.00017291089
207	0x394494de	0.00018747474
208	0xb7f24608	-2.8881259e-05
209	0xb7d92974	-2.5887719e-05
210	0x37d3061f	2.515601e-05
211	0x37d83bc6	2.577704e-05
212	0x3891a4a2	6.944804e-05
213	0x3899a404	7.326159e-05
214	0xb80ac86b	-3.3088418e-05
215	0xb8073e4a	-3.224452e-05
216	0xbada36d7	-0.0016648424
217	0xbae38830	-0.0017359313
218	0x3a44481c	0.0007487552
219	0x3a44481c	0.0007487552
220	0xbb535a53	-0.0032249882
221	0xbb516a03	-0.0031954057
222	0xbaebf732	-0.0018002747
223	0xbae753c6	-0.0017648868
224	0xbb8f5e5c	-0.004375262
225	0xbb8e7209	-0.00434709
226	0xbabdd271	-0.0014482272
227	0xbabf53c3	-0.0014597106
228	0xba2ebe1a	-0.00066659006
229	0xba2073fa	-0.00061207975
230	0xbb3b26b7	-0.0028557011
231	0xbb31841c	-0.00270868
232	0xba9e7660	-0.0012089722
233	0xba8b2266	-0.001061511
234	0x372c1a00	1.02580525e-05
235	0x39961f64	0.00028633617
236	0xbaa8f160	-0.0012889318
237	0xba71808f	-0.0009212577
238	0x3a741d8c	0.0009312264
239	0x3a90e050	0.0011053178
240	0xbaab7e6e	-0.0013083944
241	0xba9038b4	-0.0011003227
242	0xbb63ea74	-0.0034777196
243	0xbb57068c	-0.0032810299
244	0xba5428f2	-0.00080932595
245	0xba64652c	-0.00087125855
246	0xbad3f061	-0.0016169661
247	0xbadf110b	-0.0017018629
248	0xba98eb5a	-0.001166682
249	0xba9e36dc	-0.0012070793
250	0xba0192bc	-0.00049428246
251	0xba1c953a	-0.0005973164
252	0xbb8259cb	-0.0039779893
253	0xbb7fd176	-0.003903476
254	0xbb983609	-0.0046451134
255	0xbb983609	-0.0046451134
